<?xml version="1.0" encoding="UTF-8"?>
<net name="action-recognition-0001-decoder" version="10">
	<layers>
		<layer id="0" name="0" type="Parameter" version="opset1">
			<data element_type="f16" shape="1,16,512"/>
			<output>
				<port id="0" precision="FP16">
					<dim>1</dim>
					<dim>16</dim>
					<dim>512</dim>
				</port>
			</output>
		</layer>
		<layer id="1" name="2491177/Output_0/Data_/copy_const292_const" type="Const" version="opset1">
			<data element_type="f16" offset="0" shape="1,16,512" size="16384"/>
			<output>
				<port id="1" precision="FP16">
					<dim>1</dim>
					<dim>16</dim>
					<dim>512</dim>
				</port>
			</output>
		</layer>
		<layer id="2" name="250" type="Add" version="opset1">
			<input>
				<port id="0">
					<dim>1</dim>
					<dim>16</dim>
					<dim>512</dim>
				</port>
				<port id="1">
					<dim>1</dim>
					<dim>16</dim>
					<dim>512</dim>
				</port>
			</input>
			<output>
				<port id="2" precision="FP16">
					<dim>1</dim>
					<dim>16</dim>
					<dim>512</dim>
				</port>
			</output>
		</layer>
		<layer id="3" name="22872291_const" type="Const" version="opset1">
			<data element_type="f16" offset="16384" shape="" size="2"/>
			<output>
				<port id="1" precision="FP16"/>
			</output>
		</layer>
		<layer id="4" name="22882292_const" type="Const" version="opset1">
			<data element_type="f16" offset="16386" shape="" size="2"/>
			<output>
				<port id="1" precision="FP16"/>
			</output>
		</layer>
		<layer id="5" name="22892293_const" type="Const" version="opset1">
			<data element_type="f16" offset="16384" shape="" size="2"/>
			<output>
				<port id="1" precision="FP16"/>
			</output>
		</layer>
		<layer id="6" name="22902294_const" type="Const" version="opset1">
			<data element_type="f16" offset="16386" shape="" size="2"/>
			<output>
				<port id="1" precision="FP16"/>
			</output>
		</layer>
		<layer id="7" name="264/3D_Tile_Unsqueeze/fq_input_0" type="FakeQuantize" version="opset1">
			<data levels="256"/>
			<input>
				<port id="0">
					<dim>1</dim>
					<dim>16</dim>
					<dim>512</dim>
				</port>
				<port id="1"/>
				<port id="2"/>
				<port id="3"/>
				<port id="4"/>
			</input>
			<output>
				<port id="5" precision="FP16">
					<dim>1</dim>
					<dim>16</dim>
					<dim>512</dim>
				</port>
			</output>
		</layer>
		<layer id="8" name="264/3D_Tile_Unsqueeze_dim6662_const294_const" type="Const" version="opset1">
			<data element_type="i64" offset="16388" shape="1" size="8"/>
			<output>
				<port id="1" precision="I64">
					<dim>1</dim>
				</port>
			</output>
		</layer>
		<layer id="9" name="264/3D_Tile_Unsqueeze" type="Unsqueeze" version="opset1">
			<input>
				<port id="0">
					<dim>1</dim>
					<dim>16</dim>
					<dim>512</dim>
				</port>
				<port id="1">
					<dim>1</dim>
				</port>
			</input>
			<output>
				<port id="2" precision="FP16">
					<dim>1</dim>
					<dim>16</dim>
					<dim>512</dim>
					<dim>1</dim>
				</port>
			</output>
		</layer>
		<layer id="10" name="66646666_const296_const" type="Const" version="opset1">
			<data element_type="i64" offset="16396" shape="4" size="32"/>
			<output>
				<port id="1" precision="I64">
					<dim>4</dim>
				</port>
			</output>
		</layer>
		<layer id="11" name="264" type="Tile" version="opset1">
			<input>
				<port id="0">
					<dim>1</dim>
					<dim>16</dim>
					<dim>512</dim>
					<dim>1</dim>
				</port>
				<port id="1">
					<dim>4</dim>
				</port>
			</input>
			<output>
				<port id="2" precision="FP16">
					<dim>8</dim>
					<dim>16</dim>
					<dim>512</dim>
					<dim>1</dim>
				</port>
			</output>
		</layer>
		<layer id="12" name="264/3D_Tile_Squeeze_dim6669_const298_const" type="Const" version="opset1">
			<data element_type="i64" offset="16388" shape="1" size="8"/>
			<output>
				<port id="1" precision="I64">
					<dim>1</dim>
				</port>
			</output>
		</layer>
		<layer id="13" name="264/3D_Tile_Squeeze" type="Squeeze" version="opset1">
			<input>
				<port id="0">
					<dim>8</dim>
					<dim>16</dim>
					<dim>512</dim>
					<dim>1</dim>
				</port>
				<port id="1">
					<dim>1</dim>
				</port>
			</input>
			<output>
				<port id="2" precision="FP16">
					<dim>8</dim>
					<dim>16</dim>
					<dim>512</dim>
				</port>
			</output>
		</layer>
		<layer id="14" name="271/Cast_19999_const300_const" type="Const" version="opset1">
			<data element_type="i64" offset="16428" shape="3" size="24"/>
			<output>
				<port id="1" precision="I64">
					<dim>3</dim>
				</port>
			</output>
		</layer>
		<layer id="15" name="271" type="Reshape" version="opset1">
			<data special_zero="True"/>
			<input>
				<port id="0">
					<dim>8</dim>
					<dim>16</dim>
					<dim>512</dim>
				</port>
				<port id="1">
					<dim>3</dim>
				</port>
			</input>
			<output>
				<port id="2" precision="FP16">
					<dim>8</dim>
					<dim>16</dim>
					<dim>512</dim>
				</port>
			</output>
		</layer>
		<layer id="16" name="decoder_290/fq_weights_1/Convert_to_float/Cast_04645_const" type="Const" version="opset1">
			<data element_type="u8" offset="16452" shape="8,64,512" size="262144"/>
			<output>
				<port id="1" precision="U8">
					<dim>8</dim>
					<dim>64</dim>
					<dim>512</dim>
				</port>
			</output>
		</layer>
		<layer id="17" name="290/fq_weights_1/Convert_to_float" type="Convert" version="opset1">
			<data destination_type="f16"/>
			<input>
				<port id="0">
					<dim>8</dim>
					<dim>64</dim>
					<dim>512</dim>
				</port>
			</input>
			<output>
				<port id="1" precision="FP16">
					<dim>8</dim>
					<dim>64</dim>
					<dim>512</dim>
				</port>
			</output>
		</layer>
		<layer id="18" name="decoder_290/fq_weights_1/Copy/out_low4179_const" type="Const" version="opset1">
			<data element_type="f16" offset="278596" shape="1" size="2"/>
			<output>
				<port id="1" precision="FP16">
					<dim>1</dim>
				</port>
			</output>
		</layer>
		<layer id="19" name="decoder_290/fq_weights_1/Copy/out_high4180_const" type="Const" version="opset1">
			<data element_type="f16" offset="278598" shape="1" size="2"/>
			<output>
				<port id="1" precision="FP16">
					<dim>1</dim>
				</port>
			</output>
		</layer>
		<layer id="20" name="17891793_const" type="Const" version="opset1">
			<data element_type="f16" offset="278600" shape="8,1,1" size="16"/>
			<output>
				<port id="1" precision="FP16">
					<dim>8</dim>
					<dim>1</dim>
					<dim>1</dim>
				</port>
			</output>
		</layer>
		<layer id="21" name="17901794_const" type="Const" version="opset1">
			<data element_type="f16" offset="278616" shape="8,1,1" size="16"/>
			<output>
				<port id="1" precision="FP16">
					<dim>8</dim>
					<dim>1</dim>
					<dim>1</dim>
				</port>
			</output>
		</layer>
		<layer id="22" name="290/fq_weights_1" type="FakeQuantize" version="opset1">
			<data levels="255"/>
			<input>
				<port id="0">
					<dim>8</dim>
					<dim>64</dim>
					<dim>512</dim>
				</port>
				<port id="1">
					<dim>1</dim>
				</port>
				<port id="2">
					<dim>1</dim>
				</port>
				<port id="3">
					<dim>8</dim>
					<dim>1</dim>
					<dim>1</dim>
				</port>
				<port id="4">
					<dim>8</dim>
					<dim>1</dim>
					<dim>1</dim>
				</port>
			</input>
			<output>
				<port id="5" precision="FP16">
					<dim>8</dim>
					<dim>64</dim>
					<dim>512</dim>
				</port>
			</output>
		</layer>
		<layer id="23" name="290" type="MatMul" version="opset1">
			<data transpose_a="False" transpose_b="True"/>
			<input>
				<port id="0">
					<dim>8</dim>
					<dim>16</dim>
					<dim>512</dim>
				</port>
				<port id="1">
					<dim>8</dim>
					<dim>64</dim>
					<dim>512</dim>
				</port>
			</input>
			<output>
				<port id="2" precision="FP16">
					<dim>8</dim>
					<dim>16</dim>
					<dim>64</dim>
				</port>
			</output>
		</layer>
		<layer id="24" name="23772381_const" type="Const" version="opset1">
			<data element_type="f16" offset="278632" shape="" size="2"/>
			<output>
				<port id="1" precision="FP16"/>
			</output>
		</layer>
		<layer id="25" name="23782382_const" type="Const" version="opset1">
			<data element_type="f16" offset="278634" shape="" size="2"/>
			<output>
				<port id="1" precision="FP16"/>
			</output>
		</layer>
		<layer id="26" name="23792383_const" type="Const" version="opset1">
			<data element_type="f16" offset="278632" shape="" size="2"/>
			<output>
				<port id="1" precision="FP16"/>
			</output>
		</layer>
		<layer id="27" name="23802384_const" type="Const" version="opset1">
			<data element_type="f16" offset="278634" shape="" size="2"/>
			<output>
				<port id="1" precision="FP16"/>
			</output>
		</layer>
		<layer id="28" name="297/fq_input_0" type="FakeQuantize" version="opset1">
			<data levels="256"/>
			<input>
				<port id="0">
					<dim>8</dim>
					<dim>16</dim>
					<dim>64</dim>
				</port>
				<port id="1"/>
				<port id="2"/>
				<port id="3"/>
				<port id="4"/>
			</input>
			<output>
				<port id="5" precision="FP16">
					<dim>8</dim>
					<dim>16</dim>
					<dim>64</dim>
				</port>
			</output>
		</layer>
		<layer id="29" name="297/Cast_19917_const304_const" type="Const" version="opset1">
			<data element_type="i64" offset="278636" shape="3" size="24"/>
			<output>
				<port id="1" precision="I64">
					<dim>3</dim>
				</port>
			</output>
		</layer>
		<layer id="30" name="297" type="Reshape" version="opset1">
			<data special_zero="True"/>
			<input>
				<port id="0">
					<dim>8</dim>
					<dim>16</dim>
					<dim>64</dim>
				</port>
				<port id="1">
					<dim>3</dim>
				</port>
			</input>
			<output>
				<port id="2" precision="FP16">
					<dim>8</dim>
					<dim>16</dim>
					<dim>64</dim>
				</port>
			</output>
		</layer>
		<layer id="31" name="273/3D_Tile_Unsqueeze_dim6710_const306_const" type="Const" version="opset1">
			<data element_type="i64" offset="16388" shape="1" size="8"/>
			<output>
				<port id="1" precision="I64">
					<dim>1</dim>
				</port>
			</output>
		</layer>
		<layer id="32" name="273/3D_Tile_Unsqueeze" type="Unsqueeze" version="opset1">
			<input>
				<port id="0">
					<dim>1</dim>
					<dim>16</dim>
					<dim>512</dim>
				</port>
				<port id="1">
					<dim>1</dim>
				</port>
			</input>
			<output>
				<port id="2" precision="FP16">
					<dim>1</dim>
					<dim>16</dim>
					<dim>512</dim>
					<dim>1</dim>
				</port>
			</output>
		</layer>
		<layer id="33" name="67126714_const308_const" type="Const" version="opset1">
			<data element_type="i64" offset="16396" shape="4" size="32"/>
			<output>
				<port id="1" precision="I64">
					<dim>4</dim>
				</port>
			</output>
		</layer>
		<layer id="34" name="273" type="Tile" version="opset1">
			<input>
				<port id="0">
					<dim>1</dim>
					<dim>16</dim>
					<dim>512</dim>
					<dim>1</dim>
				</port>
				<port id="1">
					<dim>4</dim>
				</port>
			</input>
			<output>
				<port id="2" precision="FP16">
					<dim>8</dim>
					<dim>16</dim>
					<dim>512</dim>
					<dim>1</dim>
				</port>
			</output>
		</layer>
		<layer id="35" name="273/3D_Tile_Squeeze_dim6717_const310_const" type="Const" version="opset1">
			<data element_type="i64" offset="16388" shape="1" size="8"/>
			<output>
				<port id="1" precision="I64">
					<dim>1</dim>
				</port>
			</output>
		</layer>
		<layer id="36" name="273/3D_Tile_Squeeze" type="Squeeze" version="opset1">
			<input>
				<port id="0">
					<dim>8</dim>
					<dim>16</dim>
					<dim>512</dim>
					<dim>1</dim>
				</port>
				<port id="1">
					<dim>1</dim>
				</port>
			</input>
			<output>
				<port id="2" precision="FP16">
					<dim>8</dim>
					<dim>16</dim>
					<dim>512</dim>
				</port>
			</output>
		</layer>
		<layer id="37" name="280/Cast_19961_const312_const" type="Const" version="opset1">
			<data element_type="i64" offset="16428" shape="3" size="24"/>
			<output>
				<port id="1" precision="I64">
					<dim>3</dim>
				</port>
			</output>
		</layer>
		<layer id="38" name="280" type="Reshape" version="opset1">
			<data special_zero="True"/>
			<input>
				<port id="0">
					<dim>8</dim>
					<dim>16</dim>
					<dim>512</dim>
				</port>
				<port id="1">
					<dim>3</dim>
				</port>
			</input>
			<output>
				<port id="2" precision="FP16">
					<dim>8</dim>
					<dim>16</dim>
					<dim>512</dim>
				</port>
			</output>
		</layer>
		<layer id="39" name="decoder_298/fq_weights_1/Convert_to_float/Cast_04671_const" type="Const" version="opset1">
			<data element_type="u8" offset="278660" shape="8,64,512" size="262144"/>
			<output>
				<port id="1" precision="U8">
					<dim>8</dim>
					<dim>64</dim>
					<dim>512</dim>
				</port>
			</output>
		</layer>
		<layer id="40" name="298/fq_weights_1/Convert_to_float" type="Convert" version="opset1">
			<data destination_type="f16"/>
			<input>
				<port id="0">
					<dim>8</dim>
					<dim>64</dim>
					<dim>512</dim>
				</port>
			</input>
			<output>
				<port id="1" precision="FP16">
					<dim>8</dim>
					<dim>64</dim>
					<dim>512</dim>
				</port>
			</output>
		</layer>
		<layer id="41" name="decoder_298/fq_weights_1/Copy/out_low4067_const" type="Const" version="opset1">
			<data element_type="f16" offset="278596" shape="1" size="2"/>
			<output>
				<port id="1" precision="FP16">
					<dim>1</dim>
				</port>
			</output>
		</layer>
		<layer id="42" name="decoder_298/fq_weights_1/Copy/out_high4068_const" type="Const" version="opset1">
			<data element_type="f16" offset="278598" shape="1" size="2"/>
			<output>
				<port id="1" precision="FP16">
					<dim>1</dim>
				</port>
			</output>
		</layer>
		<layer id="43" name="16291633_const" type="Const" version="opset1">
			<data element_type="f16" offset="540804" shape="8,1,1" size="16"/>
			<output>
				<port id="1" precision="FP16">
					<dim>8</dim>
					<dim>1</dim>
					<dim>1</dim>
				</port>
			</output>
		</layer>
		<layer id="44" name="16301634_const" type="Const" version="opset1">
			<data element_type="f16" offset="540820" shape="8,1,1" size="16"/>
			<output>
				<port id="1" precision="FP16">
					<dim>8</dim>
					<dim>1</dim>
					<dim>1</dim>
				</port>
			</output>
		</layer>
		<layer id="45" name="298/fq_weights_1" type="FakeQuantize" version="opset1">
			<data levels="255"/>
			<input>
				<port id="0">
					<dim>8</dim>
					<dim>64</dim>
					<dim>512</dim>
				</port>
				<port id="1">
					<dim>1</dim>
				</port>
				<port id="2">
					<dim>1</dim>
				</port>
				<port id="3">
					<dim>8</dim>
					<dim>1</dim>
					<dim>1</dim>
				</port>
				<port id="4">
					<dim>8</dim>
					<dim>1</dim>
					<dim>1</dim>
				</port>
			</input>
			<output>
				<port id="5" precision="FP16">
					<dim>8</dim>
					<dim>64</dim>
					<dim>512</dim>
				</port>
			</output>
		</layer>
		<layer id="46" name="298" type="MatMul" version="opset1">
			<data transpose_a="False" transpose_b="True"/>
			<input>
				<port id="0">
					<dim>8</dim>
					<dim>16</dim>
					<dim>512</dim>
				</port>
				<port id="1">
					<dim>8</dim>
					<dim>64</dim>
					<dim>512</dim>
				</port>
			</input>
			<output>
				<port id="2" precision="FP16">
					<dim>8</dim>
					<dim>16</dim>
					<dim>64</dim>
				</port>
			</output>
		</layer>
		<layer id="47" name="23972401_const" type="Const" version="opset1">
			<data element_type="f16" offset="540836" shape="" size="2"/>
			<output>
				<port id="1" precision="FP16"/>
			</output>
		</layer>
		<layer id="48" name="23982402_const" type="Const" version="opset1">
			<data element_type="f16" offset="540838" shape="" size="2"/>
			<output>
				<port id="1" precision="FP16"/>
			</output>
		</layer>
		<layer id="49" name="23992403_const" type="Const" version="opset1">
			<data element_type="f16" offset="540836" shape="" size="2"/>
			<output>
				<port id="1" precision="FP16"/>
			</output>
		</layer>
		<layer id="50" name="24002404_const" type="Const" version="opset1">
			<data element_type="f16" offset="540838" shape="" size="2"/>
			<output>
				<port id="1" precision="FP16"/>
			</output>
		</layer>
		<layer id="51" name="305/fq_input_0" type="FakeQuantize" version="opset1">
			<data levels="256"/>
			<input>
				<port id="0">
					<dim>8</dim>
					<dim>16</dim>
					<dim>64</dim>
				</port>
				<port id="1"/>
				<port id="2"/>
				<port id="3"/>
				<port id="4"/>
			</input>
			<output>
				<port id="5" precision="FP16">
					<dim>8</dim>
					<dim>16</dim>
					<dim>64</dim>
				</port>
			</output>
		</layer>
		<layer id="52" name="305/Cast_19929_const316_const" type="Const" version="opset1">
			<data element_type="i64" offset="278636" shape="3" size="24"/>
			<output>
				<port id="1" precision="I64">
					<dim>3</dim>
				</port>
			</output>
		</layer>
		<layer id="53" name="305" type="Reshape" version="opset1">
			<data special_zero="True"/>
			<input>
				<port id="0">
					<dim>8</dim>
					<dim>16</dim>
					<dim>64</dim>
				</port>
				<port id="1">
					<dim>3</dim>
				</port>
			</input>
			<output>
				<port id="2" precision="FP16">
					<dim>8</dim>
					<dim>16</dim>
					<dim>64</dim>
				</port>
			</output>
		</layer>
		<layer id="54" name="decoder_314/Cast_14637_const" type="Const" version="opset1">
			<data element_type="i64" offset="540840" shape="3" size="24"/>
			<output>
				<port id="1" precision="I64">
					<dim>3</dim>
				</port>
			</output>
		</layer>
		<layer id="55" name="314" type="Transpose" version="opset1">
			<input>
				<port id="0">
					<dim>8</dim>
					<dim>16</dim>
					<dim>64</dim>
				</port>
				<port id="1">
					<dim>3</dim>
				</port>
			</input>
			<output>
				<port id="2" precision="FP16">
					<dim>8</dim>
					<dim>64</dim>
					<dim>16</dim>
				</port>
			</output>
		</layer>
		<layer id="56" name="decoder_317/fq_input_1/Convert_to_float/Cast_04623_const" type="Const" version="opset1">
			<data element_type="u8" offset="540864" shape="1,64,1" size="64"/>
			<output>
				<port id="1" precision="U8">
					<dim>1</dim>
					<dim>64</dim>
					<dim>1</dim>
				</port>
			</output>
		</layer>
		<layer id="57" name="317/fq_input_1/Convert_to_float" type="Convert" version="opset1">
			<data destination_type="f16"/>
			<input>
				<port id="0">
					<dim>1</dim>
					<dim>64</dim>
					<dim>1</dim>
				</port>
			</input>
			<output>
				<port id="1" precision="FP16">
					<dim>1</dim>
					<dim>64</dim>
					<dim>1</dim>
				</port>
			</output>
		</layer>
		<layer id="58" name="decoder_317/fq_input_1/Copy/out_low4059_const" type="Const" version="opset1">
			<data element_type="f16" offset="278596" shape="1" size="2"/>
			<output>
				<port id="1" precision="FP16">
					<dim>1</dim>
				</port>
			</output>
		</layer>
		<layer id="59" name="decoder_317/fq_input_1/Copy/out_high4060_const" type="Const" version="opset1">
			<data element_type="f16" offset="278598" shape="1" size="2"/>
			<output>
				<port id="1" precision="FP16">
					<dim>1</dim>
				</port>
			</output>
		</layer>
		<layer id="60" name="13691373_const" type="Const" version="opset1">
			<data element_type="f16" offset="540928" shape="1,1,1" size="2"/>
			<output>
				<port id="1" precision="FP16">
					<dim>1</dim>
					<dim>1</dim>
					<dim>1</dim>
				</port>
			</output>
		</layer>
		<layer id="61" name="13701374_const" type="Const" version="opset1">
			<data element_type="f16" offset="540930" shape="1,1,1" size="2"/>
			<output>
				<port id="1" precision="FP16">
					<dim>1</dim>
					<dim>1</dim>
					<dim>1</dim>
				</port>
			</output>
		</layer>
		<layer id="62" name="317/fq_input_1" type="FakeQuantize" version="opset1">
			<data levels="255"/>
			<input>
				<port id="0">
					<dim>1</dim>
					<dim>64</dim>
					<dim>1</dim>
				</port>
				<port id="1">
					<dim>1</dim>
				</port>
				<port id="2">
					<dim>1</dim>
				</port>
				<port id="3">
					<dim>1</dim>
					<dim>1</dim>
					<dim>1</dim>
				</port>
				<port id="4">
					<dim>1</dim>
					<dim>1</dim>
					<dim>1</dim>
				</port>
			</input>
			<output>
				<port id="5" precision="FP16">
					<dim>1</dim>
					<dim>64</dim>
					<dim>1</dim>
				</port>
			</output>
		</layer>
		<layer id="63" name="317" type="Multiply" version="opset1">
			<input>
				<port id="0">
					<dim>8</dim>
					<dim>64</dim>
					<dim>16</dim>
				</port>
				<port id="1">
					<dim>1</dim>
					<dim>64</dim>
					<dim>1</dim>
				</port>
			</input>
			<output>
				<port id="2" precision="FP16">
					<dim>8</dim>
					<dim>64</dim>
					<dim>16</dim>
				</port>
			</output>
		</layer>
		<layer id="64" name="16471651_const" type="Const" version="opset1">
			<data element_type="f16" offset="540932" shape="" size="2"/>
			<output>
				<port id="1" precision="FP16"/>
			</output>
		</layer>
		<layer id="65" name="16481652_const" type="Const" version="opset1">
			<data element_type="f16" offset="540934" shape="" size="2"/>
			<output>
				<port id="1" precision="FP16"/>
			</output>
		</layer>
		<layer id="66" name="16491653_const" type="Const" version="opset1">
			<data element_type="f16" offset="540932" shape="" size="2"/>
			<output>
				<port id="1" precision="FP16"/>
			</output>
		</layer>
		<layer id="67" name="16501654_const" type="Const" version="opset1">
			<data element_type="f16" offset="540934" shape="" size="2"/>
			<output>
				<port id="1" precision="FP16"/>
			</output>
		</layer>
		<layer id="68" name="315/fq_weights_1" type="FakeQuantize" version="opset1">
			<data levels="256"/>
			<input>
				<port id="0">
					<dim>8</dim>
					<dim>64</dim>
					<dim>16</dim>
				</port>
				<port id="1"/>
				<port id="2"/>
				<port id="3"/>
				<port id="4"/>
			</input>
			<output>
				<port id="5" precision="FP16">
					<dim>8</dim>
					<dim>64</dim>
					<dim>16</dim>
				</port>
			</output>
		</layer>
		<layer id="69" name="315" type="MatMul" version="opset1">
			<data transpose_a="False" transpose_b="False"/>
			<input>
				<port id="0">
					<dim>8</dim>
					<dim>16</dim>
					<dim>64</dim>
				</port>
				<port id="1">
					<dim>8</dim>
					<dim>64</dim>
					<dim>16</dim>
				</port>
			</input>
			<output>
				<port id="2" precision="FP16">
					<dim>8</dim>
					<dim>16</dim>
					<dim>16</dim>
				</port>
			</output>
		</layer>
		<layer id="70" name="329/Cast_19951_const323_const" type="Const" version="opset1">
			<data element_type="i64" offset="540936" shape="2" size="16"/>
			<output>
				<port id="1" precision="I64">
					<dim>2</dim>
				</port>
			</output>
		</layer>
		<layer id="71" name="329" type="Reshape" version="opset1">
			<data special_zero="True"/>
			<input>
				<port id="0">
					<dim>8</dim>
					<dim>16</dim>
					<dim>16</dim>
				</port>
				<port id="1">
					<dim>2</dim>
				</port>
			</input>
			<output>
				<port id="2" precision="FP16">
					<dim>128</dim>
					<dim>16</dim>
				</port>
			</output>
		</layer>
		<layer id="72" name="330/FlattenONNX_/Reshape/Cast_19987_const325_const" type="Const" version="opset1">
			<data element_type="i64" offset="540952" shape="2" size="16"/>
			<output>
				<port id="1" precision="I64">
					<dim>2</dim>
				</port>
			</output>
		</layer>
		<layer id="73" name="330/FlattenONNX_/Reshape" type="Reshape" version="opset1">
			<data special_zero="True"/>
			<input>
				<port id="0">
					<dim>128</dim>
					<dim>16</dim>
				</port>
				<port id="1">
					<dim>2</dim>
				</port>
			</input>
			<output>
				<port id="2" precision="FP16">
					<dim>128</dim>
					<dim>16</dim>
				</port>
			</output>
		</layer>
		<layer id="74" name="330" type="SoftMax" version="opset1">
			<data axis="1"/>
			<input>
				<port id="0">
					<dim>128</dim>
					<dim>16</dim>
				</port>
			</input>
			<output>
				<port id="1" precision="FP16">
					<dim>128</dim>
					<dim>16</dim>
				</port>
			</output>
		</layer>
		<layer id="75" name="24072411_const" type="Const" version="opset1">
			<data element_type="f16" offset="278596" shape="" size="2"/>
			<output>
				<port id="1" precision="FP16"/>
			</output>
		</layer>
		<layer id="76" name="24082412_const" type="Const" version="opset1">
			<data element_type="f16" offset="540968" shape="" size="2"/>
			<output>
				<port id="1" precision="FP16"/>
			</output>
		</layer>
		<layer id="77" name="24092413_const" type="Const" version="opset1">
			<data element_type="f16" offset="278596" shape="" size="2"/>
			<output>
				<port id="1" precision="FP16"/>
			</output>
		</layer>
		<layer id="78" name="24102414_const" type="Const" version="opset1">
			<data element_type="f16" offset="540968" shape="" size="2"/>
			<output>
				<port id="1" precision="FP16"/>
			</output>
		</layer>
		<layer id="79" name="336/fq_input_0" type="FakeQuantize" version="opset1">
			<data levels="256"/>
			<input>
				<port id="0">
					<dim>128</dim>
					<dim>16</dim>
				</port>
				<port id="1"/>
				<port id="2"/>
				<port id="3"/>
				<port id="4"/>
			</input>
			<output>
				<port id="5" precision="FP16">
					<dim>128</dim>
					<dim>16</dim>
				</port>
			</output>
		</layer>
		<layer id="80" name="336/Cast_19941_const328_const" type="Const" version="opset1">
			<data element_type="i64" offset="540970" shape="3" size="24"/>
			<output>
				<port id="1" precision="I64">
					<dim>3</dim>
				</port>
			</output>
		</layer>
		<layer id="81" name="336" type="Reshape" version="opset1">
			<data special_zero="True"/>
			<input>
				<port id="0">
					<dim>128</dim>
					<dim>16</dim>
				</port>
				<port id="1">
					<dim>3</dim>
				</port>
			</input>
			<output>
				<port id="2" precision="FP16">
					<dim>8</dim>
					<dim>16</dim>
					<dim>16</dim>
				</port>
			</output>
		</layer>
		<layer id="82" name="282/3D_Tile_Unsqueeze_dim6614_const330_const" type="Const" version="opset1">
			<data element_type="i64" offset="16388" shape="1" size="8"/>
			<output>
				<port id="1" precision="I64">
					<dim>1</dim>
				</port>
			</output>
		</layer>
		<layer id="83" name="282/3D_Tile_Unsqueeze" type="Unsqueeze" version="opset1">
			<input>
				<port id="0">
					<dim>1</dim>
					<dim>16</dim>
					<dim>512</dim>
				</port>
				<port id="1">
					<dim>1</dim>
				</port>
			</input>
			<output>
				<port id="2" precision="FP16">
					<dim>1</dim>
					<dim>16</dim>
					<dim>512</dim>
					<dim>1</dim>
				</port>
			</output>
		</layer>
		<layer id="84" name="66166618_const332_const" type="Const" version="opset1">
			<data element_type="i64" offset="16396" shape="4" size="32"/>
			<output>
				<port id="1" precision="I64">
					<dim>4</dim>
				</port>
			</output>
		</layer>
		<layer id="85" name="282" type="Tile" version="opset1">
			<input>
				<port id="0">
					<dim>1</dim>
					<dim>16</dim>
					<dim>512</dim>
					<dim>1</dim>
				</port>
				<port id="1">
					<dim>4</dim>
				</port>
			</input>
			<output>
				<port id="2" precision="FP16">
					<dim>8</dim>
					<dim>16</dim>
					<dim>512</dim>
					<dim>1</dim>
				</port>
			</output>
		</layer>
		<layer id="86" name="282/3D_Tile_Squeeze_dim6621_const334_const" type="Const" version="opset1">
			<data element_type="i64" offset="16388" shape="1" size="8"/>
			<output>
				<port id="1" precision="I64">
					<dim>1</dim>
				</port>
			</output>
		</layer>
		<layer id="87" name="282/3D_Tile_Squeeze" type="Squeeze" version="opset1">
			<input>
				<port id="0">
					<dim>8</dim>
					<dim>16</dim>
					<dim>512</dim>
					<dim>1</dim>
				</port>
				<port id="1">
					<dim>1</dim>
				</port>
			</input>
			<output>
				<port id="2" precision="FP16">
					<dim>8</dim>
					<dim>16</dim>
					<dim>512</dim>
				</port>
			</output>
		</layer>
		<layer id="88" name="289/Cast_19981_const336_const" type="Const" version="opset1">
			<data element_type="i64" offset="16428" shape="3" size="24"/>
			<output>
				<port id="1" precision="I64">
					<dim>3</dim>
				</port>
			</output>
		</layer>
		<layer id="89" name="289" type="Reshape" version="opset1">
			<data special_zero="True"/>
			<input>
				<port id="0">
					<dim>8</dim>
					<dim>16</dim>
					<dim>512</dim>
				</port>
				<port id="1">
					<dim>3</dim>
				</port>
			</input>
			<output>
				<port id="2" precision="FP16">
					<dim>8</dim>
					<dim>16</dim>
					<dim>512</dim>
				</port>
			</output>
		</layer>
		<layer id="90" name="decoder_306/fq_weights_1/Convert_to_float/Cast_04643_const" type="Const" version="opset1">
			<data element_type="u8" offset="540994" shape="8,64,512" size="262144"/>
			<output>
				<port id="1" precision="U8">
					<dim>8</dim>
					<dim>64</dim>
					<dim>512</dim>
				</port>
			</output>
		</layer>
		<layer id="91" name="306/fq_weights_1/Convert_to_float" type="Convert" version="opset1">
			<data destination_type="f16"/>
			<input>
				<port id="0">
					<dim>8</dim>
					<dim>64</dim>
					<dim>512</dim>
				</port>
			</input>
			<output>
				<port id="1" precision="FP16">
					<dim>8</dim>
					<dim>64</dim>
					<dim>512</dim>
				</port>
			</output>
		</layer>
		<layer id="92" name="decoder_306/fq_weights_1/Copy/out_low4051_const" type="Const" version="opset1">
			<data element_type="f16" offset="278596" shape="1" size="2"/>
			<output>
				<port id="1" precision="FP16">
					<dim>1</dim>
				</port>
			</output>
		</layer>
		<layer id="93" name="decoder_306/fq_weights_1/Copy/out_high4052_const" type="Const" version="opset1">
			<data element_type="f16" offset="278598" shape="1" size="2"/>
			<output>
				<port id="1" precision="FP16">
					<dim>1</dim>
				</port>
			</output>
		</layer>
		<layer id="94" name="15491553_const" type="Const" version="opset1">
			<data element_type="f16" offset="803138" shape="8,1,1" size="16"/>
			<output>
				<port id="1" precision="FP16">
					<dim>8</dim>
					<dim>1</dim>
					<dim>1</dim>
				</port>
			</output>
		</layer>
		<layer id="95" name="15501554_const" type="Const" version="opset1">
			<data element_type="f16" offset="803154" shape="8,1,1" size="16"/>
			<output>
				<port id="1" precision="FP16">
					<dim>8</dim>
					<dim>1</dim>
					<dim>1</dim>
				</port>
			</output>
		</layer>
		<layer id="96" name="306/fq_weights_1" type="FakeQuantize" version="opset1">
			<data levels="255"/>
			<input>
				<port id="0">
					<dim>8</dim>
					<dim>64</dim>
					<dim>512</dim>
				</port>
				<port id="1">
					<dim>1</dim>
				</port>
				<port id="2">
					<dim>1</dim>
				</port>
				<port id="3">
					<dim>8</dim>
					<dim>1</dim>
					<dim>1</dim>
				</port>
				<port id="4">
					<dim>8</dim>
					<dim>1</dim>
					<dim>1</dim>
				</port>
			</input>
			<output>
				<port id="5" precision="FP16">
					<dim>8</dim>
					<dim>64</dim>
					<dim>512</dim>
				</port>
			</output>
		</layer>
		<layer id="97" name="306" type="MatMul" version="opset1">
			<data transpose_a="False" transpose_b="True"/>
			<input>
				<port id="0">
					<dim>8</dim>
					<dim>16</dim>
					<dim>512</dim>
				</port>
				<port id="1">
					<dim>8</dim>
					<dim>64</dim>
					<dim>512</dim>
				</port>
			</input>
			<output>
				<port id="2" precision="FP16">
					<dim>8</dim>
					<dim>16</dim>
					<dim>64</dim>
				</port>
			</output>
		</layer>
		<layer id="98" name="24172421_const" type="Const" version="opset1">
			<data element_type="f16" offset="803170" shape="" size="2"/>
			<output>
				<port id="1" precision="FP16"/>
			</output>
		</layer>
		<layer id="99" name="24182422_const" type="Const" version="opset1">
			<data element_type="f16" offset="803172" shape="" size="2"/>
			<output>
				<port id="1" precision="FP16"/>
			</output>
		</layer>
		<layer id="100" name="24192423_const" type="Const" version="opset1">
			<data element_type="f16" offset="803170" shape="" size="2"/>
			<output>
				<port id="1" precision="FP16"/>
			</output>
		</layer>
		<layer id="101" name="24202424_const" type="Const" version="opset1">
			<data element_type="f16" offset="803172" shape="" size="2"/>
			<output>
				<port id="1" precision="FP16"/>
			</output>
		</layer>
		<layer id="102" name="313/fq_input_0" type="FakeQuantize" version="opset1">
			<data levels="256"/>
			<input>
				<port id="0">
					<dim>8</dim>
					<dim>16</dim>
					<dim>64</dim>
				</port>
				<port id="1"/>
				<port id="2"/>
				<port id="3"/>
				<port id="4"/>
			</input>
			<output>
				<port id="5" precision="FP16">
					<dim>8</dim>
					<dim>16</dim>
					<dim>64</dim>
				</port>
			</output>
		</layer>
		<layer id="103" name="313/Cast_19945_const340_const" type="Const" version="opset1">
			<data element_type="i64" offset="278636" shape="3" size="24"/>
			<output>
				<port id="1" precision="I64">
					<dim>3</dim>
				</port>
			</output>
		</layer>
		<layer id="104" name="313" type="Reshape" version="opset1">
			<data special_zero="True"/>
			<input>
				<port id="0">
					<dim>8</dim>
					<dim>16</dim>
					<dim>64</dim>
				</port>
				<port id="1">
					<dim>3</dim>
				</port>
			</input>
			<output>
				<port id="2" precision="FP16">
					<dim>8</dim>
					<dim>16</dim>
					<dim>64</dim>
				</port>
			</output>
		</layer>
		<layer id="105" name="339" type="MatMul" version="opset1">
			<data transpose_a="False" transpose_b="False"/>
			<input>
				<port id="0">
					<dim>8</dim>
					<dim>16</dim>
					<dim>16</dim>
				</port>
				<port id="1">
					<dim>8</dim>
					<dim>16</dim>
					<dim>64</dim>
				</port>
			</input>
			<output>
				<port id="2" precision="FP16">
					<dim>8</dim>
					<dim>16</dim>
					<dim>64</dim>
				</port>
			</output>
		</layer>
		<layer id="106" name="24472451_const" type="Const" version="opset1">
			<data element_type="f16" offset="803174" shape="" size="2"/>
			<output>
				<port id="1" precision="FP16"/>
			</output>
		</layer>
		<layer id="107" name="24482452_const" type="Const" version="opset1">
			<data element_type="f16" offset="803176" shape="" size="2"/>
			<output>
				<port id="1" precision="FP16"/>
			</output>
		</layer>
		<layer id="108" name="24492453_const" type="Const" version="opset1">
			<data element_type="f16" offset="803174" shape="" size="2"/>
			<output>
				<port id="1" precision="FP16"/>
			</output>
		</layer>
		<layer id="109" name="24502454_const" type="Const" version="opset1">
			<data element_type="f16" offset="803176" shape="" size="2"/>
			<output>
				<port id="1" precision="FP16"/>
			</output>
		</layer>
		<layer id="110" name="341/fq_input_0" type="FakeQuantize" version="opset1">
			<data levels="256"/>
			<input>
				<port id="0">
					<dim>8</dim>
					<dim>16</dim>
					<dim>64</dim>
				</port>
				<port id="1"/>
				<port id="2"/>
				<port id="3"/>
				<port id="4"/>
			</input>
			<output>
				<port id="5" precision="FP16">
					<dim>8</dim>
					<dim>16</dim>
					<dim>64</dim>
				</port>
			</output>
		</layer>
		<layer id="111" name="341/Cast_110001_const343_const" type="Const" version="opset1">
			<data element_type="i64" offset="803178" shape="4" size="32"/>
			<output>
				<port id="1" precision="I64">
					<dim>4</dim>
				</port>
			</output>
		</layer>
		<layer id="112" name="341" type="Reshape" version="opset1">
			<data special_zero="True"/>
			<input>
				<port id="0">
					<dim>8</dim>
					<dim>16</dim>
					<dim>64</dim>
				</port>
				<port id="1">
					<dim>4</dim>
				</port>
			</input>
			<output>
				<port id="2" precision="FP16">
					<dim>8</dim>
					<dim>1</dim>
					<dim>16</dim>
					<dim>64</dim>
				</port>
			</output>
		</layer>
		<layer id="113" name="decoder_342/Cast_14599_const" type="Const" version="opset1">
			<data element_type="i64" offset="803210" shape="4" size="32"/>
			<output>
				<port id="1" precision="I64">
					<dim>4</dim>
				</port>
			</output>
		</layer>
		<layer id="114" name="342" type="Transpose" version="opset1">
			<input>
				<port id="0">
					<dim>8</dim>
					<dim>1</dim>
					<dim>16</dim>
					<dim>64</dim>
				</port>
				<port id="1">
					<dim>4</dim>
				</port>
			</input>
			<output>
				<port id="2" precision="FP16">
					<dim>1</dim>
					<dim>16</dim>
					<dim>8</dim>
					<dim>64</dim>
				</port>
			</output>
		</layer>
		<layer id="115" name="344/Cast_19997_const347_const" type="Const" version="opset1">
			<data element_type="i64" offset="803242" shape="3" size="24"/>
			<output>
				<port id="1" precision="I64">
					<dim>3</dim>
				</port>
			</output>
		</layer>
		<layer id="116" name="344" type="Reshape" version="opset1">
			<data special_zero="True"/>
			<input>
				<port id="0">
					<dim>1</dim>
					<dim>16</dim>
					<dim>8</dim>
					<dim>64</dim>
				</port>
				<port id="1">
					<dim>3</dim>
				</port>
			</input>
			<output>
				<port id="2" precision="FP16">
					<dim>1</dim>
					<dim>16</dim>
					<dim>512</dim>
				</port>
			</output>
		</layer>
		<layer id="117" name="347" type="Add" version="opset1">
			<input>
				<port id="0">
					<dim>1</dim>
					<dim>16</dim>
					<dim>512</dim>
				</port>
				<port id="1">
					<dim>1</dim>
					<dim>16</dim>
					<dim>512</dim>
				</port>
			</input>
			<output>
				<port id="2" precision="FP16">
					<dim>1</dim>
					<dim>16</dim>
					<dim>512</dim>
				</port>
			</output>
		</layer>
		<layer id="118" name="24572461_const" type="Const" version="opset1">
			<data element_type="f16" offset="803266" shape="" size="2"/>
			<output>
				<port id="1" precision="FP16"/>
			</output>
		</layer>
		<layer id="119" name="24582462_const" type="Const" version="opset1">
			<data element_type="f16" offset="803268" shape="" size="2"/>
			<output>
				<port id="1" precision="FP16"/>
			</output>
		</layer>
		<layer id="120" name="24592463_const" type="Const" version="opset1">
			<data element_type="f16" offset="803266" shape="" size="2"/>
			<output>
				<port id="1" precision="FP16"/>
			</output>
		</layer>
		<layer id="121" name="24602464_const" type="Const" version="opset1">
			<data element_type="f16" offset="803268" shape="" size="2"/>
			<output>
				<port id="1" precision="FP16"/>
			</output>
		</layer>
		<layer id="122" name="348/fq_input_0" type="FakeQuantize" version="opset1">
			<data levels="256"/>
			<input>
				<port id="0">
					<dim>1</dim>
					<dim>16</dim>
					<dim>512</dim>
				</port>
				<port id="1"/>
				<port id="2"/>
				<port id="3"/>
				<port id="4"/>
			</input>
			<output>
				<port id="5" precision="FP16">
					<dim>1</dim>
					<dim>16</dim>
					<dim>512</dim>
				</port>
			</output>
		</layer>
		<layer id="123" name="decoder_348/Cast_14619_const" type="Const" version="opset1">
			<data element_type="i64" offset="540840" shape="3" size="24"/>
			<output>
				<port id="1" precision="I64">
					<dim>3</dim>
				</port>
			</output>
		</layer>
		<layer id="124" name="348" type="Transpose" version="opset1">
			<input>
				<port id="0">
					<dim>1</dim>
					<dim>16</dim>
					<dim>512</dim>
				</port>
				<port id="1">
					<dim>3</dim>
				</port>
			</input>
			<output>
				<port id="2" precision="FP16">
					<dim>1</dim>
					<dim>512</dim>
					<dim>16</dim>
				</port>
			</output>
		</layer>
		<layer id="125" name="decoder_349/WithoutBiases/fq_weights_1/Convert_to_float/Cast_04661_const" type="Const" version="opset1">
			<data element_type="u8" offset="803270" shape="1024,512,1" size="524288"/>
			<output>
				<port id="1" precision="U8">
					<dim>1024</dim>
					<dim>512</dim>
					<dim>1</dim>
				</port>
			</output>
		</layer>
		<layer id="126" name="349/WithoutBiases/fq_weights_1/Convert_to_float" type="Convert" version="opset1">
			<data destination_type="f16"/>
			<input>
				<port id="0">
					<dim>1024</dim>
					<dim>512</dim>
					<dim>1</dim>
				</port>
			</input>
			<output>
				<port id="1" precision="FP16">
					<dim>1024</dim>
					<dim>512</dim>
					<dim>1</dim>
				</port>
			</output>
		</layer>
		<layer id="127" name="decoder_349/WithoutBiases/fq_weights_1/Copy/out_low4115_const" type="Const" version="opset1">
			<data element_type="f16" offset="278596" shape="1" size="2"/>
			<output>
				<port id="1" precision="FP16">
					<dim>1</dim>
				</port>
			</output>
		</layer>
		<layer id="128" name="decoder_349/WithoutBiases/fq_weights_1/Copy/out_high4116_const" type="Const" version="opset1">
			<data element_type="f16" offset="278598" shape="1" size="2"/>
			<output>
				<port id="1" precision="FP16">
					<dim>1</dim>
				</port>
			</output>
		</layer>
		<layer id="129" name="10491053_const" type="Const" version="opset1">
			<data element_type="f16" offset="1327558" shape="1024,1,1" size="2048"/>
			<output>
				<port id="1" precision="FP16">
					<dim>1024</dim>
					<dim>1</dim>
					<dim>1</dim>
				</port>
			</output>
		</layer>
		<layer id="130" name="10501054_const" type="Const" version="opset1">
			<data element_type="f16" offset="1329606" shape="1024,1,1" size="2048"/>
			<output>
				<port id="1" precision="FP16">
					<dim>1024</dim>
					<dim>1</dim>
					<dim>1</dim>
				</port>
			</output>
		</layer>
		<layer id="131" name="349/WithoutBiases/fq_weights_1" type="FakeQuantize" version="opset1">
			<data levels="255"/>
			<input>
				<port id="0">
					<dim>1024</dim>
					<dim>512</dim>
					<dim>1</dim>
				</port>
				<port id="1">
					<dim>1</dim>
				</port>
				<port id="2">
					<dim>1</dim>
				</port>
				<port id="3">
					<dim>1024</dim>
					<dim>1</dim>
					<dim>1</dim>
				</port>
				<port id="4">
					<dim>1024</dim>
					<dim>1</dim>
					<dim>1</dim>
				</port>
			</input>
			<output>
				<port id="5" precision="FP16">
					<dim>1024</dim>
					<dim>512</dim>
					<dim>1</dim>
				</port>
			</output>
		</layer>
		<layer id="132" name="349/WithoutBiases" type="Convolution" version="opset1">
			<data dilations="1" output_padding="0" pads_begin="0" pads_end="0" strides="1"/>
			<input>
				<port id="0">
					<dim>1</dim>
					<dim>512</dim>
					<dim>16</dim>
				</port>
				<port id="1">
					<dim>1024</dim>
					<dim>512</dim>
					<dim>1</dim>
				</port>
			</input>
			<output>
				<port id="2" precision="FP16">
					<dim>1</dim>
					<dim>1024</dim>
					<dim>16</dim>
				</port>
			</output>
		</layer>
		<layer id="133" name="349/Dims3513/copy_const354_const" type="Const" version="opset1">
			<data element_type="f16" offset="1331654" shape="1,1024,1" size="2048"/>
			<output>
				<port id="1" precision="FP16">
					<dim>1</dim>
					<dim>1024</dim>
					<dim>1</dim>
				</port>
			</output>
		</layer>
		<layer id="134" name="349" type="Add" version="opset1">
			<input>
				<port id="0">
					<dim>1</dim>
					<dim>1024</dim>
					<dim>16</dim>
				</port>
				<port id="1">
					<dim>1</dim>
					<dim>1024</dim>
					<dim>1</dim>
				</port>
			</input>
			<output>
				<port id="2" precision="FP16">
					<dim>1</dim>
					<dim>1024</dim>
					<dim>16</dim>
				</port>
			</output>
		</layer>
		<layer id="135" name="350" type="ReLU" version="opset1">
			<input>
				<port id="0">
					<dim>1</dim>
					<dim>1024</dim>
					<dim>16</dim>
				</port>
			</input>
			<output>
				<port id="1" precision="FP16">
					<dim>1</dim>
					<dim>1024</dim>
					<dim>16</dim>
				</port>
			</output>
		</layer>
		<layer id="136" name="15971601_const" type="Const" version="opset1">
			<data element_type="f16" offset="278596" shape="" size="2"/>
			<output>
				<port id="1" precision="FP16"/>
			</output>
		</layer>
		<layer id="137" name="15981602_const" type="Const" version="opset1">
			<data element_type="f16" offset="1333702" shape="" size="2"/>
			<output>
				<port id="1" precision="FP16"/>
			</output>
		</layer>
		<layer id="138" name="15991603_const" type="Const" version="opset1">
			<data element_type="f16" offset="278596" shape="" size="2"/>
			<output>
				<port id="1" precision="FP16"/>
			</output>
		</layer>
		<layer id="139" name="16001604_const" type="Const" version="opset1">
			<data element_type="f16" offset="1333702" shape="" size="2"/>
			<output>
				<port id="1" precision="FP16"/>
			</output>
		</layer>
		<layer id="140" name="351/WithoutBiases/fq_input_0" type="FakeQuantize" version="opset1">
			<data levels="256"/>
			<input>
				<port id="0">
					<dim>1</dim>
					<dim>1024</dim>
					<dim>16</dim>
				</port>
				<port id="1"/>
				<port id="2"/>
				<port id="3"/>
				<port id="4"/>
			</input>
			<output>
				<port id="5" precision="FP16">
					<dim>1</dim>
					<dim>1024</dim>
					<dim>16</dim>
				</port>
			</output>
		</layer>
		<layer id="141" name="decoder_351/WithoutBiases/fq_weights_1/Convert_to_float/Cast_04603_const" type="Const" version="opset1">
			<data element_type="u8" offset="1333704" shape="512,1024,1" size="524288"/>
			<output>
				<port id="1" precision="U8">
					<dim>512</dim>
					<dim>1024</dim>
					<dim>1</dim>
				</port>
			</output>
		</layer>
		<layer id="142" name="351/WithoutBiases/fq_weights_1/Convert_to_float" type="Convert" version="opset1">
			<data destination_type="f16"/>
			<input>
				<port id="0">
					<dim>512</dim>
					<dim>1024</dim>
					<dim>1</dim>
				</port>
			</input>
			<output>
				<port id="1" precision="FP16">
					<dim>512</dim>
					<dim>1024</dim>
					<dim>1</dim>
				</port>
			</output>
		</layer>
		<layer id="143" name="decoder_351/WithoutBiases/fq_weights_1/Copy/out_low4107_const" type="Const" version="opset1">
			<data element_type="f16" offset="278596" shape="1" size="2"/>
			<output>
				<port id="1" precision="FP16">
					<dim>1</dim>
				</port>
			</output>
		</layer>
		<layer id="144" name="decoder_351/WithoutBiases/fq_weights_1/Copy/out_high4108_const" type="Const" version="opset1">
			<data element_type="f16" offset="278598" shape="1" size="2"/>
			<output>
				<port id="1" precision="FP16">
					<dim>1</dim>
				</port>
			</output>
		</layer>
		<layer id="145" name="16091613_const" type="Const" version="opset1">
			<data element_type="f16" offset="1857992" shape="512,1,1" size="1024"/>
			<output>
				<port id="1" precision="FP16">
					<dim>512</dim>
					<dim>1</dim>
					<dim>1</dim>
				</port>
			</output>
		</layer>
		<layer id="146" name="16101614_const" type="Const" version="opset1">
			<data element_type="f16" offset="1859016" shape="512,1,1" size="1024"/>
			<output>
				<port id="1" precision="FP16">
					<dim>512</dim>
					<dim>1</dim>
					<dim>1</dim>
				</port>
			</output>
		</layer>
		<layer id="147" name="351/WithoutBiases/fq_weights_1" type="FakeQuantize" version="opset1">
			<data levels="255"/>
			<input>
				<port id="0">
					<dim>512</dim>
					<dim>1024</dim>
					<dim>1</dim>
				</port>
				<port id="1">
					<dim>1</dim>
				</port>
				<port id="2">
					<dim>1</dim>
				</port>
				<port id="3">
					<dim>512</dim>
					<dim>1</dim>
					<dim>1</dim>
				</port>
				<port id="4">
					<dim>512</dim>
					<dim>1</dim>
					<dim>1</dim>
				</port>
			</input>
			<output>
				<port id="5" precision="FP16">
					<dim>512</dim>
					<dim>1024</dim>
					<dim>1</dim>
				</port>
			</output>
		</layer>
		<layer id="148" name="351/WithoutBiases" type="Convolution" version="opset1">
			<data dilations="1" output_padding="0" pads_begin="0" pads_end="0" strides="1"/>
			<input>
				<port id="0">
					<dim>1</dim>
					<dim>1024</dim>
					<dim>16</dim>
				</port>
				<port id="1">
					<dim>512</dim>
					<dim>1024</dim>
					<dim>1</dim>
				</port>
			</input>
			<output>
				<port id="2" precision="FP16">
					<dim>1</dim>
					<dim>512</dim>
					<dim>16</dim>
				</port>
			</output>
		</layer>
		<layer id="149" name="351/Dims3489/copy_const359_const" type="Const" version="opset1">
			<data element_type="f16" offset="1860040" shape="1,512,1" size="1024"/>
			<output>
				<port id="1" precision="FP16">
					<dim>1</dim>
					<dim>512</dim>
					<dim>1</dim>
				</port>
			</output>
		</layer>
		<layer id="150" name="351" type="Add" version="opset1">
			<input>
				<port id="0">
					<dim>1</dim>
					<dim>512</dim>
					<dim>16</dim>
				</port>
				<port id="1">
					<dim>1</dim>
					<dim>512</dim>
					<dim>1</dim>
				</port>
			</input>
			<output>
				<port id="2" precision="FP16">
					<dim>1</dim>
					<dim>512</dim>
					<dim>16</dim>
				</port>
			</output>
		</layer>
		<layer id="151" name="24672471_const" type="Const" version="opset1">
			<data element_type="f16" offset="1861064" shape="" size="2"/>
			<output>
				<port id="1" precision="FP16"/>
			</output>
		</layer>
		<layer id="152" name="24682472_const" type="Const" version="opset1">
			<data element_type="f16" offset="1861066" shape="" size="2"/>
			<output>
				<port id="1" precision="FP16"/>
			</output>
		</layer>
		<layer id="153" name="24692473_const" type="Const" version="opset1">
			<data element_type="f16" offset="1861064" shape="" size="2"/>
			<output>
				<port id="1" precision="FP16"/>
			</output>
		</layer>
		<layer id="154" name="24702474_const" type="Const" version="opset1">
			<data element_type="f16" offset="1861066" shape="" size="2"/>
			<output>
				<port id="1" precision="FP16"/>
			</output>
		</layer>
		<layer id="155" name="352/fq_input_0" type="FakeQuantize" version="opset1">
			<data levels="256"/>
			<input>
				<port id="0">
					<dim>1</dim>
					<dim>512</dim>
					<dim>16</dim>
				</port>
				<port id="1"/>
				<port id="2"/>
				<port id="3"/>
				<port id="4"/>
			</input>
			<output>
				<port id="5" precision="FP16">
					<dim>1</dim>
					<dim>512</dim>
					<dim>16</dim>
				</port>
			</output>
		</layer>
		<layer id="156" name="decoder_352/Cast_14635_const" type="Const" version="opset1">
			<data element_type="i64" offset="540840" shape="3" size="24"/>
			<output>
				<port id="1" precision="I64">
					<dim>3</dim>
				</port>
			</output>
		</layer>
		<layer id="157" name="352" type="Transpose" version="opset1">
			<input>
				<port id="0">
					<dim>1</dim>
					<dim>512</dim>
					<dim>16</dim>
				</port>
				<port id="1">
					<dim>3</dim>
				</port>
			</input>
			<output>
				<port id="2" precision="FP16">
					<dim>1</dim>
					<dim>16</dim>
					<dim>512</dim>
				</port>
			</output>
		</layer>
		<layer id="158" name="355" type="Add" version="opset1">
			<input>
				<port id="0">
					<dim>1</dim>
					<dim>16</dim>
					<dim>512</dim>
				</port>
				<port id="1">
					<dim>1</dim>
					<dim>16</dim>
					<dim>512</dim>
				</port>
			</input>
			<output>
				<port id="2" precision="FP16">
					<dim>1</dim>
					<dim>16</dim>
					<dim>512</dim>
				</port>
			</output>
		</layer>
		<layer id="159" name="25072511_const" type="Const" version="opset1">
			<data element_type="f16" offset="1861068" shape="" size="2"/>
			<output>
				<port id="1" precision="FP16"/>
			</output>
		</layer>
		<layer id="160" name="25082512_const" type="Const" version="opset1">
			<data element_type="f16" offset="1861070" shape="" size="2"/>
			<output>
				<port id="1" precision="FP16"/>
			</output>
		</layer>
		<layer id="161" name="25092513_const" type="Const" version="opset1">
			<data element_type="f16" offset="1861068" shape="" size="2"/>
			<output>
				<port id="1" precision="FP16"/>
			</output>
		</layer>
		<layer id="162" name="25102514_const" type="Const" version="opset1">
			<data element_type="f16" offset="1861070" shape="" size="2"/>
			<output>
				<port id="1" precision="FP16"/>
			</output>
		</layer>
		<layer id="163" name="369/3D_Tile_Unsqueeze/fq_input_0" type="FakeQuantize" version="opset1">
			<data levels="256"/>
			<input>
				<port id="0">
					<dim>1</dim>
					<dim>16</dim>
					<dim>512</dim>
				</port>
				<port id="1"/>
				<port id="2"/>
				<port id="3"/>
				<port id="4"/>
			</input>
			<output>
				<port id="5" precision="FP16">
					<dim>1</dim>
					<dim>16</dim>
					<dim>512</dim>
				</port>
			</output>
		</layer>
		<layer id="164" name="369/3D_Tile_Unsqueeze_dim6698_const364_const" type="Const" version="opset1">
			<data element_type="i64" offset="16388" shape="1" size="8"/>
			<output>
				<port id="1" precision="I64">
					<dim>1</dim>
				</port>
			</output>
		</layer>
		<layer id="165" name="369/3D_Tile_Unsqueeze" type="Unsqueeze" version="opset1">
			<input>
				<port id="0">
					<dim>1</dim>
					<dim>16</dim>
					<dim>512</dim>
				</port>
				<port id="1">
					<dim>1</dim>
				</port>
			</input>
			<output>
				<port id="2" precision="FP16">
					<dim>1</dim>
					<dim>16</dim>
					<dim>512</dim>
					<dim>1</dim>
				</port>
			</output>
		</layer>
		<layer id="166" name="67006702_const366_const" type="Const" version="opset1">
			<data element_type="i64" offset="16396" shape="4" size="32"/>
			<output>
				<port id="1" precision="I64">
					<dim>4</dim>
				</port>
			</output>
		</layer>
		<layer id="167" name="369" type="Tile" version="opset1">
			<input>
				<port id="0">
					<dim>1</dim>
					<dim>16</dim>
					<dim>512</dim>
					<dim>1</dim>
				</port>
				<port id="1">
					<dim>4</dim>
				</port>
			</input>
			<output>
				<port id="2" precision="FP16">
					<dim>8</dim>
					<dim>16</dim>
					<dim>512</dim>
					<dim>1</dim>
				</port>
			</output>
		</layer>
		<layer id="168" name="369/3D_Tile_Squeeze_dim6705_const368_const" type="Const" version="opset1">
			<data element_type="i64" offset="16388" shape="1" size="8"/>
			<output>
				<port id="1" precision="I64">
					<dim>1</dim>
				</port>
			</output>
		</layer>
		<layer id="169" name="369/3D_Tile_Squeeze" type="Squeeze" version="opset1">
			<input>
				<port id="0">
					<dim>8</dim>
					<dim>16</dim>
					<dim>512</dim>
					<dim>1</dim>
				</port>
				<port id="1">
					<dim>1</dim>
				</port>
			</input>
			<output>
				<port id="2" precision="FP16">
					<dim>8</dim>
					<dim>16</dim>
					<dim>512</dim>
				</port>
			</output>
		</layer>
		<layer id="170" name="376/Cast_19953_const370_const" type="Const" version="opset1">
			<data element_type="i64" offset="16428" shape="3" size="24"/>
			<output>
				<port id="1" precision="I64">
					<dim>3</dim>
				</port>
			</output>
		</layer>
		<layer id="171" name="376" type="Reshape" version="opset1">
			<data special_zero="True"/>
			<input>
				<port id="0">
					<dim>8</dim>
					<dim>16</dim>
					<dim>512</dim>
				</port>
				<port id="1">
					<dim>3</dim>
				</port>
			</input>
			<output>
				<port id="2" precision="FP16">
					<dim>8</dim>
					<dim>16</dim>
					<dim>512</dim>
				</port>
			</output>
		</layer>
		<layer id="172" name="decoder_395/fq_weights_1/Convert_to_float/Cast_04657_const" type="Const" version="opset1">
			<data element_type="u8" offset="1861072" shape="8,64,512" size="262144"/>
			<output>
				<port id="1" precision="U8">
					<dim>8</dim>
					<dim>64</dim>
					<dim>512</dim>
				</port>
			</output>
		</layer>
		<layer id="173" name="395/fq_weights_1/Convert_to_float" type="Convert" version="opset1">
			<data destination_type="f16"/>
			<input>
				<port id="0">
					<dim>8</dim>
					<dim>64</dim>
					<dim>512</dim>
				</port>
			</input>
			<output>
				<port id="1" precision="FP16">
					<dim>8</dim>
					<dim>64</dim>
					<dim>512</dim>
				</port>
			</output>
		</layer>
		<layer id="174" name="decoder_395/fq_weights_1/Copy/out_low4019_const" type="Const" version="opset1">
			<data element_type="f16" offset="278596" shape="1" size="2"/>
			<output>
				<port id="1" precision="FP16">
					<dim>1</dim>
				</port>
			</output>
		</layer>
		<layer id="175" name="decoder_395/fq_weights_1/Copy/out_high4020_const" type="Const" version="opset1">
			<data element_type="f16" offset="278598" shape="1" size="2"/>
			<output>
				<port id="1" precision="FP16">
					<dim>1</dim>
				</port>
			</output>
		</layer>
		<layer id="176" name="12091213_const" type="Const" version="opset1">
			<data element_type="f16" offset="2123216" shape="8,1,1" size="16"/>
			<output>
				<port id="1" precision="FP16">
					<dim>8</dim>
					<dim>1</dim>
					<dim>1</dim>
				</port>
			</output>
		</layer>
		<layer id="177" name="12101214_const" type="Const" version="opset1">
			<data element_type="f16" offset="2123232" shape="8,1,1" size="16"/>
			<output>
				<port id="1" precision="FP16">
					<dim>8</dim>
					<dim>1</dim>
					<dim>1</dim>
				</port>
			</output>
		</layer>
		<layer id="178" name="395/fq_weights_1" type="FakeQuantize" version="opset1">
			<data levels="255"/>
			<input>
				<port id="0">
					<dim>8</dim>
					<dim>64</dim>
					<dim>512</dim>
				</port>
				<port id="1">
					<dim>1</dim>
				</port>
				<port id="2">
					<dim>1</dim>
				</port>
				<port id="3">
					<dim>8</dim>
					<dim>1</dim>
					<dim>1</dim>
				</port>
				<port id="4">
					<dim>8</dim>
					<dim>1</dim>
					<dim>1</dim>
				</port>
			</input>
			<output>
				<port id="5" precision="FP16">
					<dim>8</dim>
					<dim>64</dim>
					<dim>512</dim>
				</port>
			</output>
		</layer>
		<layer id="179" name="395" type="MatMul" version="opset1">
			<data transpose_a="False" transpose_b="True"/>
			<input>
				<port id="0">
					<dim>8</dim>
					<dim>16</dim>
					<dim>512</dim>
				</port>
				<port id="1">
					<dim>8</dim>
					<dim>64</dim>
					<dim>512</dim>
				</port>
			</input>
			<output>
				<port id="2" precision="FP16">
					<dim>8</dim>
					<dim>16</dim>
					<dim>64</dim>
				</port>
			</output>
		</layer>
		<layer id="180" name="25972601_const" type="Const" version="opset1">
			<data element_type="f16" offset="2123248" shape="" size="2"/>
			<output>
				<port id="1" precision="FP16"/>
			</output>
		</layer>
		<layer id="181" name="25982602_const" type="Const" version="opset1">
			<data element_type="f16" offset="2123250" shape="" size="2"/>
			<output>
				<port id="1" precision="FP16"/>
			</output>
		</layer>
		<layer id="182" name="25992603_const" type="Const" version="opset1">
			<data element_type="f16" offset="2123248" shape="" size="2"/>
			<output>
				<port id="1" precision="FP16"/>
			</output>
		</layer>
		<layer id="183" name="26002604_const" type="Const" version="opset1">
			<data element_type="f16" offset="2123250" shape="" size="2"/>
			<output>
				<port id="1" precision="FP16"/>
			</output>
		</layer>
		<layer id="184" name="402/fq_input_0" type="FakeQuantize" version="opset1">
			<data levels="256"/>
			<input>
				<port id="0">
					<dim>8</dim>
					<dim>16</dim>
					<dim>64</dim>
				</port>
				<port id="1"/>
				<port id="2"/>
				<port id="3"/>
				<port id="4"/>
			</input>
			<output>
				<port id="5" precision="FP16">
					<dim>8</dim>
					<dim>16</dim>
					<dim>64</dim>
				</port>
			</output>
		</layer>
		<layer id="185" name="402/Cast_19937_const374_const" type="Const" version="opset1">
			<data element_type="i64" offset="278636" shape="3" size="24"/>
			<output>
				<port id="1" precision="I64">
					<dim>3</dim>
				</port>
			</output>
		</layer>
		<layer id="186" name="402" type="Reshape" version="opset1">
			<data special_zero="True"/>
			<input>
				<port id="0">
					<dim>8</dim>
					<dim>16</dim>
					<dim>64</dim>
				</port>
				<port id="1">
					<dim>3</dim>
				</port>
			</input>
			<output>
				<port id="2" precision="FP16">
					<dim>8</dim>
					<dim>16</dim>
					<dim>64</dim>
				</port>
			</output>
		</layer>
		<layer id="187" name="378/3D_Tile_Unsqueeze_dim6686_const376_const" type="Const" version="opset1">
			<data element_type="i64" offset="16388" shape="1" size="8"/>
			<output>
				<port id="1" precision="I64">
					<dim>1</dim>
				</port>
			</output>
		</layer>
		<layer id="188" name="378/3D_Tile_Unsqueeze" type="Unsqueeze" version="opset1">
			<input>
				<port id="0">
					<dim>1</dim>
					<dim>16</dim>
					<dim>512</dim>
				</port>
				<port id="1">
					<dim>1</dim>
				</port>
			</input>
			<output>
				<port id="2" precision="FP16">
					<dim>1</dim>
					<dim>16</dim>
					<dim>512</dim>
					<dim>1</dim>
				</port>
			</output>
		</layer>
		<layer id="189" name="66886690_const378_const" type="Const" version="opset1">
			<data element_type="i64" offset="16396" shape="4" size="32"/>
			<output>
				<port id="1" precision="I64">
					<dim>4</dim>
				</port>
			</output>
		</layer>
		<layer id="190" name="378" type="Tile" version="opset1">
			<input>
				<port id="0">
					<dim>1</dim>
					<dim>16</dim>
					<dim>512</dim>
					<dim>1</dim>
				</port>
				<port id="1">
					<dim>4</dim>
				</port>
			</input>
			<output>
				<port id="2" precision="FP16">
					<dim>8</dim>
					<dim>16</dim>
					<dim>512</dim>
					<dim>1</dim>
				</port>
			</output>
		</layer>
		<layer id="191" name="378/3D_Tile_Squeeze_dim6693_const380_const" type="Const" version="opset1">
			<data element_type="i64" offset="16388" shape="1" size="8"/>
			<output>
				<port id="1" precision="I64">
					<dim>1</dim>
				</port>
			</output>
		</layer>
		<layer id="192" name="378/3D_Tile_Squeeze" type="Squeeze" version="opset1">
			<input>
				<port id="0">
					<dim>8</dim>
					<dim>16</dim>
					<dim>512</dim>
					<dim>1</dim>
				</port>
				<port id="1">
					<dim>1</dim>
				</port>
			</input>
			<output>
				<port id="2" precision="FP16">
					<dim>8</dim>
					<dim>16</dim>
					<dim>512</dim>
				</port>
			</output>
		</layer>
		<layer id="193" name="385/Cast_19965_const382_const" type="Const" version="opset1">
			<data element_type="i64" offset="16428" shape="3" size="24"/>
			<output>
				<port id="1" precision="I64">
					<dim>3</dim>
				</port>
			</output>
		</layer>
		<layer id="194" name="385" type="Reshape" version="opset1">
			<data special_zero="True"/>
			<input>
				<port id="0">
					<dim>8</dim>
					<dim>16</dim>
					<dim>512</dim>
				</port>
				<port id="1">
					<dim>3</dim>
				</port>
			</input>
			<output>
				<port id="2" precision="FP16">
					<dim>8</dim>
					<dim>16</dim>
					<dim>512</dim>
				</port>
			</output>
		</layer>
		<layer id="195" name="decoder_403/fq_weights_1/Convert_to_float/Cast_04641_const" type="Const" version="opset1">
			<data element_type="u8" offset="2123252" shape="8,64,512" size="262144"/>
			<output>
				<port id="1" precision="U8">
					<dim>8</dim>
					<dim>64</dim>
					<dim>512</dim>
				</port>
			</output>
		</layer>
		<layer id="196" name="403/fq_weights_1/Convert_to_float" type="Convert" version="opset1">
			<data destination_type="f16"/>
			<input>
				<port id="0">
					<dim>8</dim>
					<dim>64</dim>
					<dim>512</dim>
				</port>
			</input>
			<output>
				<port id="1" precision="FP16">
					<dim>8</dim>
					<dim>64</dim>
					<dim>512</dim>
				</port>
			</output>
		</layer>
		<layer id="197" name="decoder_403/fq_weights_1/Copy/out_low4011_const" type="Const" version="opset1">
			<data element_type="f16" offset="278596" shape="1" size="2"/>
			<output>
				<port id="1" precision="FP16">
					<dim>1</dim>
				</port>
			</output>
		</layer>
		<layer id="198" name="decoder_403/fq_weights_1/Copy/out_high4012_const" type="Const" version="opset1">
			<data element_type="f16" offset="278598" shape="1" size="2"/>
			<output>
				<port id="1" precision="FP16">
					<dim>1</dim>
				</port>
			</output>
		</layer>
		<layer id="199" name="14891493_const" type="Const" version="opset1">
			<data element_type="f16" offset="2385396" shape="8,1,1" size="16"/>
			<output>
				<port id="1" precision="FP16">
					<dim>8</dim>
					<dim>1</dim>
					<dim>1</dim>
				</port>
			</output>
		</layer>
		<layer id="200" name="14901494_const" type="Const" version="opset1">
			<data element_type="f16" offset="2385412" shape="8,1,1" size="16"/>
			<output>
				<port id="1" precision="FP16">
					<dim>8</dim>
					<dim>1</dim>
					<dim>1</dim>
				</port>
			</output>
		</layer>
		<layer id="201" name="403/fq_weights_1" type="FakeQuantize" version="opset1">
			<data levels="255"/>
			<input>
				<port id="0">
					<dim>8</dim>
					<dim>64</dim>
					<dim>512</dim>
				</port>
				<port id="1">
					<dim>1</dim>
				</port>
				<port id="2">
					<dim>1</dim>
				</port>
				<port id="3">
					<dim>8</dim>
					<dim>1</dim>
					<dim>1</dim>
				</port>
				<port id="4">
					<dim>8</dim>
					<dim>1</dim>
					<dim>1</dim>
				</port>
			</input>
			<output>
				<port id="5" precision="FP16">
					<dim>8</dim>
					<dim>64</dim>
					<dim>512</dim>
				</port>
			</output>
		</layer>
		<layer id="202" name="403" type="MatMul" version="opset1">
			<data transpose_a="False" transpose_b="True"/>
			<input>
				<port id="0">
					<dim>8</dim>
					<dim>16</dim>
					<dim>512</dim>
				</port>
				<port id="1">
					<dim>8</dim>
					<dim>64</dim>
					<dim>512</dim>
				</port>
			</input>
			<output>
				<port id="2" precision="FP16">
					<dim>8</dim>
					<dim>16</dim>
					<dim>64</dim>
				</port>
			</output>
		</layer>
		<layer id="203" name="26172621_const" type="Const" version="opset1">
			<data element_type="f16" offset="2385428" shape="" size="2"/>
			<output>
				<port id="1" precision="FP16"/>
			</output>
		</layer>
		<layer id="204" name="26182622_const" type="Const" version="opset1">
			<data element_type="f16" offset="2385430" shape="" size="2"/>
			<output>
				<port id="1" precision="FP16"/>
			</output>
		</layer>
		<layer id="205" name="26192623_const" type="Const" version="opset1">
			<data element_type="f16" offset="2385428" shape="" size="2"/>
			<output>
				<port id="1" precision="FP16"/>
			</output>
		</layer>
		<layer id="206" name="26202624_const" type="Const" version="opset1">
			<data element_type="f16" offset="2385430" shape="" size="2"/>
			<output>
				<port id="1" precision="FP16"/>
			</output>
		</layer>
		<layer id="207" name="410/fq_input_0" type="FakeQuantize" version="opset1">
			<data levels="256"/>
			<input>
				<port id="0">
					<dim>8</dim>
					<dim>16</dim>
					<dim>64</dim>
				</port>
				<port id="1"/>
				<port id="2"/>
				<port id="3"/>
				<port id="4"/>
			</input>
			<output>
				<port id="5" precision="FP16">
					<dim>8</dim>
					<dim>16</dim>
					<dim>64</dim>
				</port>
			</output>
		</layer>
		<layer id="208" name="410/Cast_110003_const386_const" type="Const" version="opset1">
			<data element_type="i64" offset="278636" shape="3" size="24"/>
			<output>
				<port id="1" precision="I64">
					<dim>3</dim>
				</port>
			</output>
		</layer>
		<layer id="209" name="410" type="Reshape" version="opset1">
			<data special_zero="True"/>
			<input>
				<port id="0">
					<dim>8</dim>
					<dim>16</dim>
					<dim>64</dim>
				</port>
				<port id="1">
					<dim>3</dim>
				</port>
			</input>
			<output>
				<port id="2" precision="FP16">
					<dim>8</dim>
					<dim>16</dim>
					<dim>64</dim>
				</port>
			</output>
		</layer>
		<layer id="210" name="decoder_419/Cast_14631_const" type="Const" version="opset1">
			<data element_type="i64" offset="540840" shape="3" size="24"/>
			<output>
				<port id="1" precision="I64">
					<dim>3</dim>
				</port>
			</output>
		</layer>
		<layer id="211" name="419" type="Transpose" version="opset1">
			<input>
				<port id="0">
					<dim>8</dim>
					<dim>16</dim>
					<dim>64</dim>
				</port>
				<port id="1">
					<dim>3</dim>
				</port>
			</input>
			<output>
				<port id="2" precision="FP16">
					<dim>8</dim>
					<dim>64</dim>
					<dim>16</dim>
				</port>
			</output>
		</layer>
		<layer id="212" name="decoder_422/fq_input_1/Convert_to_float/Cast_04653_const" type="Const" version="opset1">
			<data element_type="u8" offset="540864" shape="1,64,1" size="64"/>
			<output>
				<port id="1" precision="U8">
					<dim>1</dim>
					<dim>64</dim>
					<dim>1</dim>
				</port>
			</output>
		</layer>
		<layer id="213" name="422/fq_input_1/Convert_to_float" type="Convert" version="opset1">
			<data destination_type="f16"/>
			<input>
				<port id="0">
					<dim>1</dim>
					<dim>64</dim>
					<dim>1</dim>
				</port>
			</input>
			<output>
				<port id="1" precision="FP16">
					<dim>1</dim>
					<dim>64</dim>
					<dim>1</dim>
				</port>
			</output>
		</layer>
		<layer id="214" name="decoder_422/fq_input_1/Copy/out_low4043_const" type="Const" version="opset1">
			<data element_type="f16" offset="278596" shape="1" size="2"/>
			<output>
				<port id="1" precision="FP16">
					<dim>1</dim>
				</port>
			</output>
		</layer>
		<layer id="215" name="decoder_422/fq_input_1/Copy/out_high4044_const" type="Const" version="opset1">
			<data element_type="f16" offset="278598" shape="1" size="2"/>
			<output>
				<port id="1" precision="FP16">
					<dim>1</dim>
				</port>
			</output>
		</layer>
		<layer id="216" name="16691673_const" type="Const" version="opset1">
			<data element_type="f16" offset="540928" shape="1,1,1" size="2"/>
			<output>
				<port id="1" precision="FP16">
					<dim>1</dim>
					<dim>1</dim>
					<dim>1</dim>
				</port>
			</output>
		</layer>
		<layer id="217" name="16701674_const" type="Const" version="opset1">
			<data element_type="f16" offset="540930" shape="1,1,1" size="2"/>
			<output>
				<port id="1" precision="FP16">
					<dim>1</dim>
					<dim>1</dim>
					<dim>1</dim>
				</port>
			</output>
		</layer>
		<layer id="218" name="422/fq_input_1" type="FakeQuantize" version="opset1">
			<data levels="255"/>
			<input>
				<port id="0">
					<dim>1</dim>
					<dim>64</dim>
					<dim>1</dim>
				</port>
				<port id="1">
					<dim>1</dim>
				</port>
				<port id="2">
					<dim>1</dim>
				</port>
				<port id="3">
					<dim>1</dim>
					<dim>1</dim>
					<dim>1</dim>
				</port>
				<port id="4">
					<dim>1</dim>
					<dim>1</dim>
					<dim>1</dim>
				</port>
			</input>
			<output>
				<port id="5" precision="FP16">
					<dim>1</dim>
					<dim>64</dim>
					<dim>1</dim>
				</port>
			</output>
		</layer>
		<layer id="219" name="422" type="Multiply" version="opset1">
			<input>
				<port id="0">
					<dim>8</dim>
					<dim>64</dim>
					<dim>16</dim>
				</port>
				<port id="1">
					<dim>1</dim>
					<dim>64</dim>
					<dim>1</dim>
				</port>
			</input>
			<output>
				<port id="2" precision="FP16">
					<dim>8</dim>
					<dim>64</dim>
					<dim>16</dim>
				</port>
			</output>
		</layer>
		<layer id="220" name="15071511_const" type="Const" version="opset1">
			<data element_type="f16" offset="2385432" shape="" size="2"/>
			<output>
				<port id="1" precision="FP16"/>
			</output>
		</layer>
		<layer id="221" name="15081512_const" type="Const" version="opset1">
			<data element_type="f16" offset="2385434" shape="" size="2"/>
			<output>
				<port id="1" precision="FP16"/>
			</output>
		</layer>
		<layer id="222" name="15091513_const" type="Const" version="opset1">
			<data element_type="f16" offset="2385432" shape="" size="2"/>
			<output>
				<port id="1" precision="FP16"/>
			</output>
		</layer>
		<layer id="223" name="15101514_const" type="Const" version="opset1">
			<data element_type="f16" offset="2385434" shape="" size="2"/>
			<output>
				<port id="1" precision="FP16"/>
			</output>
		</layer>
		<layer id="224" name="420/fq_weights_1" type="FakeQuantize" version="opset1">
			<data levels="256"/>
			<input>
				<port id="0">
					<dim>8</dim>
					<dim>64</dim>
					<dim>16</dim>
				</port>
				<port id="1"/>
				<port id="2"/>
				<port id="3"/>
				<port id="4"/>
			</input>
			<output>
				<port id="5" precision="FP16">
					<dim>8</dim>
					<dim>64</dim>
					<dim>16</dim>
				</port>
			</output>
		</layer>
		<layer id="225" name="420" type="MatMul" version="opset1">
			<data transpose_a="False" transpose_b="False"/>
			<input>
				<port id="0">
					<dim>8</dim>
					<dim>16</dim>
					<dim>64</dim>
				</port>
				<port id="1">
					<dim>8</dim>
					<dim>64</dim>
					<dim>16</dim>
				</port>
			</input>
			<output>
				<port id="2" precision="FP16">
					<dim>8</dim>
					<dim>16</dim>
					<dim>16</dim>
				</port>
			</output>
		</layer>
		<layer id="226" name="434/Cast_19963_const393_const" type="Const" version="opset1">
			<data element_type="i64" offset="540936" shape="2" size="16"/>
			<output>
				<port id="1" precision="I64">
					<dim>2</dim>
				</port>
			</output>
		</layer>
		<layer id="227" name="434" type="Reshape" version="opset1">
			<data special_zero="True"/>
			<input>
				<port id="0">
					<dim>8</dim>
					<dim>16</dim>
					<dim>16</dim>
				</port>
				<port id="1">
					<dim>2</dim>
				</port>
			</input>
			<output>
				<port id="2" precision="FP16">
					<dim>128</dim>
					<dim>16</dim>
				</port>
			</output>
		</layer>
		<layer id="228" name="435/FlattenONNX_/Reshape/Cast_19979_const395_const" type="Const" version="opset1">
			<data element_type="i64" offset="540952" shape="2" size="16"/>
			<output>
				<port id="1" precision="I64">
					<dim>2</dim>
				</port>
			</output>
		</layer>
		<layer id="229" name="435/FlattenONNX_/Reshape" type="Reshape" version="opset1">
			<data special_zero="True"/>
			<input>
				<port id="0">
					<dim>128</dim>
					<dim>16</dim>
				</port>
				<port id="1">
					<dim>2</dim>
				</port>
			</input>
			<output>
				<port id="2" precision="FP16">
					<dim>128</dim>
					<dim>16</dim>
				</port>
			</output>
		</layer>
		<layer id="230" name="435" type="SoftMax" version="opset1">
			<data axis="1"/>
			<input>
				<port id="0">
					<dim>128</dim>
					<dim>16</dim>
				</port>
			</input>
			<output>
				<port id="1" precision="FP16">
					<dim>128</dim>
					<dim>16</dim>
				</port>
			</output>
		</layer>
		<layer id="231" name="26272631_const" type="Const" version="opset1">
			<data element_type="f16" offset="278596" shape="" size="2"/>
			<output>
				<port id="1" precision="FP16"/>
			</output>
		</layer>
		<layer id="232" name="26282632_const" type="Const" version="opset1">
			<data element_type="f16" offset="2385436" shape="" size="2"/>
			<output>
				<port id="1" precision="FP16"/>
			</output>
		</layer>
		<layer id="233" name="26292633_const" type="Const" version="opset1">
			<data element_type="f16" offset="278596" shape="" size="2"/>
			<output>
				<port id="1" precision="FP16"/>
			</output>
		</layer>
		<layer id="234" name="26302634_const" type="Const" version="opset1">
			<data element_type="f16" offset="2385436" shape="" size="2"/>
			<output>
				<port id="1" precision="FP16"/>
			</output>
		</layer>
		<layer id="235" name="441/fq_input_0" type="FakeQuantize" version="opset1">
			<data levels="256"/>
			<input>
				<port id="0">
					<dim>128</dim>
					<dim>16</dim>
				</port>
				<port id="1"/>
				<port id="2"/>
				<port id="3"/>
				<port id="4"/>
			</input>
			<output>
				<port id="5" precision="FP16">
					<dim>128</dim>
					<dim>16</dim>
				</port>
			</output>
		</layer>
		<layer id="236" name="441/Cast_19991_const398_const" type="Const" version="opset1">
			<data element_type="i64" offset="540970" shape="3" size="24"/>
			<output>
				<port id="1" precision="I64">
					<dim>3</dim>
				</port>
			</output>
		</layer>
		<layer id="237" name="441" type="Reshape" version="opset1">
			<data special_zero="True"/>
			<input>
				<port id="0">
					<dim>128</dim>
					<dim>16</dim>
				</port>
				<port id="1">
					<dim>3</dim>
				</port>
			</input>
			<output>
				<port id="2" precision="FP16">
					<dim>8</dim>
					<dim>16</dim>
					<dim>16</dim>
				</port>
			</output>
		</layer>
		<layer id="238" name="387/3D_Tile_Unsqueeze_dim6638_const400_const" type="Const" version="opset1">
			<data element_type="i64" offset="16388" shape="1" size="8"/>
			<output>
				<port id="1" precision="I64">
					<dim>1</dim>
				</port>
			</output>
		</layer>
		<layer id="239" name="387/3D_Tile_Unsqueeze" type="Unsqueeze" version="opset1">
			<input>
				<port id="0">
					<dim>1</dim>
					<dim>16</dim>
					<dim>512</dim>
				</port>
				<port id="1">
					<dim>1</dim>
				</port>
			</input>
			<output>
				<port id="2" precision="FP16">
					<dim>1</dim>
					<dim>16</dim>
					<dim>512</dim>
					<dim>1</dim>
				</port>
			</output>
		</layer>
		<layer id="240" name="66406642_const402_const" type="Const" version="opset1">
			<data element_type="i64" offset="16396" shape="4" size="32"/>
			<output>
				<port id="1" precision="I64">
					<dim>4</dim>
				</port>
			</output>
		</layer>
		<layer id="241" name="387" type="Tile" version="opset1">
			<input>
				<port id="0">
					<dim>1</dim>
					<dim>16</dim>
					<dim>512</dim>
					<dim>1</dim>
				</port>
				<port id="1">
					<dim>4</dim>
				</port>
			</input>
			<output>
				<port id="2" precision="FP16">
					<dim>8</dim>
					<dim>16</dim>
					<dim>512</dim>
					<dim>1</dim>
				</port>
			</output>
		</layer>
		<layer id="242" name="387/3D_Tile_Squeeze_dim6645_const404_const" type="Const" version="opset1">
			<data element_type="i64" offset="16388" shape="1" size="8"/>
			<output>
				<port id="1" precision="I64">
					<dim>1</dim>
				</port>
			</output>
		</layer>
		<layer id="243" name="387/3D_Tile_Squeeze" type="Squeeze" version="opset1">
			<input>
				<port id="0">
					<dim>8</dim>
					<dim>16</dim>
					<dim>512</dim>
					<dim>1</dim>
				</port>
				<port id="1">
					<dim>1</dim>
				</port>
			</input>
			<output>
				<port id="2" precision="FP16">
					<dim>8</dim>
					<dim>16</dim>
					<dim>512</dim>
				</port>
			</output>
		</layer>
		<layer id="244" name="394/Cast_19927_const406_const" type="Const" version="opset1">
			<data element_type="i64" offset="16428" shape="3" size="24"/>
			<output>
				<port id="1" precision="I64">
					<dim>3</dim>
				</port>
			</output>
		</layer>
		<layer id="245" name="394" type="Reshape" version="opset1">
			<data special_zero="True"/>
			<input>
				<port id="0">
					<dim>8</dim>
					<dim>16</dim>
					<dim>512</dim>
				</port>
				<port id="1">
					<dim>3</dim>
				</port>
			</input>
			<output>
				<port id="2" precision="FP16">
					<dim>8</dim>
					<dim>16</dim>
					<dim>512</dim>
				</port>
			</output>
		</layer>
		<layer id="246" name="decoder_411/fq_weights_1/Convert_to_float/Cast_04629_const" type="Const" version="opset1">
			<data element_type="u8" offset="2385438" shape="8,64,512" size="262144"/>
			<output>
				<port id="1" precision="U8">
					<dim>8</dim>
					<dim>64</dim>
					<dim>512</dim>
				</port>
			</output>
		</layer>
		<layer id="247" name="411/fq_weights_1/Convert_to_float" type="Convert" version="opset1">
			<data destination_type="f16"/>
			<input>
				<port id="0">
					<dim>8</dim>
					<dim>64</dim>
					<dim>512</dim>
				</port>
			</input>
			<output>
				<port id="1" precision="FP16">
					<dim>8</dim>
					<dim>64</dim>
					<dim>512</dim>
				</port>
			</output>
		</layer>
		<layer id="248" name="decoder_411/fq_weights_1/Copy/out_low4147_const" type="Const" version="opset1">
			<data element_type="f16" offset="278596" shape="1" size="2"/>
			<output>
				<port id="1" precision="FP16">
					<dim>1</dim>
				</port>
			</output>
		</layer>
		<layer id="249" name="decoder_411/fq_weights_1/Copy/out_high4148_const" type="Const" version="opset1">
			<data element_type="f16" offset="278598" shape="1" size="2"/>
			<output>
				<port id="1" precision="FP16">
					<dim>1</dim>
				</port>
			</output>
		</layer>
		<layer id="250" name="14291433_const" type="Const" version="opset1">
			<data element_type="f16" offset="2647582" shape="8,1,1" size="16"/>
			<output>
				<port id="1" precision="FP16">
					<dim>8</dim>
					<dim>1</dim>
					<dim>1</dim>
				</port>
			</output>
		</layer>
		<layer id="251" name="14301434_const" type="Const" version="opset1">
			<data element_type="f16" offset="2647598" shape="8,1,1" size="16"/>
			<output>
				<port id="1" precision="FP16">
					<dim>8</dim>
					<dim>1</dim>
					<dim>1</dim>
				</port>
			</output>
		</layer>
		<layer id="252" name="411/fq_weights_1" type="FakeQuantize" version="opset1">
			<data levels="255"/>
			<input>
				<port id="0">
					<dim>8</dim>
					<dim>64</dim>
					<dim>512</dim>
				</port>
				<port id="1">
					<dim>1</dim>
				</port>
				<port id="2">
					<dim>1</dim>
				</port>
				<port id="3">
					<dim>8</dim>
					<dim>1</dim>
					<dim>1</dim>
				</port>
				<port id="4">
					<dim>8</dim>
					<dim>1</dim>
					<dim>1</dim>
				</port>
			</input>
			<output>
				<port id="5" precision="FP16">
					<dim>8</dim>
					<dim>64</dim>
					<dim>512</dim>
				</port>
			</output>
		</layer>
		<layer id="253" name="411" type="MatMul" version="opset1">
			<data transpose_a="False" transpose_b="True"/>
			<input>
				<port id="0">
					<dim>8</dim>
					<dim>16</dim>
					<dim>512</dim>
				</port>
				<port id="1">
					<dim>8</dim>
					<dim>64</dim>
					<dim>512</dim>
				</port>
			</input>
			<output>
				<port id="2" precision="FP16">
					<dim>8</dim>
					<dim>16</dim>
					<dim>64</dim>
				</port>
			</output>
		</layer>
		<layer id="254" name="26372641_const" type="Const" version="opset1">
			<data element_type="f16" offset="2647614" shape="" size="2"/>
			<output>
				<port id="1" precision="FP16"/>
			</output>
		</layer>
		<layer id="255" name="26382642_const" type="Const" version="opset1">
			<data element_type="f16" offset="2647616" shape="" size="2"/>
			<output>
				<port id="1" precision="FP16"/>
			</output>
		</layer>
		<layer id="256" name="26392643_const" type="Const" version="opset1">
			<data element_type="f16" offset="2647614" shape="" size="2"/>
			<output>
				<port id="1" precision="FP16"/>
			</output>
		</layer>
		<layer id="257" name="26402644_const" type="Const" version="opset1">
			<data element_type="f16" offset="2647616" shape="" size="2"/>
			<output>
				<port id="1" precision="FP16"/>
			</output>
		</layer>
		<layer id="258" name="418/fq_input_0" type="FakeQuantize" version="opset1">
			<data levels="256"/>
			<input>
				<port id="0">
					<dim>8</dim>
					<dim>16</dim>
					<dim>64</dim>
				</port>
				<port id="1"/>
				<port id="2"/>
				<port id="3"/>
				<port id="4"/>
			</input>
			<output>
				<port id="5" precision="FP16">
					<dim>8</dim>
					<dim>16</dim>
					<dim>64</dim>
				</port>
			</output>
		</layer>
		<layer id="259" name="418/Cast_110019_const410_const" type="Const" version="opset1">
			<data element_type="i64" offset="278636" shape="3" size="24"/>
			<output>
				<port id="1" precision="I64">
					<dim>3</dim>
				</port>
			</output>
		</layer>
		<layer id="260" name="418" type="Reshape" version="opset1">
			<data special_zero="True"/>
			<input>
				<port id="0">
					<dim>8</dim>
					<dim>16</dim>
					<dim>64</dim>
				</port>
				<port id="1">
					<dim>3</dim>
				</port>
			</input>
			<output>
				<port id="2" precision="FP16">
					<dim>8</dim>
					<dim>16</dim>
					<dim>64</dim>
				</port>
			</output>
		</layer>
		<layer id="261" name="444" type="MatMul" version="opset1">
			<data transpose_a="False" transpose_b="False"/>
			<input>
				<port id="0">
					<dim>8</dim>
					<dim>16</dim>
					<dim>16</dim>
				</port>
				<port id="1">
					<dim>8</dim>
					<dim>16</dim>
					<dim>64</dim>
				</port>
			</input>
			<output>
				<port id="2" precision="FP16">
					<dim>8</dim>
					<dim>16</dim>
					<dim>64</dim>
				</port>
			</output>
		</layer>
		<layer id="262" name="26672671_const" type="Const" version="opset1">
			<data element_type="f16" offset="2647618" shape="" size="2"/>
			<output>
				<port id="1" precision="FP16"/>
			</output>
		</layer>
		<layer id="263" name="26682672_const" type="Const" version="opset1">
			<data element_type="f16" offset="2647620" shape="" size="2"/>
			<output>
				<port id="1" precision="FP16"/>
			</output>
		</layer>
		<layer id="264" name="26692673_const" type="Const" version="opset1">
			<data element_type="f16" offset="2647618" shape="" size="2"/>
			<output>
				<port id="1" precision="FP16"/>
			</output>
		</layer>
		<layer id="265" name="26702674_const" type="Const" version="opset1">
			<data element_type="f16" offset="2647620" shape="" size="2"/>
			<output>
				<port id="1" precision="FP16"/>
			</output>
		</layer>
		<layer id="266" name="446/fq_input_0" type="FakeQuantize" version="opset1">
			<data levels="256"/>
			<input>
				<port id="0">
					<dim>8</dim>
					<dim>16</dim>
					<dim>64</dim>
				</port>
				<port id="1"/>
				<port id="2"/>
				<port id="3"/>
				<port id="4"/>
			</input>
			<output>
				<port id="5" precision="FP16">
					<dim>8</dim>
					<dim>16</dim>
					<dim>64</dim>
				</port>
			</output>
		</layer>
		<layer id="267" name="446/Cast_19955_const413_const" type="Const" version="opset1">
			<data element_type="i64" offset="803178" shape="4" size="32"/>
			<output>
				<port id="1" precision="I64">
					<dim>4</dim>
				</port>
			</output>
		</layer>
		<layer id="268" name="446" type="Reshape" version="opset1">
			<data special_zero="True"/>
			<input>
				<port id="0">
					<dim>8</dim>
					<dim>16</dim>
					<dim>64</dim>
				</port>
				<port id="1">
					<dim>4</dim>
				</port>
			</input>
			<output>
				<port id="2" precision="FP16">
					<dim>8</dim>
					<dim>1</dim>
					<dim>16</dim>
					<dim>64</dim>
				</port>
			</output>
		</layer>
		<layer id="269" name="decoder_447/Cast_14595_const" type="Const" version="opset1">
			<data element_type="i64" offset="803210" shape="4" size="32"/>
			<output>
				<port id="1" precision="I64">
					<dim>4</dim>
				</port>
			</output>
		</layer>
		<layer id="270" name="447" type="Transpose" version="opset1">
			<input>
				<port id="0">
					<dim>8</dim>
					<dim>1</dim>
					<dim>16</dim>
					<dim>64</dim>
				</port>
				<port id="1">
					<dim>4</dim>
				</port>
			</input>
			<output>
				<port id="2" precision="FP16">
					<dim>1</dim>
					<dim>16</dim>
					<dim>8</dim>
					<dim>64</dim>
				</port>
			</output>
		</layer>
		<layer id="271" name="449/Cast_19969_const417_const" type="Const" version="opset1">
			<data element_type="i64" offset="803242" shape="3" size="24"/>
			<output>
				<port id="1" precision="I64">
					<dim>3</dim>
				</port>
			</output>
		</layer>
		<layer id="272" name="449" type="Reshape" version="opset1">
			<data special_zero="True"/>
			<input>
				<port id="0">
					<dim>1</dim>
					<dim>16</dim>
					<dim>8</dim>
					<dim>64</dim>
				</port>
				<port id="1">
					<dim>3</dim>
				</port>
			</input>
			<output>
				<port id="2" precision="FP16">
					<dim>1</dim>
					<dim>16</dim>
					<dim>512</dim>
				</port>
			</output>
		</layer>
		<layer id="273" name="452" type="Add" version="opset1">
			<input>
				<port id="0">
					<dim>1</dim>
					<dim>16</dim>
					<dim>512</dim>
				</port>
				<port id="1">
					<dim>1</dim>
					<dim>16</dim>
					<dim>512</dim>
				</port>
			</input>
			<output>
				<port id="2" precision="FP16">
					<dim>1</dim>
					<dim>16</dim>
					<dim>512</dim>
				</port>
			</output>
		</layer>
		<layer id="274" name="26772681_const" type="Const" version="opset1">
			<data element_type="f16" offset="2647622" shape="" size="2"/>
			<output>
				<port id="1" precision="FP16"/>
			</output>
		</layer>
		<layer id="275" name="26782682_const" type="Const" version="opset1">
			<data element_type="f16" offset="2647624" shape="" size="2"/>
			<output>
				<port id="1" precision="FP16"/>
			</output>
		</layer>
		<layer id="276" name="26792683_const" type="Const" version="opset1">
			<data element_type="f16" offset="2647622" shape="" size="2"/>
			<output>
				<port id="1" precision="FP16"/>
			</output>
		</layer>
		<layer id="277" name="26802684_const" type="Const" version="opset1">
			<data element_type="f16" offset="2647624" shape="" size="2"/>
			<output>
				<port id="1" precision="FP16"/>
			</output>
		</layer>
		<layer id="278" name="453/fq_input_0" type="FakeQuantize" version="opset1">
			<data levels="256"/>
			<input>
				<port id="0">
					<dim>1</dim>
					<dim>16</dim>
					<dim>512</dim>
				</port>
				<port id="1"/>
				<port id="2"/>
				<port id="3"/>
				<port id="4"/>
			</input>
			<output>
				<port id="5" precision="FP16">
					<dim>1</dim>
					<dim>16</dim>
					<dim>512</dim>
				</port>
			</output>
		</layer>
		<layer id="279" name="decoder_453/Cast_14633_const" type="Const" version="opset1">
			<data element_type="i64" offset="540840" shape="3" size="24"/>
			<output>
				<port id="1" precision="I64">
					<dim>3</dim>
				</port>
			</output>
		</layer>
		<layer id="280" name="453" type="Transpose" version="opset1">
			<input>
				<port id="0">
					<dim>1</dim>
					<dim>16</dim>
					<dim>512</dim>
				</port>
				<port id="1">
					<dim>3</dim>
				</port>
			</input>
			<output>
				<port id="2" precision="FP16">
					<dim>1</dim>
					<dim>512</dim>
					<dim>16</dim>
				</port>
			</output>
		</layer>
		<layer id="281" name="decoder_454/WithoutBiases/fq_weights_1/Convert_to_float/Cast_04607_const" type="Const" version="opset1">
			<data element_type="u8" offset="2647626" shape="1024,512,1" size="524288"/>
			<output>
				<port id="1" precision="U8">
					<dim>1024</dim>
					<dim>512</dim>
					<dim>1</dim>
				</port>
			</output>
		</layer>
		<layer id="282" name="454/WithoutBiases/fq_weights_1/Convert_to_float" type="Convert" version="opset1">
			<data destination_type="f16"/>
			<input>
				<port id="0">
					<dim>1024</dim>
					<dim>512</dim>
					<dim>1</dim>
				</port>
			</input>
			<output>
				<port id="1" precision="FP16">
					<dim>1024</dim>
					<dim>512</dim>
					<dim>1</dim>
				</port>
			</output>
		</layer>
		<layer id="283" name="decoder_454/WithoutBiases/fq_weights_1/Copy/out_low4123_const" type="Const" version="opset1">
			<data element_type="f16" offset="278596" shape="1" size="2"/>
			<output>
				<port id="1" precision="FP16">
					<dim>1</dim>
				</port>
			</output>
		</layer>
		<layer id="284" name="decoder_454/WithoutBiases/fq_weights_1/Copy/out_high4124_const" type="Const" version="opset1">
			<data element_type="f16" offset="278598" shape="1" size="2"/>
			<output>
				<port id="1" precision="FP16">
					<dim>1</dim>
				</port>
			</output>
		</layer>
		<layer id="285" name="13891393_const" type="Const" version="opset1">
			<data element_type="f16" offset="3171914" shape="1024,1,1" size="2048"/>
			<output>
				<port id="1" precision="FP16">
					<dim>1024</dim>
					<dim>1</dim>
					<dim>1</dim>
				</port>
			</output>
		</layer>
		<layer id="286" name="13901394_const" type="Const" version="opset1">
			<data element_type="f16" offset="3173962" shape="1024,1,1" size="2048"/>
			<output>
				<port id="1" precision="FP16">
					<dim>1024</dim>
					<dim>1</dim>
					<dim>1</dim>
				</port>
			</output>
		</layer>
		<layer id="287" name="454/WithoutBiases/fq_weights_1" type="FakeQuantize" version="opset1">
			<data levels="255"/>
			<input>
				<port id="0">
					<dim>1024</dim>
					<dim>512</dim>
					<dim>1</dim>
				</port>
				<port id="1">
					<dim>1</dim>
				</port>
				<port id="2">
					<dim>1</dim>
				</port>
				<port id="3">
					<dim>1024</dim>
					<dim>1</dim>
					<dim>1</dim>
				</port>
				<port id="4">
					<dim>1024</dim>
					<dim>1</dim>
					<dim>1</dim>
				</port>
			</input>
			<output>
				<port id="5" precision="FP16">
					<dim>1024</dim>
					<dim>512</dim>
					<dim>1</dim>
				</port>
			</output>
		</layer>
		<layer id="288" name="454/WithoutBiases" type="Convolution" version="opset1">
			<data dilations="1" output_padding="0" pads_begin="0" pads_end="0" strides="1"/>
			<input>
				<port id="0">
					<dim>1</dim>
					<dim>512</dim>
					<dim>16</dim>
				</port>
				<port id="1">
					<dim>1024</dim>
					<dim>512</dim>
					<dim>1</dim>
				</port>
			</input>
			<output>
				<port id="2" precision="FP16">
					<dim>1</dim>
					<dim>1024</dim>
					<dim>16</dim>
				</port>
			</output>
		</layer>
		<layer id="289" name="454/Dims3501/copy_const424_const" type="Const" version="opset1">
			<data element_type="f16" offset="3176010" shape="1,1024,1" size="2048"/>
			<output>
				<port id="1" precision="FP16">
					<dim>1</dim>
					<dim>1024</dim>
					<dim>1</dim>
				</port>
			</output>
		</layer>
		<layer id="290" name="454" type="Add" version="opset1">
			<input>
				<port id="0">
					<dim>1</dim>
					<dim>1024</dim>
					<dim>16</dim>
				</port>
				<port id="1">
					<dim>1</dim>
					<dim>1024</dim>
					<dim>1</dim>
				</port>
			</input>
			<output>
				<port id="2" precision="FP16">
					<dim>1</dim>
					<dim>1024</dim>
					<dim>16</dim>
				</port>
			</output>
		</layer>
		<layer id="291" name="455" type="ReLU" version="opset1">
			<input>
				<port id="0">
					<dim>1</dim>
					<dim>1024</dim>
					<dim>16</dim>
				</port>
			</input>
			<output>
				<port id="1" precision="FP16">
					<dim>1</dim>
					<dim>1024</dim>
					<dim>16</dim>
				</port>
			</output>
		</layer>
		<layer id="292" name="11171121_const" type="Const" version="opset1">
			<data element_type="f16" offset="278596" shape="" size="2"/>
			<output>
				<port id="1" precision="FP16"/>
			</output>
		</layer>
		<layer id="293" name="11181122_const" type="Const" version="opset1">
			<data element_type="f16" offset="3178058" shape="" size="2"/>
			<output>
				<port id="1" precision="FP16"/>
			</output>
		</layer>
		<layer id="294" name="11191123_const" type="Const" version="opset1">
			<data element_type="f16" offset="278596" shape="" size="2"/>
			<output>
				<port id="1" precision="FP16"/>
			</output>
		</layer>
		<layer id="295" name="11201124_const" type="Const" version="opset1">
			<data element_type="f16" offset="3178058" shape="" size="2"/>
			<output>
				<port id="1" precision="FP16"/>
			</output>
		</layer>
		<layer id="296" name="456/WithoutBiases/fq_input_0" type="FakeQuantize" version="opset1">
			<data levels="256"/>
			<input>
				<port id="0">
					<dim>1</dim>
					<dim>1024</dim>
					<dim>16</dim>
				</port>
				<port id="1"/>
				<port id="2"/>
				<port id="3"/>
				<port id="4"/>
			</input>
			<output>
				<port id="5" precision="FP16">
					<dim>1</dim>
					<dim>1024</dim>
					<dim>16</dim>
				</port>
			</output>
		</layer>
		<layer id="297" name="decoder_456/WithoutBiases/fq_weights_1/Convert_to_float/Cast_04597_const" type="Const" version="opset1">
			<data element_type="u8" offset="3178060" shape="512,1024,1" size="524288"/>
			<output>
				<port id="1" precision="U8">
					<dim>512</dim>
					<dim>1024</dim>
					<dim>1</dim>
				</port>
			</output>
		</layer>
		<layer id="298" name="456/WithoutBiases/fq_weights_1/Convert_to_float" type="Convert" version="opset1">
			<data destination_type="f16"/>
			<input>
				<port id="0">
					<dim>512</dim>
					<dim>1024</dim>
					<dim>1</dim>
				</port>
			</input>
			<output>
				<port id="1" precision="FP16">
					<dim>512</dim>
					<dim>1024</dim>
					<dim>1</dim>
				</port>
			</output>
		</layer>
		<layer id="299" name="decoder_456/WithoutBiases/fq_weights_1/Copy/out_low4187_const" type="Const" version="opset1">
			<data element_type="f16" offset="278596" shape="1" size="2"/>
			<output>
				<port id="1" precision="FP16">
					<dim>1</dim>
				</port>
			</output>
		</layer>
		<layer id="300" name="decoder_456/WithoutBiases/fq_weights_1/Copy/out_high4188_const" type="Const" version="opset1">
			<data element_type="f16" offset="278598" shape="1" size="2"/>
			<output>
				<port id="1" precision="FP16">
					<dim>1</dim>
				</port>
			</output>
		</layer>
		<layer id="301" name="11291133_const" type="Const" version="opset1">
			<data element_type="f16" offset="3702348" shape="512,1,1" size="1024"/>
			<output>
				<port id="1" precision="FP16">
					<dim>512</dim>
					<dim>1</dim>
					<dim>1</dim>
				</port>
			</output>
		</layer>
		<layer id="302" name="11301134_const" type="Const" version="opset1">
			<data element_type="f16" offset="3703372" shape="512,1,1" size="1024"/>
			<output>
				<port id="1" precision="FP16">
					<dim>512</dim>
					<dim>1</dim>
					<dim>1</dim>
				</port>
			</output>
		</layer>
		<layer id="303" name="456/WithoutBiases/fq_weights_1" type="FakeQuantize" version="opset1">
			<data levels="255"/>
			<input>
				<port id="0">
					<dim>512</dim>
					<dim>1024</dim>
					<dim>1</dim>
				</port>
				<port id="1">
					<dim>1</dim>
				</port>
				<port id="2">
					<dim>1</dim>
				</port>
				<port id="3">
					<dim>512</dim>
					<dim>1</dim>
					<dim>1</dim>
				</port>
				<port id="4">
					<dim>512</dim>
					<dim>1</dim>
					<dim>1</dim>
				</port>
			</input>
			<output>
				<port id="5" precision="FP16">
					<dim>512</dim>
					<dim>1024</dim>
					<dim>1</dim>
				</port>
			</output>
		</layer>
		<layer id="304" name="456/WithoutBiases" type="Convolution" version="opset1">
			<data dilations="1" output_padding="0" pads_begin="0" pads_end="0" strides="1"/>
			<input>
				<port id="0">
					<dim>1</dim>
					<dim>1024</dim>
					<dim>16</dim>
				</port>
				<port id="1">
					<dim>512</dim>
					<dim>1024</dim>
					<dim>1</dim>
				</port>
			</input>
			<output>
				<port id="2" precision="FP16">
					<dim>1</dim>
					<dim>512</dim>
					<dim>16</dim>
				</port>
			</output>
		</layer>
		<layer id="305" name="456/Dims3471/copy_const429_const" type="Const" version="opset1">
			<data element_type="f16" offset="3704396" shape="1,512,1" size="1024"/>
			<output>
				<port id="1" precision="FP16">
					<dim>1</dim>
					<dim>512</dim>
					<dim>1</dim>
				</port>
			</output>
		</layer>
		<layer id="306" name="456" type="Add" version="opset1">
			<input>
				<port id="0">
					<dim>1</dim>
					<dim>512</dim>
					<dim>16</dim>
				</port>
				<port id="1">
					<dim>1</dim>
					<dim>512</dim>
					<dim>1</dim>
				</port>
			</input>
			<output>
				<port id="2" precision="FP16">
					<dim>1</dim>
					<dim>512</dim>
					<dim>16</dim>
				</port>
			</output>
		</layer>
		<layer id="307" name="26872691_const" type="Const" version="opset1">
			<data element_type="f16" offset="3705420" shape="" size="2"/>
			<output>
				<port id="1" precision="FP16"/>
			</output>
		</layer>
		<layer id="308" name="26882692_const" type="Const" version="opset1">
			<data element_type="f16" offset="3705422" shape="" size="2"/>
			<output>
				<port id="1" precision="FP16"/>
			</output>
		</layer>
		<layer id="309" name="26892693_const" type="Const" version="opset1">
			<data element_type="f16" offset="3705420" shape="" size="2"/>
			<output>
				<port id="1" precision="FP16"/>
			</output>
		</layer>
		<layer id="310" name="26902694_const" type="Const" version="opset1">
			<data element_type="f16" offset="3705422" shape="" size="2"/>
			<output>
				<port id="1" precision="FP16"/>
			</output>
		</layer>
		<layer id="311" name="457/fq_input_0" type="FakeQuantize" version="opset1">
			<data levels="256"/>
			<input>
				<port id="0">
					<dim>1</dim>
					<dim>512</dim>
					<dim>16</dim>
				</port>
				<port id="1"/>
				<port id="2"/>
				<port id="3"/>
				<port id="4"/>
			</input>
			<output>
				<port id="5" precision="FP16">
					<dim>1</dim>
					<dim>512</dim>
					<dim>16</dim>
				</port>
			</output>
		</layer>
		<layer id="312" name="decoder_457/Cast_14649_const" type="Const" version="opset1">
			<data element_type="i64" offset="540840" shape="3" size="24"/>
			<output>
				<port id="1" precision="I64">
					<dim>3</dim>
				</port>
			</output>
		</layer>
		<layer id="313" name="457" type="Transpose" version="opset1">
			<input>
				<port id="0">
					<dim>1</dim>
					<dim>512</dim>
					<dim>16</dim>
				</port>
				<port id="1">
					<dim>3</dim>
				</port>
			</input>
			<output>
				<port id="2" precision="FP16">
					<dim>1</dim>
					<dim>16</dim>
					<dim>512</dim>
				</port>
			</output>
		</layer>
		<layer id="314" name="460" type="Add" version="opset1">
			<input>
				<port id="0">
					<dim>1</dim>
					<dim>16</dim>
					<dim>512</dim>
				</port>
				<port id="1">
					<dim>1</dim>
					<dim>16</dim>
					<dim>512</dim>
				</port>
			</input>
			<output>
				<port id="2" precision="FP16">
					<dim>1</dim>
					<dim>16</dim>
					<dim>512</dim>
				</port>
			</output>
		</layer>
		<layer id="315" name="27272731_const" type="Const" version="opset1">
			<data element_type="f16" offset="3705424" shape="" size="2"/>
			<output>
				<port id="1" precision="FP16"/>
			</output>
		</layer>
		<layer id="316" name="27282732_const" type="Const" version="opset1">
			<data element_type="f16" offset="3705426" shape="" size="2"/>
			<output>
				<port id="1" precision="FP16"/>
			</output>
		</layer>
		<layer id="317" name="27292733_const" type="Const" version="opset1">
			<data element_type="f16" offset="3705424" shape="" size="2"/>
			<output>
				<port id="1" precision="FP16"/>
			</output>
		</layer>
		<layer id="318" name="27302734_const" type="Const" version="opset1">
			<data element_type="f16" offset="3705426" shape="" size="2"/>
			<output>
				<port id="1" precision="FP16"/>
			</output>
		</layer>
		<layer id="319" name="474/3D_Tile_Unsqueeze/fq_input_0" type="FakeQuantize" version="opset1">
			<data levels="256"/>
			<input>
				<port id="0">
					<dim>1</dim>
					<dim>16</dim>
					<dim>512</dim>
				</port>
				<port id="1"/>
				<port id="2"/>
				<port id="3"/>
				<port id="4"/>
			</input>
			<output>
				<port id="5" precision="FP16">
					<dim>1</dim>
					<dim>16</dim>
					<dim>512</dim>
				</port>
			</output>
		</layer>
		<layer id="320" name="474/3D_Tile_Unsqueeze_dim6722_const434_const" type="Const" version="opset1">
			<data element_type="i64" offset="16388" shape="1" size="8"/>
			<output>
				<port id="1" precision="I64">
					<dim>1</dim>
				</port>
			</output>
		</layer>
		<layer id="321" name="474/3D_Tile_Unsqueeze" type="Unsqueeze" version="opset1">
			<input>
				<port id="0">
					<dim>1</dim>
					<dim>16</dim>
					<dim>512</dim>
				</port>
				<port id="1">
					<dim>1</dim>
				</port>
			</input>
			<output>
				<port id="2" precision="FP16">
					<dim>1</dim>
					<dim>16</dim>
					<dim>512</dim>
					<dim>1</dim>
				</port>
			</output>
		</layer>
		<layer id="322" name="67246726_const436_const" type="Const" version="opset1">
			<data element_type="i64" offset="16396" shape="4" size="32"/>
			<output>
				<port id="1" precision="I64">
					<dim>4</dim>
				</port>
			</output>
		</layer>
		<layer id="323" name="474" type="Tile" version="opset1">
			<input>
				<port id="0">
					<dim>1</dim>
					<dim>16</dim>
					<dim>512</dim>
					<dim>1</dim>
				</port>
				<port id="1">
					<dim>4</dim>
				</port>
			</input>
			<output>
				<port id="2" precision="FP16">
					<dim>8</dim>
					<dim>16</dim>
					<dim>512</dim>
					<dim>1</dim>
				</port>
			</output>
		</layer>
		<layer id="324" name="474/3D_Tile_Squeeze_dim6729_const438_const" type="Const" version="opset1">
			<data element_type="i64" offset="16388" shape="1" size="8"/>
			<output>
				<port id="1" precision="I64">
					<dim>1</dim>
				</port>
			</output>
		</layer>
		<layer id="325" name="474/3D_Tile_Squeeze" type="Squeeze" version="opset1">
			<input>
				<port id="0">
					<dim>8</dim>
					<dim>16</dim>
					<dim>512</dim>
					<dim>1</dim>
				</port>
				<port id="1">
					<dim>1</dim>
				</port>
			</input>
			<output>
				<port id="2" precision="FP16">
					<dim>8</dim>
					<dim>16</dim>
					<dim>512</dim>
				</port>
			</output>
		</layer>
		<layer id="326" name="481/Cast_19911_const440_const" type="Const" version="opset1">
			<data element_type="i64" offset="16428" shape="3" size="24"/>
			<output>
				<port id="1" precision="I64">
					<dim>3</dim>
				</port>
			</output>
		</layer>
		<layer id="327" name="481" type="Reshape" version="opset1">
			<data special_zero="True"/>
			<input>
				<port id="0">
					<dim>8</dim>
					<dim>16</dim>
					<dim>512</dim>
				</port>
				<port id="1">
					<dim>3</dim>
				</port>
			</input>
			<output>
				<port id="2" precision="FP16">
					<dim>8</dim>
					<dim>16</dim>
					<dim>512</dim>
				</port>
			</output>
		</layer>
		<layer id="328" name="decoder_500/fq_weights_1/Convert_to_float/Cast_04647_const" type="Const" version="opset1">
			<data element_type="u8" offset="3705428" shape="8,64,512" size="262144"/>
			<output>
				<port id="1" precision="U8">
					<dim>8</dim>
					<dim>64</dim>
					<dim>512</dim>
				</port>
			</output>
		</layer>
		<layer id="329" name="500/fq_weights_1/Convert_to_float" type="Convert" version="opset1">
			<data destination_type="f16"/>
			<input>
				<port id="0">
					<dim>8</dim>
					<dim>64</dim>
					<dim>512</dim>
				</port>
			</input>
			<output>
				<port id="1" precision="FP16">
					<dim>8</dim>
					<dim>64</dim>
					<dim>512</dim>
				</port>
			</output>
		</layer>
		<layer id="330" name="decoder_500/fq_weights_1/Copy/out_low4083_const" type="Const" version="opset1">
			<data element_type="f16" offset="278596" shape="1" size="2"/>
			<output>
				<port id="1" precision="FP16">
					<dim>1</dim>
				</port>
			</output>
		</layer>
		<layer id="331" name="decoder_500/fq_weights_1/Copy/out_high4084_const" type="Const" version="opset1">
			<data element_type="f16" offset="278598" shape="1" size="2"/>
			<output>
				<port id="1" precision="FP16">
					<dim>1</dim>
				</port>
			</output>
		</layer>
		<layer id="332" name="17291733_const" type="Const" version="opset1">
			<data element_type="f16" offset="3967572" shape="8,1,1" size="16"/>
			<output>
				<port id="1" precision="FP16">
					<dim>8</dim>
					<dim>1</dim>
					<dim>1</dim>
				</port>
			</output>
		</layer>
		<layer id="333" name="17301734_const" type="Const" version="opset1">
			<data element_type="f16" offset="3967588" shape="8,1,1" size="16"/>
			<output>
				<port id="1" precision="FP16">
					<dim>8</dim>
					<dim>1</dim>
					<dim>1</dim>
				</port>
			</output>
		</layer>
		<layer id="334" name="500/fq_weights_1" type="FakeQuantize" version="opset1">
			<data levels="255"/>
			<input>
				<port id="0">
					<dim>8</dim>
					<dim>64</dim>
					<dim>512</dim>
				</port>
				<port id="1">
					<dim>1</dim>
				</port>
				<port id="2">
					<dim>1</dim>
				</port>
				<port id="3">
					<dim>8</dim>
					<dim>1</dim>
					<dim>1</dim>
				</port>
				<port id="4">
					<dim>8</dim>
					<dim>1</dim>
					<dim>1</dim>
				</port>
			</input>
			<output>
				<port id="5" precision="FP16">
					<dim>8</dim>
					<dim>64</dim>
					<dim>512</dim>
				</port>
			</output>
		</layer>
		<layer id="335" name="500" type="MatMul" version="opset1">
			<data transpose_a="False" transpose_b="True"/>
			<input>
				<port id="0">
					<dim>8</dim>
					<dim>16</dim>
					<dim>512</dim>
				</port>
				<port id="1">
					<dim>8</dim>
					<dim>64</dim>
					<dim>512</dim>
				</port>
			</input>
			<output>
				<port id="2" precision="FP16">
					<dim>8</dim>
					<dim>16</dim>
					<dim>64</dim>
				</port>
			</output>
		</layer>
		<layer id="336" name="28172821_const" type="Const" version="opset1">
			<data element_type="f16" offset="3967604" shape="" size="2"/>
			<output>
				<port id="1" precision="FP16"/>
			</output>
		</layer>
		<layer id="337" name="28182822_const" type="Const" version="opset1">
			<data element_type="f16" offset="3967606" shape="" size="2"/>
			<output>
				<port id="1" precision="FP16"/>
			</output>
		</layer>
		<layer id="338" name="28192823_const" type="Const" version="opset1">
			<data element_type="f16" offset="3967604" shape="" size="2"/>
			<output>
				<port id="1" precision="FP16"/>
			</output>
		</layer>
		<layer id="339" name="28202824_const" type="Const" version="opset1">
			<data element_type="f16" offset="3967606" shape="" size="2"/>
			<output>
				<port id="1" precision="FP16"/>
			</output>
		</layer>
		<layer id="340" name="507/fq_input_0" type="FakeQuantize" version="opset1">
			<data levels="256"/>
			<input>
				<port id="0">
					<dim>8</dim>
					<dim>16</dim>
					<dim>64</dim>
				</port>
				<port id="1"/>
				<port id="2"/>
				<port id="3"/>
				<port id="4"/>
			</input>
			<output>
				<port id="5" precision="FP16">
					<dim>8</dim>
					<dim>16</dim>
					<dim>64</dim>
				</port>
			</output>
		</layer>
		<layer id="341" name="507/Cast_19907_const444_const" type="Const" version="opset1">
			<data element_type="i64" offset="278636" shape="3" size="24"/>
			<output>
				<port id="1" precision="I64">
					<dim>3</dim>
				</port>
			</output>
		</layer>
		<layer id="342" name="507" type="Reshape" version="opset1">
			<data special_zero="True"/>
			<input>
				<port id="0">
					<dim>8</dim>
					<dim>16</dim>
					<dim>64</dim>
				</port>
				<port id="1">
					<dim>3</dim>
				</port>
			</input>
			<output>
				<port id="2" precision="FP16">
					<dim>8</dim>
					<dim>16</dim>
					<dim>64</dim>
				</port>
			</output>
		</layer>
		<layer id="343" name="483/3D_Tile_Unsqueeze_dim6650_const446_const" type="Const" version="opset1">
			<data element_type="i64" offset="16388" shape="1" size="8"/>
			<output>
				<port id="1" precision="I64">
					<dim>1</dim>
				</port>
			</output>
		</layer>
		<layer id="344" name="483/3D_Tile_Unsqueeze" type="Unsqueeze" version="opset1">
			<input>
				<port id="0">
					<dim>1</dim>
					<dim>16</dim>
					<dim>512</dim>
				</port>
				<port id="1">
					<dim>1</dim>
				</port>
			</input>
			<output>
				<port id="2" precision="FP16">
					<dim>1</dim>
					<dim>16</dim>
					<dim>512</dim>
					<dim>1</dim>
				</port>
			</output>
		</layer>
		<layer id="345" name="66526654_const448_const" type="Const" version="opset1">
			<data element_type="i64" offset="16396" shape="4" size="32"/>
			<output>
				<port id="1" precision="I64">
					<dim>4</dim>
				</port>
			</output>
		</layer>
		<layer id="346" name="483" type="Tile" version="opset1">
			<input>
				<port id="0">
					<dim>1</dim>
					<dim>16</dim>
					<dim>512</dim>
					<dim>1</dim>
				</port>
				<port id="1">
					<dim>4</dim>
				</port>
			</input>
			<output>
				<port id="2" precision="FP16">
					<dim>8</dim>
					<dim>16</dim>
					<dim>512</dim>
					<dim>1</dim>
				</port>
			</output>
		</layer>
		<layer id="347" name="483/3D_Tile_Squeeze_dim6657_const450_const" type="Const" version="opset1">
			<data element_type="i64" offset="16388" shape="1" size="8"/>
			<output>
				<port id="1" precision="I64">
					<dim>1</dim>
				</port>
			</output>
		</layer>
		<layer id="348" name="483/3D_Tile_Squeeze" type="Squeeze" version="opset1">
			<input>
				<port id="0">
					<dim>8</dim>
					<dim>16</dim>
					<dim>512</dim>
					<dim>1</dim>
				</port>
				<port id="1">
					<dim>1</dim>
				</port>
			</input>
			<output>
				<port id="2" precision="FP16">
					<dim>8</dim>
					<dim>16</dim>
					<dim>512</dim>
				</port>
			</output>
		</layer>
		<layer id="349" name="490/Cast_110015_const452_const" type="Const" version="opset1">
			<data element_type="i64" offset="16428" shape="3" size="24"/>
			<output>
				<port id="1" precision="I64">
					<dim>3</dim>
				</port>
			</output>
		</layer>
		<layer id="350" name="490" type="Reshape" version="opset1">
			<data special_zero="True"/>
			<input>
				<port id="0">
					<dim>8</dim>
					<dim>16</dim>
					<dim>512</dim>
				</port>
				<port id="1">
					<dim>3</dim>
				</port>
			</input>
			<output>
				<port id="2" precision="FP16">
					<dim>8</dim>
					<dim>16</dim>
					<dim>512</dim>
				</port>
			</output>
		</layer>
		<layer id="351" name="decoder_508/fq_weights_1/Convert_to_float/Cast_04617_const" type="Const" version="opset1">
			<data element_type="u8" offset="3967608" shape="8,64,512" size="262144"/>
			<output>
				<port id="1" precision="U8">
					<dim>8</dim>
					<dim>64</dim>
					<dim>512</dim>
				</port>
			</output>
		</layer>
		<layer id="352" name="508/fq_weights_1/Convert_to_float" type="Convert" version="opset1">
			<data destination_type="f16"/>
			<input>
				<port id="0">
					<dim>8</dim>
					<dim>64</dim>
					<dim>512</dim>
				</port>
			</input>
			<output>
				<port id="1" precision="FP16">
					<dim>8</dim>
					<dim>64</dim>
					<dim>512</dim>
				</port>
			</output>
		</layer>
		<layer id="353" name="decoder_508/fq_weights_1/Copy/out_low4171_const" type="Const" version="opset1">
			<data element_type="f16" offset="278596" shape="1" size="2"/>
			<output>
				<port id="1" precision="FP16">
					<dim>1</dim>
				</port>
			</output>
		</layer>
		<layer id="354" name="decoder_508/fq_weights_1/Copy/out_high4172_const" type="Const" version="opset1">
			<data element_type="f16" offset="278598" shape="1" size="2"/>
			<output>
				<port id="1" precision="FP16">
					<dim>1</dim>
				</port>
			</output>
		</layer>
		<layer id="355" name="11491153_const" type="Const" version="opset1">
			<data element_type="f16" offset="4229752" shape="8,1,1" size="16"/>
			<output>
				<port id="1" precision="FP16">
					<dim>8</dim>
					<dim>1</dim>
					<dim>1</dim>
				</port>
			</output>
		</layer>
		<layer id="356" name="11501154_const" type="Const" version="opset1">
			<data element_type="f16" offset="4229768" shape="8,1,1" size="16"/>
			<output>
				<port id="1" precision="FP16">
					<dim>8</dim>
					<dim>1</dim>
					<dim>1</dim>
				</port>
			</output>
		</layer>
		<layer id="357" name="508/fq_weights_1" type="FakeQuantize" version="opset1">
			<data levels="255"/>
			<input>
				<port id="0">
					<dim>8</dim>
					<dim>64</dim>
					<dim>512</dim>
				</port>
				<port id="1">
					<dim>1</dim>
				</port>
				<port id="2">
					<dim>1</dim>
				</port>
				<port id="3">
					<dim>8</dim>
					<dim>1</dim>
					<dim>1</dim>
				</port>
				<port id="4">
					<dim>8</dim>
					<dim>1</dim>
					<dim>1</dim>
				</port>
			</input>
			<output>
				<port id="5" precision="FP16">
					<dim>8</dim>
					<dim>64</dim>
					<dim>512</dim>
				</port>
			</output>
		</layer>
		<layer id="358" name="508" type="MatMul" version="opset1">
			<data transpose_a="False" transpose_b="True"/>
			<input>
				<port id="0">
					<dim>8</dim>
					<dim>16</dim>
					<dim>512</dim>
				</port>
				<port id="1">
					<dim>8</dim>
					<dim>64</dim>
					<dim>512</dim>
				</port>
			</input>
			<output>
				<port id="2" precision="FP16">
					<dim>8</dim>
					<dim>16</dim>
					<dim>64</dim>
				</port>
			</output>
		</layer>
		<layer id="359" name="28372841_const" type="Const" version="opset1">
			<data element_type="f16" offset="4229784" shape="" size="2"/>
			<output>
				<port id="1" precision="FP16"/>
			</output>
		</layer>
		<layer id="360" name="28382842_const" type="Const" version="opset1">
			<data element_type="f16" offset="4229786" shape="" size="2"/>
			<output>
				<port id="1" precision="FP16"/>
			</output>
		</layer>
		<layer id="361" name="28392843_const" type="Const" version="opset1">
			<data element_type="f16" offset="4229784" shape="" size="2"/>
			<output>
				<port id="1" precision="FP16"/>
			</output>
		</layer>
		<layer id="362" name="28402844_const" type="Const" version="opset1">
			<data element_type="f16" offset="4229786" shape="" size="2"/>
			<output>
				<port id="1" precision="FP16"/>
			</output>
		</layer>
		<layer id="363" name="515/fq_input_0" type="FakeQuantize" version="opset1">
			<data levels="256"/>
			<input>
				<port id="0">
					<dim>8</dim>
					<dim>16</dim>
					<dim>64</dim>
				</port>
				<port id="1"/>
				<port id="2"/>
				<port id="3"/>
				<port id="4"/>
			</input>
			<output>
				<port id="5" precision="FP16">
					<dim>8</dim>
					<dim>16</dim>
					<dim>64</dim>
				</port>
			</output>
		</layer>
		<layer id="364" name="515/Cast_19935_const456_const" type="Const" version="opset1">
			<data element_type="i64" offset="278636" shape="3" size="24"/>
			<output>
				<port id="1" precision="I64">
					<dim>3</dim>
				</port>
			</output>
		</layer>
		<layer id="365" name="515" type="Reshape" version="opset1">
			<data special_zero="True"/>
			<input>
				<port id="0">
					<dim>8</dim>
					<dim>16</dim>
					<dim>64</dim>
				</port>
				<port id="1">
					<dim>3</dim>
				</port>
			</input>
			<output>
				<port id="2" precision="FP16">
					<dim>8</dim>
					<dim>16</dim>
					<dim>64</dim>
				</port>
			</output>
		</layer>
		<layer id="366" name="decoder_524/Cast_14605_const" type="Const" version="opset1">
			<data element_type="i64" offset="540840" shape="3" size="24"/>
			<output>
				<port id="1" precision="I64">
					<dim>3</dim>
				</port>
			</output>
		</layer>
		<layer id="367" name="524" type="Transpose" version="opset1">
			<input>
				<port id="0">
					<dim>8</dim>
					<dim>16</dim>
					<dim>64</dim>
				</port>
				<port id="1">
					<dim>3</dim>
				</port>
			</input>
			<output>
				<port id="2" precision="FP16">
					<dim>8</dim>
					<dim>64</dim>
					<dim>16</dim>
				</port>
			</output>
		</layer>
		<layer id="368" name="decoder_527/fq_input_1/Convert_to_float/Cast_04659_const" type="Const" version="opset1">
			<data element_type="u8" offset="540864" shape="1,64,1" size="64"/>
			<output>
				<port id="1" precision="U8">
					<dim>1</dim>
					<dim>64</dim>
					<dim>1</dim>
				</port>
			</output>
		</layer>
		<layer id="369" name="527/fq_input_1/Convert_to_float" type="Convert" version="opset1">
			<data destination_type="f16"/>
			<input>
				<port id="0">
					<dim>1</dim>
					<dim>64</dim>
					<dim>1</dim>
				</port>
			</input>
			<output>
				<port id="1" precision="FP16">
					<dim>1</dim>
					<dim>64</dim>
					<dim>1</dim>
				</port>
			</output>
		</layer>
		<layer id="370" name="decoder_527/fq_input_1/Copy/out_low4099_const" type="Const" version="opset1">
			<data element_type="f16" offset="278596" shape="1" size="2"/>
			<output>
				<port id="1" precision="FP16">
					<dim>1</dim>
				</port>
			</output>
		</layer>
		<layer id="371" name="decoder_527/fq_input_1/Copy/out_high4100_const" type="Const" version="opset1">
			<data element_type="f16" offset="278598" shape="1" size="2"/>
			<output>
				<port id="1" precision="FP16">
					<dim>1</dim>
				</port>
			</output>
		</layer>
		<layer id="372" name="989993_const" type="Const" version="opset1">
			<data element_type="f16" offset="540928" shape="1,1,1" size="2"/>
			<output>
				<port id="1" precision="FP16">
					<dim>1</dim>
					<dim>1</dim>
					<dim>1</dim>
				</port>
			</output>
		</layer>
		<layer id="373" name="990994_const" type="Const" version="opset1">
			<data element_type="f16" offset="540930" shape="1,1,1" size="2"/>
			<output>
				<port id="1" precision="FP16">
					<dim>1</dim>
					<dim>1</dim>
					<dim>1</dim>
				</port>
			</output>
		</layer>
		<layer id="374" name="527/fq_input_1" type="FakeQuantize" version="opset1">
			<data levels="255"/>
			<input>
				<port id="0">
					<dim>1</dim>
					<dim>64</dim>
					<dim>1</dim>
				</port>
				<port id="1">
					<dim>1</dim>
				</port>
				<port id="2">
					<dim>1</dim>
				</port>
				<port id="3">
					<dim>1</dim>
					<dim>1</dim>
					<dim>1</dim>
				</port>
				<port id="4">
					<dim>1</dim>
					<dim>1</dim>
					<dim>1</dim>
				</port>
			</input>
			<output>
				<port id="5" precision="FP16">
					<dim>1</dim>
					<dim>64</dim>
					<dim>1</dim>
				</port>
			</output>
		</layer>
		<layer id="375" name="527" type="Multiply" version="opset1">
			<input>
				<port id="0">
					<dim>8</dim>
					<dim>64</dim>
					<dim>16</dim>
				</port>
				<port id="1">
					<dim>1</dim>
					<dim>64</dim>
					<dim>1</dim>
				</port>
			</input>
			<output>
				<port id="2" precision="FP16">
					<dim>8</dim>
					<dim>64</dim>
					<dim>16</dim>
				</port>
			</output>
		</layer>
		<layer id="376" name="15671571_const" type="Const" version="opset1">
			<data element_type="f16" offset="4229788" shape="" size="2"/>
			<output>
				<port id="1" precision="FP16"/>
			</output>
		</layer>
		<layer id="377" name="15681572_const" type="Const" version="opset1">
			<data element_type="f16" offset="4229790" shape="" size="2"/>
			<output>
				<port id="1" precision="FP16"/>
			</output>
		</layer>
		<layer id="378" name="15691573_const" type="Const" version="opset1">
			<data element_type="f16" offset="4229788" shape="" size="2"/>
			<output>
				<port id="1" precision="FP16"/>
			</output>
		</layer>
		<layer id="379" name="15701574_const" type="Const" version="opset1">
			<data element_type="f16" offset="4229790" shape="" size="2"/>
			<output>
				<port id="1" precision="FP16"/>
			</output>
		</layer>
		<layer id="380" name="525/fq_weights_1" type="FakeQuantize" version="opset1">
			<data levels="256"/>
			<input>
				<port id="0">
					<dim>8</dim>
					<dim>64</dim>
					<dim>16</dim>
				</port>
				<port id="1"/>
				<port id="2"/>
				<port id="3"/>
				<port id="4"/>
			</input>
			<output>
				<port id="5" precision="FP16">
					<dim>8</dim>
					<dim>64</dim>
					<dim>16</dim>
				</port>
			</output>
		</layer>
		<layer id="381" name="525" type="MatMul" version="opset1">
			<data transpose_a="False" transpose_b="False"/>
			<input>
				<port id="0">
					<dim>8</dim>
					<dim>16</dim>
					<dim>64</dim>
				</port>
				<port id="1">
					<dim>8</dim>
					<dim>64</dim>
					<dim>16</dim>
				</port>
			</input>
			<output>
				<port id="2" precision="FP16">
					<dim>8</dim>
					<dim>16</dim>
					<dim>16</dim>
				</port>
			</output>
		</layer>
		<layer id="382" name="539/Cast_19949_const463_const" type="Const" version="opset1">
			<data element_type="i64" offset="540936" shape="2" size="16"/>
			<output>
				<port id="1" precision="I64">
					<dim>2</dim>
				</port>
			</output>
		</layer>
		<layer id="383" name="539" type="Reshape" version="opset1">
			<data special_zero="True"/>
			<input>
				<port id="0">
					<dim>8</dim>
					<dim>16</dim>
					<dim>16</dim>
				</port>
				<port id="1">
					<dim>2</dim>
				</port>
			</input>
			<output>
				<port id="2" precision="FP16">
					<dim>128</dim>
					<dim>16</dim>
				</port>
			</output>
		</layer>
		<layer id="384" name="540/FlattenONNX_/Reshape/Cast_19975_const465_const" type="Const" version="opset1">
			<data element_type="i64" offset="540952" shape="2" size="16"/>
			<output>
				<port id="1" precision="I64">
					<dim>2</dim>
				</port>
			</output>
		</layer>
		<layer id="385" name="540/FlattenONNX_/Reshape" type="Reshape" version="opset1">
			<data special_zero="True"/>
			<input>
				<port id="0">
					<dim>128</dim>
					<dim>16</dim>
				</port>
				<port id="1">
					<dim>2</dim>
				</port>
			</input>
			<output>
				<port id="2" precision="FP16">
					<dim>128</dim>
					<dim>16</dim>
				</port>
			</output>
		</layer>
		<layer id="386" name="540" type="SoftMax" version="opset1">
			<data axis="1"/>
			<input>
				<port id="0">
					<dim>128</dim>
					<dim>16</dim>
				</port>
			</input>
			<output>
				<port id="1" precision="FP16">
					<dim>128</dim>
					<dim>16</dim>
				</port>
			</output>
		</layer>
		<layer id="387" name="28472851_const" type="Const" version="opset1">
			<data element_type="f16" offset="278596" shape="" size="2"/>
			<output>
				<port id="1" precision="FP16"/>
			</output>
		</layer>
		<layer id="388" name="28482852_const" type="Const" version="opset1">
			<data element_type="f16" offset="4229792" shape="" size="2"/>
			<output>
				<port id="1" precision="FP16"/>
			</output>
		</layer>
		<layer id="389" name="28492853_const" type="Const" version="opset1">
			<data element_type="f16" offset="278596" shape="" size="2"/>
			<output>
				<port id="1" precision="FP16"/>
			</output>
		</layer>
		<layer id="390" name="28502854_const" type="Const" version="opset1">
			<data element_type="f16" offset="4229792" shape="" size="2"/>
			<output>
				<port id="1" precision="FP16"/>
			</output>
		</layer>
		<layer id="391" name="546/fq_input_0" type="FakeQuantize" version="opset1">
			<data levels="256"/>
			<input>
				<port id="0">
					<dim>128</dim>
					<dim>16</dim>
				</port>
				<port id="1"/>
				<port id="2"/>
				<port id="3"/>
				<port id="4"/>
			</input>
			<output>
				<port id="5" precision="FP16">
					<dim>128</dim>
					<dim>16</dim>
				</port>
			</output>
		</layer>
		<layer id="392" name="546/Cast_19925_const468_const" type="Const" version="opset1">
			<data element_type="i64" offset="540970" shape="3" size="24"/>
			<output>
				<port id="1" precision="I64">
					<dim>3</dim>
				</port>
			</output>
		</layer>
		<layer id="393" name="546" type="Reshape" version="opset1">
			<data special_zero="True"/>
			<input>
				<port id="0">
					<dim>128</dim>
					<dim>16</dim>
				</port>
				<port id="1">
					<dim>3</dim>
				</port>
			</input>
			<output>
				<port id="2" precision="FP16">
					<dim>8</dim>
					<dim>16</dim>
					<dim>16</dim>
				</port>
			</output>
		</layer>
		<layer id="394" name="492/3D_Tile_Unsqueeze_dim6626_const470_const" type="Const" version="opset1">
			<data element_type="i64" offset="16388" shape="1" size="8"/>
			<output>
				<port id="1" precision="I64">
					<dim>1</dim>
				</port>
			</output>
		</layer>
		<layer id="395" name="492/3D_Tile_Unsqueeze" type="Unsqueeze" version="opset1">
			<input>
				<port id="0">
					<dim>1</dim>
					<dim>16</dim>
					<dim>512</dim>
				</port>
				<port id="1">
					<dim>1</dim>
				</port>
			</input>
			<output>
				<port id="2" precision="FP16">
					<dim>1</dim>
					<dim>16</dim>
					<dim>512</dim>
					<dim>1</dim>
				</port>
			</output>
		</layer>
		<layer id="396" name="66286630_const472_const" type="Const" version="opset1">
			<data element_type="i64" offset="16396" shape="4" size="32"/>
			<output>
				<port id="1" precision="I64">
					<dim>4</dim>
				</port>
			</output>
		</layer>
		<layer id="397" name="492" type="Tile" version="opset1">
			<input>
				<port id="0">
					<dim>1</dim>
					<dim>16</dim>
					<dim>512</dim>
					<dim>1</dim>
				</port>
				<port id="1">
					<dim>4</dim>
				</port>
			</input>
			<output>
				<port id="2" precision="FP16">
					<dim>8</dim>
					<dim>16</dim>
					<dim>512</dim>
					<dim>1</dim>
				</port>
			</output>
		</layer>
		<layer id="398" name="492/3D_Tile_Squeeze_dim6633_const474_const" type="Const" version="opset1">
			<data element_type="i64" offset="16388" shape="1" size="8"/>
			<output>
				<port id="1" precision="I64">
					<dim>1</dim>
				</port>
			</output>
		</layer>
		<layer id="399" name="492/3D_Tile_Squeeze" type="Squeeze" version="opset1">
			<input>
				<port id="0">
					<dim>8</dim>
					<dim>16</dim>
					<dim>512</dim>
					<dim>1</dim>
				</port>
				<port id="1">
					<dim>1</dim>
				</port>
			</input>
			<output>
				<port id="2" precision="FP16">
					<dim>8</dim>
					<dim>16</dim>
					<dim>512</dim>
				</port>
			</output>
		</layer>
		<layer id="400" name="499/Cast_19905_const476_const" type="Const" version="opset1">
			<data element_type="i64" offset="16428" shape="3" size="24"/>
			<output>
				<port id="1" precision="I64">
					<dim>3</dim>
				</port>
			</output>
		</layer>
		<layer id="401" name="499" type="Reshape" version="opset1">
			<data special_zero="True"/>
			<input>
				<port id="0">
					<dim>8</dim>
					<dim>16</dim>
					<dim>512</dim>
				</port>
				<port id="1">
					<dim>3</dim>
				</port>
			</input>
			<output>
				<port id="2" precision="FP16">
					<dim>8</dim>
					<dim>16</dim>
					<dim>512</dim>
				</port>
			</output>
		</layer>
		<layer id="402" name="decoder_516/fq_weights_1/Convert_to_float/Cast_04615_const" type="Const" version="opset1">
			<data element_type="u8" offset="4229794" shape="8,64,512" size="262144"/>
			<output>
				<port id="1" precision="U8">
					<dim>8</dim>
					<dim>64</dim>
					<dim>512</dim>
				</port>
			</output>
		</layer>
		<layer id="403" name="516/fq_weights_1/Convert_to_float" type="Convert" version="opset1">
			<data destination_type="f16"/>
			<input>
				<port id="0">
					<dim>8</dim>
					<dim>64</dim>
					<dim>512</dim>
				</port>
			</input>
			<output>
				<port id="1" precision="FP16">
					<dim>8</dim>
					<dim>64</dim>
					<dim>512</dim>
				</port>
			</output>
		</layer>
		<layer id="404" name="decoder_516/fq_weights_1/Copy/out_low4139_const" type="Const" version="opset1">
			<data element_type="f16" offset="278596" shape="1" size="2"/>
			<output>
				<port id="1" precision="FP16">
					<dim>1</dim>
				</port>
			</output>
		</layer>
		<layer id="405" name="decoder_516/fq_weights_1/Copy/out_high4140_const" type="Const" version="opset1">
			<data element_type="f16" offset="278598" shape="1" size="2"/>
			<output>
				<port id="1" precision="FP16">
					<dim>1</dim>
				</port>
			</output>
		</layer>
		<layer id="406" name="15291533_const" type="Const" version="opset1">
			<data element_type="f16" offset="4491938" shape="8,1,1" size="16"/>
			<output>
				<port id="1" precision="FP16">
					<dim>8</dim>
					<dim>1</dim>
					<dim>1</dim>
				</port>
			</output>
		</layer>
		<layer id="407" name="15301534_const" type="Const" version="opset1">
			<data element_type="f16" offset="4491954" shape="8,1,1" size="16"/>
			<output>
				<port id="1" precision="FP16">
					<dim>8</dim>
					<dim>1</dim>
					<dim>1</dim>
				</port>
			</output>
		</layer>
		<layer id="408" name="516/fq_weights_1" type="FakeQuantize" version="opset1">
			<data levels="255"/>
			<input>
				<port id="0">
					<dim>8</dim>
					<dim>64</dim>
					<dim>512</dim>
				</port>
				<port id="1">
					<dim>1</dim>
				</port>
				<port id="2">
					<dim>1</dim>
				</port>
				<port id="3">
					<dim>8</dim>
					<dim>1</dim>
					<dim>1</dim>
				</port>
				<port id="4">
					<dim>8</dim>
					<dim>1</dim>
					<dim>1</dim>
				</port>
			</input>
			<output>
				<port id="5" precision="FP16">
					<dim>8</dim>
					<dim>64</dim>
					<dim>512</dim>
				</port>
			</output>
		</layer>
		<layer id="409" name="516" type="MatMul" version="opset1">
			<data transpose_a="False" transpose_b="True"/>
			<input>
				<port id="0">
					<dim>8</dim>
					<dim>16</dim>
					<dim>512</dim>
				</port>
				<port id="1">
					<dim>8</dim>
					<dim>64</dim>
					<dim>512</dim>
				</port>
			</input>
			<output>
				<port id="2" precision="FP16">
					<dim>8</dim>
					<dim>16</dim>
					<dim>64</dim>
				</port>
			</output>
		</layer>
		<layer id="410" name="28572861_const" type="Const" version="opset1">
			<data element_type="f16" offset="4491970" shape="" size="2"/>
			<output>
				<port id="1" precision="FP16"/>
			</output>
		</layer>
		<layer id="411" name="28582862_const" type="Const" version="opset1">
			<data element_type="f16" offset="4491972" shape="" size="2"/>
			<output>
				<port id="1" precision="FP16"/>
			</output>
		</layer>
		<layer id="412" name="28592863_const" type="Const" version="opset1">
			<data element_type="f16" offset="4491970" shape="" size="2"/>
			<output>
				<port id="1" precision="FP16"/>
			</output>
		</layer>
		<layer id="413" name="28602864_const" type="Const" version="opset1">
			<data element_type="f16" offset="4491972" shape="" size="2"/>
			<output>
				<port id="1" precision="FP16"/>
			</output>
		</layer>
		<layer id="414" name="523/fq_input_0" type="FakeQuantize" version="opset1">
			<data levels="256"/>
			<input>
				<port id="0">
					<dim>8</dim>
					<dim>16</dim>
					<dim>64</dim>
				</port>
				<port id="1"/>
				<port id="2"/>
				<port id="3"/>
				<port id="4"/>
			</input>
			<output>
				<port id="5" precision="FP16">
					<dim>8</dim>
					<dim>16</dim>
					<dim>64</dim>
				</port>
			</output>
		</layer>
		<layer id="415" name="523/Cast_19989_const480_const" type="Const" version="opset1">
			<data element_type="i64" offset="278636" shape="3" size="24"/>
			<output>
				<port id="1" precision="I64">
					<dim>3</dim>
				</port>
			</output>
		</layer>
		<layer id="416" name="523" type="Reshape" version="opset1">
			<data special_zero="True"/>
			<input>
				<port id="0">
					<dim>8</dim>
					<dim>16</dim>
					<dim>64</dim>
				</port>
				<port id="1">
					<dim>3</dim>
				</port>
			</input>
			<output>
				<port id="2" precision="FP16">
					<dim>8</dim>
					<dim>16</dim>
					<dim>64</dim>
				</port>
			</output>
		</layer>
		<layer id="417" name="549" type="MatMul" version="opset1">
			<data transpose_a="False" transpose_b="False"/>
			<input>
				<port id="0">
					<dim>8</dim>
					<dim>16</dim>
					<dim>16</dim>
				</port>
				<port id="1">
					<dim>8</dim>
					<dim>16</dim>
					<dim>64</dim>
				</port>
			</input>
			<output>
				<port id="2" precision="FP16">
					<dim>8</dim>
					<dim>16</dim>
					<dim>64</dim>
				</port>
			</output>
		</layer>
		<layer id="418" name="28872891_const" type="Const" version="opset1">
			<data element_type="f16" offset="4491974" shape="" size="2"/>
			<output>
				<port id="1" precision="FP16"/>
			</output>
		</layer>
		<layer id="419" name="28882892_const" type="Const" version="opset1">
			<data element_type="f16" offset="4491976" shape="" size="2"/>
			<output>
				<port id="1" precision="FP16"/>
			</output>
		</layer>
		<layer id="420" name="28892893_const" type="Const" version="opset1">
			<data element_type="f16" offset="4491974" shape="" size="2"/>
			<output>
				<port id="1" precision="FP16"/>
			</output>
		</layer>
		<layer id="421" name="28902894_const" type="Const" version="opset1">
			<data element_type="f16" offset="4491976" shape="" size="2"/>
			<output>
				<port id="1" precision="FP16"/>
			</output>
		</layer>
		<layer id="422" name="551/fq_input_0" type="FakeQuantize" version="opset1">
			<data levels="256"/>
			<input>
				<port id="0">
					<dim>8</dim>
					<dim>16</dim>
					<dim>64</dim>
				</port>
				<port id="1"/>
				<port id="2"/>
				<port id="3"/>
				<port id="4"/>
			</input>
			<output>
				<port id="5" precision="FP16">
					<dim>8</dim>
					<dim>16</dim>
					<dim>64</dim>
				</port>
			</output>
		</layer>
		<layer id="423" name="551/Cast_19947_const483_const" type="Const" version="opset1">
			<data element_type="i64" offset="803178" shape="4" size="32"/>
			<output>
				<port id="1" precision="I64">
					<dim>4</dim>
				</port>
			</output>
		</layer>
		<layer id="424" name="551" type="Reshape" version="opset1">
			<data special_zero="True"/>
			<input>
				<port id="0">
					<dim>8</dim>
					<dim>16</dim>
					<dim>64</dim>
				</port>
				<port id="1">
					<dim>4</dim>
				</port>
			</input>
			<output>
				<port id="2" precision="FP16">
					<dim>8</dim>
					<dim>1</dim>
					<dim>16</dim>
					<dim>64</dim>
				</port>
			</output>
		</layer>
		<layer id="425" name="decoder_552/Cast_14609_const" type="Const" version="opset1">
			<data element_type="i64" offset="803210" shape="4" size="32"/>
			<output>
				<port id="1" precision="I64">
					<dim>4</dim>
				</port>
			</output>
		</layer>
		<layer id="426" name="552" type="Transpose" version="opset1">
			<input>
				<port id="0">
					<dim>8</dim>
					<dim>1</dim>
					<dim>16</dim>
					<dim>64</dim>
				</port>
				<port id="1">
					<dim>4</dim>
				</port>
			</input>
			<output>
				<port id="2" precision="FP16">
					<dim>1</dim>
					<dim>16</dim>
					<dim>8</dim>
					<dim>64</dim>
				</port>
			</output>
		</layer>
		<layer id="427" name="554/Cast_19959_const487_const" type="Const" version="opset1">
			<data element_type="i64" offset="803242" shape="3" size="24"/>
			<output>
				<port id="1" precision="I64">
					<dim>3</dim>
				</port>
			</output>
		</layer>
		<layer id="428" name="554" type="Reshape" version="opset1">
			<data special_zero="True"/>
			<input>
				<port id="0">
					<dim>1</dim>
					<dim>16</dim>
					<dim>8</dim>
					<dim>64</dim>
				</port>
				<port id="1">
					<dim>3</dim>
				</port>
			</input>
			<output>
				<port id="2" precision="FP16">
					<dim>1</dim>
					<dim>16</dim>
					<dim>512</dim>
				</port>
			</output>
		</layer>
		<layer id="429" name="557" type="Add" version="opset1">
			<input>
				<port id="0">
					<dim>1</dim>
					<dim>16</dim>
					<dim>512</dim>
				</port>
				<port id="1">
					<dim>1</dim>
					<dim>16</dim>
					<dim>512</dim>
				</port>
			</input>
			<output>
				<port id="2" precision="FP16">
					<dim>1</dim>
					<dim>16</dim>
					<dim>512</dim>
				</port>
			</output>
		</layer>
		<layer id="430" name="28972901_const" type="Const" version="opset1">
			<data element_type="f16" offset="4491978" shape="" size="2"/>
			<output>
				<port id="1" precision="FP16"/>
			</output>
		</layer>
		<layer id="431" name="28982902_const" type="Const" version="opset1">
			<data element_type="f16" offset="4491980" shape="" size="2"/>
			<output>
				<port id="1" precision="FP16"/>
			</output>
		</layer>
		<layer id="432" name="28992903_const" type="Const" version="opset1">
			<data element_type="f16" offset="4491978" shape="" size="2"/>
			<output>
				<port id="1" precision="FP16"/>
			</output>
		</layer>
		<layer id="433" name="29002904_const" type="Const" version="opset1">
			<data element_type="f16" offset="4491980" shape="" size="2"/>
			<output>
				<port id="1" precision="FP16"/>
			</output>
		</layer>
		<layer id="434" name="558/fq_input_0" type="FakeQuantize" version="opset1">
			<data levels="256"/>
			<input>
				<port id="0">
					<dim>1</dim>
					<dim>16</dim>
					<dim>512</dim>
				</port>
				<port id="1"/>
				<port id="2"/>
				<port id="3"/>
				<port id="4"/>
			</input>
			<output>
				<port id="5" precision="FP16">
					<dim>1</dim>
					<dim>16</dim>
					<dim>512</dim>
				</port>
			</output>
		</layer>
		<layer id="435" name="decoder_558/Cast_14625_const" type="Const" version="opset1">
			<data element_type="i64" offset="540840" shape="3" size="24"/>
			<output>
				<port id="1" precision="I64">
					<dim>3</dim>
				</port>
			</output>
		</layer>
		<layer id="436" name="558" type="Transpose" version="opset1">
			<input>
				<port id="0">
					<dim>1</dim>
					<dim>16</dim>
					<dim>512</dim>
				</port>
				<port id="1">
					<dim>3</dim>
				</port>
			</input>
			<output>
				<port id="2" precision="FP16">
					<dim>1</dim>
					<dim>512</dim>
					<dim>16</dim>
				</port>
			</output>
		</layer>
		<layer id="437" name="decoder_559/WithoutBiases/fq_weights_1/Convert_to_float/Cast_04611_const" type="Const" version="opset1">
			<data element_type="u8" offset="4491982" shape="1024,512,1" size="524288"/>
			<output>
				<port id="1" precision="U8">
					<dim>1024</dim>
					<dim>512</dim>
					<dim>1</dim>
				</port>
			</output>
		</layer>
		<layer id="438" name="559/WithoutBiases/fq_weights_1/Convert_to_float" type="Convert" version="opset1">
			<data destination_type="f16"/>
			<input>
				<port id="0">
					<dim>1024</dim>
					<dim>512</dim>
					<dim>1</dim>
				</port>
			</input>
			<output>
				<port id="1" precision="FP16">
					<dim>1024</dim>
					<dim>512</dim>
					<dim>1</dim>
				</port>
			</output>
		</layer>
		<layer id="439" name="decoder_559/WithoutBiases/fq_weights_1/Copy/out_low4163_const" type="Const" version="opset1">
			<data element_type="f16" offset="278596" shape="1" size="2"/>
			<output>
				<port id="1" precision="FP16">
					<dim>1</dim>
				</port>
			</output>
		</layer>
		<layer id="440" name="decoder_559/WithoutBiases/fq_weights_1/Copy/out_high4164_const" type="Const" version="opset1">
			<data element_type="f16" offset="278598" shape="1" size="2"/>
			<output>
				<port id="1" precision="FP16">
					<dim>1</dim>
				</port>
			</output>
		</layer>
		<layer id="441" name="15891593_const" type="Const" version="opset1">
			<data element_type="f16" offset="5016270" shape="1024,1,1" size="2048"/>
			<output>
				<port id="1" precision="FP16">
					<dim>1024</dim>
					<dim>1</dim>
					<dim>1</dim>
				</port>
			</output>
		</layer>
		<layer id="442" name="15901594_const" type="Const" version="opset1">
			<data element_type="f16" offset="5018318" shape="1024,1,1" size="2048"/>
			<output>
				<port id="1" precision="FP16">
					<dim>1024</dim>
					<dim>1</dim>
					<dim>1</dim>
				</port>
			</output>
		</layer>
		<layer id="443" name="559/WithoutBiases/fq_weights_1" type="FakeQuantize" version="opset1">
			<data levels="255"/>
			<input>
				<port id="0">
					<dim>1024</dim>
					<dim>512</dim>
					<dim>1</dim>
				</port>
				<port id="1">
					<dim>1</dim>
				</port>
				<port id="2">
					<dim>1</dim>
				</port>
				<port id="3">
					<dim>1024</dim>
					<dim>1</dim>
					<dim>1</dim>
				</port>
				<port id="4">
					<dim>1024</dim>
					<dim>1</dim>
					<dim>1</dim>
				</port>
			</input>
			<output>
				<port id="5" precision="FP16">
					<dim>1024</dim>
					<dim>512</dim>
					<dim>1</dim>
				</port>
			</output>
		</layer>
		<layer id="444" name="559/WithoutBiases" type="Convolution" version="opset1">
			<data dilations="1" output_padding="0" pads_begin="0" pads_end="0" strides="1"/>
			<input>
				<port id="0">
					<dim>1</dim>
					<dim>512</dim>
					<dim>16</dim>
				</port>
				<port id="1">
					<dim>1024</dim>
					<dim>512</dim>
					<dim>1</dim>
				</port>
			</input>
			<output>
				<port id="2" precision="FP16">
					<dim>1</dim>
					<dim>1024</dim>
					<dim>16</dim>
				</port>
			</output>
		</layer>
		<layer id="445" name="559/Dims3477/copy_const494_const" type="Const" version="opset1">
			<data element_type="f16" offset="5020366" shape="1,1024,1" size="2048"/>
			<output>
				<port id="1" precision="FP16">
					<dim>1</dim>
					<dim>1024</dim>
					<dim>1</dim>
				</port>
			</output>
		</layer>
		<layer id="446" name="559" type="Add" version="opset1">
			<input>
				<port id="0">
					<dim>1</dim>
					<dim>1024</dim>
					<dim>16</dim>
				</port>
				<port id="1">
					<dim>1</dim>
					<dim>1024</dim>
					<dim>1</dim>
				</port>
			</input>
			<output>
				<port id="2" precision="FP16">
					<dim>1</dim>
					<dim>1024</dim>
					<dim>16</dim>
				</port>
			</output>
		</layer>
		<layer id="447" name="560" type="ReLU" version="opset1">
			<input>
				<port id="0">
					<dim>1</dim>
					<dim>1024</dim>
					<dim>16</dim>
				</port>
			</input>
			<output>
				<port id="1" precision="FP16">
					<dim>1</dim>
					<dim>1024</dim>
					<dim>16</dim>
				</port>
			</output>
		</layer>
		<layer id="448" name="14571461_const" type="Const" version="opset1">
			<data element_type="f16" offset="278596" shape="" size="2"/>
			<output>
				<port id="1" precision="FP16"/>
			</output>
		</layer>
		<layer id="449" name="14581462_const" type="Const" version="opset1">
			<data element_type="f16" offset="5022414" shape="" size="2"/>
			<output>
				<port id="1" precision="FP16"/>
			</output>
		</layer>
		<layer id="450" name="14591463_const" type="Const" version="opset1">
			<data element_type="f16" offset="278596" shape="" size="2"/>
			<output>
				<port id="1" precision="FP16"/>
			</output>
		</layer>
		<layer id="451" name="14601464_const" type="Const" version="opset1">
			<data element_type="f16" offset="5022414" shape="" size="2"/>
			<output>
				<port id="1" precision="FP16"/>
			</output>
		</layer>
		<layer id="452" name="561/WithoutBiases/fq_input_0" type="FakeQuantize" version="opset1">
			<data levels="256"/>
			<input>
				<port id="0">
					<dim>1</dim>
					<dim>1024</dim>
					<dim>16</dim>
				</port>
				<port id="1"/>
				<port id="2"/>
				<port id="3"/>
				<port id="4"/>
			</input>
			<output>
				<port id="5" precision="FP16">
					<dim>1</dim>
					<dim>1024</dim>
					<dim>16</dim>
				</port>
			</output>
		</layer>
		<layer id="453" name="decoder_561/WithoutBiases/fq_weights_1/Convert_to_float/Cast_04667_const" type="Const" version="opset1">
			<data element_type="u8" offset="5022416" shape="512,1024,1" size="524288"/>
			<output>
				<port id="1" precision="U8">
					<dim>512</dim>
					<dim>1024</dim>
					<dim>1</dim>
				</port>
			</output>
		</layer>
		<layer id="454" name="561/WithoutBiases/fq_weights_1/Convert_to_float" type="Convert" version="opset1">
			<data destination_type="f16"/>
			<input>
				<port id="0">
					<dim>512</dim>
					<dim>1024</dim>
					<dim>1</dim>
				</port>
			</input>
			<output>
				<port id="1" precision="FP16">
					<dim>512</dim>
					<dim>1024</dim>
					<dim>1</dim>
				</port>
			</output>
		</layer>
		<layer id="455" name="decoder_561/WithoutBiases/fq_weights_1/Copy/out_low4131_const" type="Const" version="opset1">
			<data element_type="f16" offset="278596" shape="1" size="2"/>
			<output>
				<port id="1" precision="FP16">
					<dim>1</dim>
				</port>
			</output>
		</layer>
		<layer id="456" name="decoder_561/WithoutBiases/fq_weights_1/Copy/out_high4132_const" type="Const" version="opset1">
			<data element_type="f16" offset="278598" shape="1" size="2"/>
			<output>
				<port id="1" precision="FP16">
					<dim>1</dim>
				</port>
			</output>
		</layer>
		<layer id="457" name="14691473_const" type="Const" version="opset1">
			<data element_type="f16" offset="5546704" shape="512,1,1" size="1024"/>
			<output>
				<port id="1" precision="FP16">
					<dim>512</dim>
					<dim>1</dim>
					<dim>1</dim>
				</port>
			</output>
		</layer>
		<layer id="458" name="14701474_const" type="Const" version="opset1">
			<data element_type="f16" offset="5547728" shape="512,1,1" size="1024"/>
			<output>
				<port id="1" precision="FP16">
					<dim>512</dim>
					<dim>1</dim>
					<dim>1</dim>
				</port>
			</output>
		</layer>
		<layer id="459" name="561/WithoutBiases/fq_weights_1" type="FakeQuantize" version="opset1">
			<data levels="255"/>
			<input>
				<port id="0">
					<dim>512</dim>
					<dim>1024</dim>
					<dim>1</dim>
				</port>
				<port id="1">
					<dim>1</dim>
				</port>
				<port id="2">
					<dim>1</dim>
				</port>
				<port id="3">
					<dim>512</dim>
					<dim>1</dim>
					<dim>1</dim>
				</port>
				<port id="4">
					<dim>512</dim>
					<dim>1</dim>
					<dim>1</dim>
				</port>
			</input>
			<output>
				<port id="5" precision="FP16">
					<dim>512</dim>
					<dim>1024</dim>
					<dim>1</dim>
				</port>
			</output>
		</layer>
		<layer id="460" name="561/WithoutBiases" type="Convolution" version="opset1">
			<data dilations="1" output_padding="0" pads_begin="0" pads_end="0" strides="1"/>
			<input>
				<port id="0">
					<dim>1</dim>
					<dim>1024</dim>
					<dim>16</dim>
				</port>
				<port id="1">
					<dim>512</dim>
					<dim>1024</dim>
					<dim>1</dim>
				</port>
			</input>
			<output>
				<port id="2" precision="FP16">
					<dim>1</dim>
					<dim>512</dim>
					<dim>16</dim>
				</port>
			</output>
		</layer>
		<layer id="461" name="561/Dims3495/copy_const499_const" type="Const" version="opset1">
			<data element_type="f16" offset="5548752" shape="1,512,1" size="1024"/>
			<output>
				<port id="1" precision="FP16">
					<dim>1</dim>
					<dim>512</dim>
					<dim>1</dim>
				</port>
			</output>
		</layer>
		<layer id="462" name="561" type="Add" version="opset1">
			<input>
				<port id="0">
					<dim>1</dim>
					<dim>512</dim>
					<dim>16</dim>
				</port>
				<port id="1">
					<dim>1</dim>
					<dim>512</dim>
					<dim>1</dim>
				</port>
			</input>
			<output>
				<port id="2" precision="FP16">
					<dim>1</dim>
					<dim>512</dim>
					<dim>16</dim>
				</port>
			</output>
		</layer>
		<layer id="463" name="29072911_const" type="Const" version="opset1">
			<data element_type="f16" offset="5549776" shape="" size="2"/>
			<output>
				<port id="1" precision="FP16"/>
			</output>
		</layer>
		<layer id="464" name="29082912_const" type="Const" version="opset1">
			<data element_type="f16" offset="5549778" shape="" size="2"/>
			<output>
				<port id="1" precision="FP16"/>
			</output>
		</layer>
		<layer id="465" name="29092913_const" type="Const" version="opset1">
			<data element_type="f16" offset="5549776" shape="" size="2"/>
			<output>
				<port id="1" precision="FP16"/>
			</output>
		</layer>
		<layer id="466" name="29102914_const" type="Const" version="opset1">
			<data element_type="f16" offset="5549778" shape="" size="2"/>
			<output>
				<port id="1" precision="FP16"/>
			</output>
		</layer>
		<layer id="467" name="562/fq_input_0" type="FakeQuantize" version="opset1">
			<data levels="256"/>
			<input>
				<port id="0">
					<dim>1</dim>
					<dim>512</dim>
					<dim>16</dim>
				</port>
				<port id="1"/>
				<port id="2"/>
				<port id="3"/>
				<port id="4"/>
			</input>
			<output>
				<port id="5" precision="FP16">
					<dim>1</dim>
					<dim>512</dim>
					<dim>16</dim>
				</port>
			</output>
		</layer>
		<layer id="468" name="decoder_562/Cast_14593_const" type="Const" version="opset1">
			<data element_type="i64" offset="540840" shape="3" size="24"/>
			<output>
				<port id="1" precision="I64">
					<dim>3</dim>
				</port>
			</output>
		</layer>
		<layer id="469" name="562" type="Transpose" version="opset1">
			<input>
				<port id="0">
					<dim>1</dim>
					<dim>512</dim>
					<dim>16</dim>
				</port>
				<port id="1">
					<dim>3</dim>
				</port>
			</input>
			<output>
				<port id="2" precision="FP16">
					<dim>1</dim>
					<dim>16</dim>
					<dim>512</dim>
				</port>
			</output>
		</layer>
		<layer id="470" name="565" type="Add" version="opset1">
			<input>
				<port id="0">
					<dim>1</dim>
					<dim>16</dim>
					<dim>512</dim>
				</port>
				<port id="1">
					<dim>1</dim>
					<dim>16</dim>
					<dim>512</dim>
				</port>
			</input>
			<output>
				<port id="2" precision="FP16">
					<dim>1</dim>
					<dim>16</dim>
					<dim>512</dim>
				</port>
			</output>
		</layer>
		<layer id="471" name="29472951_const" type="Const" version="opset1">
			<data element_type="f16" offset="5549780" shape="" size="2"/>
			<output>
				<port id="1" precision="FP16"/>
			</output>
		</layer>
		<layer id="472" name="29482952_const" type="Const" version="opset1">
			<data element_type="f16" offset="5549782" shape="" size="2"/>
			<output>
				<port id="1" precision="FP16"/>
			</output>
		</layer>
		<layer id="473" name="29492953_const" type="Const" version="opset1">
			<data element_type="f16" offset="5549780" shape="" size="2"/>
			<output>
				<port id="1" precision="FP16"/>
			</output>
		</layer>
		<layer id="474" name="29502954_const" type="Const" version="opset1">
			<data element_type="f16" offset="5549782" shape="" size="2"/>
			<output>
				<port id="1" precision="FP16"/>
			</output>
		</layer>
		<layer id="475" name="579/3D_Tile_Unsqueeze/fq_input_0" type="FakeQuantize" version="opset1">
			<data levels="256"/>
			<input>
				<port id="0">
					<dim>1</dim>
					<dim>16</dim>
					<dim>512</dim>
				</port>
				<port id="1"/>
				<port id="2"/>
				<port id="3"/>
				<port id="4"/>
			</input>
			<output>
				<port id="5" precision="FP16">
					<dim>1</dim>
					<dim>16</dim>
					<dim>512</dim>
				</port>
			</output>
		</layer>
		<layer id="476" name="579/3D_Tile_Unsqueeze_dim6674_const504_const" type="Const" version="opset1">
			<data element_type="i64" offset="16388" shape="1" size="8"/>
			<output>
				<port id="1" precision="I64">
					<dim>1</dim>
				</port>
			</output>
		</layer>
		<layer id="477" name="579/3D_Tile_Unsqueeze" type="Unsqueeze" version="opset1">
			<input>
…
		<edge from-layer="18" from-port="1" to-layer="22" to-port="1"/>
		<edge from-layer="19" from-port="1" to-layer="22" to-port="2"/>
		<edge from-layer="20" from-port="1" to-layer="22" to-port="3"/>
		<edge from-layer="21" from-port="1" to-layer="22" to-port="4"/>
		<edge from-layer="15" from-port="2" to-layer="23" to-port="0"/>
		<edge from-layer="22" from-port="5" to-layer="23" to-port="1"/>
		<edge from-layer="23" from-port="2" to-layer="28" to-port="0"/>
		<edge from-layer="24" from-port="1" to-layer="28" to-port="1"/>
		<edge from-layer="25" from-port="1" to-layer="28" to-port="2"/>
		<edge from-layer="26" from-port="1" to-layer="28" to-port="3"/>
		<edge from-layer="27" from-port="1" to-layer="28" to-port="4"/>
		<edge from-layer="28" from-port="5" to-layer="30" to-port="0"/>
		<edge from-layer="29" from-port="1" to-layer="30" to-port="1"/>
		<edge from-layer="7" from-port="5" to-layer="32" to-port="0"/>
		<edge from-layer="31" from-port="1" to-layer="32" to-port="1"/>
		<edge from-layer="32" from-port="2" to-layer="34" to-port="0"/>
		<edge from-layer="33" from-port="1" to-layer="34" to-port="1"/>
		<edge from-layer="34" from-port="2" to-layer="36" to-port="0"/>
		<edge from-layer="35" from-port="1" to-layer="36" to-port="1"/>
		<edge from-layer="36" from-port="2" to-layer="38" to-port="0"/>
		<edge from-layer="37" from-port="1" to-layer="38" to-port="1"/>
		<edge from-layer="39" from-port="1" to-layer="40" to-port="0"/>
		<edge from-layer="40" from-port="1" to-layer="45" to-port="0"/>
		<edge from-layer="41" from-port="1" to-layer="45" to-port="1"/>
		<edge from-layer="42" from-port="1" to-layer="45" to-port="2"/>
		<edge from-layer="43" from-port="1" to-layer="45" to-port="3"/>
		<edge from-layer="44" from-port="1" to-layer="45" to-port="4"/>
		<edge from-layer="38" from-port="2" to-layer="46" to-port="0"/>
		<edge from-layer="45" from-port="5" to-layer="46" to-port="1"/>
		<edge from-layer="46" from-port="2" to-layer="51" to-port="0"/>
		<edge from-layer="47" from-port="1" to-layer="51" to-port="1"/>
		<edge from-layer="48" from-port="1" to-layer="51" to-port="2"/>
		<edge from-layer="49" from-port="1" to-layer="51" to-port="3"/>
		<edge from-layer="50" from-port="1" to-layer="51" to-port="4"/>
		<edge from-layer="51" from-port="5" to-layer="53" to-port="0"/>
		<edge from-layer="52" from-port="1" to-layer="53" to-port="1"/>
		<edge from-layer="53" from-port="2" to-layer="55" to-port="0"/>
		<edge from-layer="54" from-port="1" to-layer="55" to-port="1"/>
		<edge from-layer="56" from-port="1" to-layer="57" to-port="0"/>
		<edge from-layer="57" from-port="1" to-layer="62" to-port="0"/>
		<edge from-layer="58" from-port="1" to-layer="62" to-port="1"/>
		<edge from-layer="59" from-port="1" to-layer="62" to-port="2"/>
		<edge from-layer="60" from-port="1" to-layer="62" to-port="3"/>
		<edge from-layer="61" from-port="1" to-layer="62" to-port="4"/>
		<edge from-layer="55" from-port="2" to-layer="63" to-port="0"/>
		<edge from-layer="62" from-port="5" to-layer="63" to-port="1"/>
		<edge from-layer="63" from-port="2" to-layer="68" to-port="0"/>
		<edge from-layer="64" from-port="1" to-layer="68" to-port="1"/>
		<edge from-layer="65" from-port="1" to-layer="68" to-port="2"/>
		<edge from-layer="66" from-port="1" to-layer="68" to-port="3"/>
		<edge from-layer="67" from-port="1" to-layer="68" to-port="4"/>
		<edge from-layer="30" from-port="2" to-layer="69" to-port="0"/>
		<edge from-layer="68" from-port="5" to-layer="69" to-port="1"/>
		<edge from-layer="69" from-port="2" to-layer="71" to-port="0"/>
		<edge from-layer="70" from-port="1" to-layer="71" to-port="1"/>
		<edge from-layer="71" from-port="2" to-layer="73" to-port="0"/>
		<edge from-layer="72" from-port="1" to-layer="73" to-port="1"/>
		<edge from-layer="73" from-port="2" to-layer="74" to-port="0"/>
		<edge from-layer="74" from-port="1" to-layer="79" to-port="0"/>
		<edge from-layer="75" from-port="1" to-layer="79" to-port="1"/>
		<edge from-layer="76" from-port="1" to-layer="79" to-port="2"/>
		<edge from-layer="77" from-port="1" to-layer="79" to-port="3"/>
		<edge from-layer="78" from-port="1" to-layer="79" to-port="4"/>
		<edge from-layer="79" from-port="5" to-layer="81" to-port="0"/>
		<edge from-layer="80" from-port="1" to-layer="81" to-port="1"/>
		<edge from-layer="7" from-port="5" to-layer="83" to-port="0"/>
		<edge from-layer="82" from-port="1" to-layer="83" to-port="1"/>
		<edge from-layer="83" from-port="2" to-layer="85" to-port="0"/>
		<edge from-layer="84" from-port="1" to-layer="85" to-port="1"/>
		<edge from-layer="85" from-port="2" to-layer="87" to-port="0"/>
		<edge from-layer="86" from-port="1" to-layer="87" to-port="1"/>
		<edge from-layer="87" from-port="2" to-layer="89" to-port="0"/>
		<edge from-layer="88" from-port="1" to-layer="89" to-port="1"/>
		<edge from-layer="90" from-port="1" to-layer="91" to-port="0"/>
		<edge from-layer="91" from-port="1" to-layer="96" to-port="0"/>
		<edge from-layer="92" from-port="1" to-layer="96" to-port="1"/>
		<edge from-layer="93" from-port="1" to-layer="96" to-port="2"/>
		<edge from-layer="94" from-port="1" to-layer="96" to-port="3"/>
		<edge from-layer="95" from-port="1" to-layer="96" to-port="4"/>
		<edge from-layer="89" from-port="2" to-layer="97" to-port="0"/>
		<edge from-layer="96" from-port="5" to-layer="97" to-port="1"/>
		<edge from-layer="97" from-port="2" to-layer="102" to-port="0"/>
		<edge from-layer="98" from-port="1" to-layer="102" to-port="1"/>
		<edge from-layer="99" from-port="1" to-layer="102" to-port="2"/>
		<edge from-layer="100" from-port="1" to-layer="102" to-port="3"/>
		<edge from-layer="101" from-port="1" to-layer="102" to-port="4"/>
		<edge from-layer="102" from-port="5" to-layer="104" to-port="0"/>
		<edge from-layer="103" from-port="1" to-layer="104" to-port="1"/>
		<edge from-layer="81" from-port="2" to-layer="105" to-port="0"/>
		<edge from-layer="104" from-port="2" to-layer="105" to-port="1"/>
		<edge from-layer="105" from-port="2" to-layer="110" to-port="0"/>
		<edge from-layer="106" from-port="1" to-layer="110" to-port="1"/>
		<edge from-layer="107" from-port="1" to-layer="110" to-port="2"/>
		<edge from-layer="108" from-port="1" to-layer="110" to-port="3"/>
		<edge from-layer="109" from-port="1" to-layer="110" to-port="4"/>
		<edge from-layer="110" from-port="5" to-layer="112" to-port="0"/>
		<edge from-layer="111" from-port="1" to-layer="112" to-port="1"/>
		<edge from-layer="112" from-port="2" to-layer="114" to-port="0"/>
		<edge from-layer="113" from-port="1" to-layer="114" to-port="1"/>
		<edge from-layer="114" from-port="2" to-layer="116" to-port="0"/>
		<edge from-layer="115" from-port="1" to-layer="116" to-port="1"/>
		<edge from-layer="116" from-port="2" to-layer="117" to-port="0"/>
		<edge from-layer="7" from-port="5" to-layer="117" to-port="1"/>
		<edge from-layer="117" from-port="2" to-layer="122" to-port="0"/>
		<edge from-layer="118" from-port="1" to-layer="122" to-port="1"/>
		<edge from-layer="119" from-port="1" to-layer="122" to-port="2"/>
		<edge from-layer="120" from-port="1" to-layer="122" to-port="3"/>
		<edge from-layer="121" from-port="1" to-layer="122" to-port="4"/>
		<edge from-layer="122" from-port="5" to-layer="124" to-port="0"/>
		<edge from-layer="123" from-port="1" to-layer="124" to-port="1"/>
		<edge from-layer="125" from-port="1" to-layer="126" to-port="0"/>
		<edge from-layer="126" from-port="1" to-layer="131" to-port="0"/>
		<edge from-layer="127" from-port="1" to-layer="131" to-port="1"/>
		<edge from-layer="128" from-port="1" to-layer="131" to-port="2"/>
		<edge from-layer="129" from-port="1" to-layer="131" to-port="3"/>
		<edge from-layer="130" from-port="1" to-layer="131" to-port="4"/>
		<edge from-layer="124" from-port="2" to-layer="132" to-port="0"/>
		<edge from-layer="131" from-port="5" to-layer="132" to-port="1"/>
		<edge from-layer="132" from-port="2" to-layer="134" to-port="0"/>
		<edge from-layer="133" from-port="1" to-layer="134" to-port="1"/>
		<edge from-layer="134" from-port="2" to-layer="135" to-port="0"/>
		<edge from-layer="135" from-port="1" to-layer="140" to-port="0"/>
		<edge from-layer="136" from-port="1" to-layer="140" to-port="1"/>
		<edge from-layer="137" from-port="1" to-layer="140" to-port="2"/>
		<edge from-layer="138" from-port="1" to-layer="140" to-port="3"/>
		<edge from-layer="139" from-port="1" to-layer="140" to-port="4"/>
		<edge from-layer="141" from-port="1" to-layer="142" to-port="0"/>
		<edge from-layer="142" from-port="1" to-layer="147" to-port="0"/>
		<edge from-layer="143" from-port="1" to-layer="147" to-port="1"/>
		<edge from-layer="144" from-port="1" to-layer="147" to-port="2"/>
		<edge from-layer="145" from-port="1" to-layer="147" to-port="3"/>
		<edge from-layer="146" from-port="1" to-layer="147" to-port="4"/>
		<edge from-layer="140" from-port="5" to-layer="148" to-port="0"/>
		<edge from-layer="147" from-port="5" to-layer="148" to-port="1"/>
		<edge from-layer="148" from-port="2" to-layer="150" to-port="0"/>
		<edge from-layer="149" from-port="1" to-layer="150" to-port="1"/>
		<edge from-layer="150" from-port="2" to-layer="155" to-port="0"/>
		<edge from-layer="151" from-port="1" to-layer="155" to-port="1"/>
		<edge from-layer="152" from-port="1" to-layer="155" to-port="2"/>
		<edge from-layer="153" from-port="1" to-layer="155" to-port="3"/>
		<edge from-layer="154" from-port="1" to-layer="155" to-port="4"/>
		<edge from-layer="155" from-port="5" to-layer="157" to-port="0"/>
		<edge from-layer="156" from-port="1" to-layer="157" to-port="1"/>
		<edge from-layer="157" from-port="2" to-layer="158" to-port="0"/>
		<edge from-layer="122" from-port="5" to-layer="158" to-port="1"/>
		<edge from-layer="158" from-port="2" to-layer="163" to-port="0"/>
		<edge from-layer="159" from-port="1" to-layer="163" to-port="1"/>
		<edge from-layer="160" from-port="1" to-layer="163" to-port="2"/>
		<edge from-layer="161" from-port="1" to-layer="163" to-port="3"/>
		<edge from-layer="162" from-port="1" to-layer="163" to-port="4"/>
		<edge from-layer="163" from-port="5" to-layer="165" to-port="0"/>
		<edge from-layer="164" from-port="1" to-layer="165" to-port="1"/>
		<edge from-layer="165" from-port="2" to-layer="167" to-port="0"/>
		<edge from-layer="166" from-port="1" to-layer="167" to-port="1"/>
		<edge from-layer="167" from-port="2" to-layer="169" to-port="0"/>
		<edge from-layer="168" from-port="1" to-layer="169" to-port="1"/>
		<edge from-layer="169" from-port="2" to-layer="171" to-port="0"/>
		<edge from-layer="170" from-port="1" to-layer="171" to-port="1"/>
		<edge from-layer="172" from-port="1" to-layer="173" to-port="0"/>
		<edge from-layer="173" from-port="1" to-layer="178" to-port="0"/>
		<edge from-layer="174" from-port="1" to-layer="178" to-port="1"/>
		<edge from-layer="175" from-port="1" to-layer="178" to-port="2"/>
		<edge from-layer="176" from-port="1" to-layer="178" to-port="3"/>
		<edge from-layer="177" from-port="1" to-layer="178" to-port="4"/>
		<edge from-layer="171" from-port="2" to-layer="179" to-port="0"/>
		<edge from-layer="178" from-port="5" to-layer="179" to-port="1"/>
		<edge from-layer="179" from-port="2" to-layer="184" to-port="0"/>
		<edge from-layer="180" from-port="1" to-layer="184" to-port="1"/>
		<edge from-layer="181" from-port="1" to-layer="184" to-port="2"/>
		<edge from-layer="182" from-port="1" to-layer="184" to-port="3"/>
		<edge from-layer="183" from-port="1" to-layer="184" to-port="4"/>
		<edge from-layer="184" from-port="5" to-layer="186" to-port="0"/>
		<edge from-layer="185" from-port="1" to-layer="186" to-port="1"/>
		<edge from-layer="163" from-port="5" to-layer="188" to-port="0"/>
		<edge from-layer="187" from-port="1" to-layer="188" to-port="1"/>
		<edge from-layer="188" from-port="2" to-layer="190" to-port="0"/>
		<edge from-layer="189" from-port="1" to-layer="190" to-port="1"/>
		<edge from-layer="190" from-port="2" to-layer="192" to-port="0"/>
		<edge from-layer="191" from-port="1" to-layer="192" to-port="1"/>
		<edge from-layer="192" from-port="2" to-layer="194" to-port="0"/>
		<edge from-layer="193" from-port="1" to-layer="194" to-port="1"/>
		<edge from-layer="195" from-port="1" to-layer="196" to-port="0"/>
		<edge from-layer="196" from-port="1" to-layer="201" to-port="0"/>
		<edge from-layer="197" from-port="1" to-layer="201" to-port="1"/>
		<edge from-layer="198" from-port="1" to-layer="201" to-port="2"/>
		<edge from-layer="199" from-port="1" to-layer="201" to-port="3"/>
		<edge from-layer="200" from-port="1" to-layer="201" to-port="4"/>
		<edge from-layer="194" from-port="2" to-layer="202" to-port="0"/>
		<edge from-layer="201" from-port="5" to-layer="202" to-port="1"/>
		<edge from-layer="202" from-port="2" to-layer="207" to-port="0"/>
		<edge from-layer="203" from-port="1" to-layer="207" to-port="1"/>
		<edge from-layer="204" from-port="1" to-layer="207" to-port="2"/>
		<edge from-layer="205" from-port="1" to-layer="207" to-port="3"/>
		<edge from-layer="206" from-port="1" to-layer="207" to-port="4"/>
		<edge from-layer="207" from-port="5" to-layer="209" to-port="0"/>
		<edge from-layer="208" from-port="1" to-layer="209" to-port="1"/>
		<edge from-layer="209" from-port="2" to-layer="211" to-port="0"/>
		<edge from-layer="210" from-port="1" to-layer="211" to-port="1"/>
		<edge from-layer="212" from-port="1" to-layer="213" to-port="0"/>
		<edge from-layer="213" from-port="1" to-layer="218" to-port="0"/>
		<edge from-layer="214" from-port="1" to-layer="218" to-port="1"/>
		<edge from-layer="215" from-port="1" to-layer="218" to-port="2"/>
		<edge from-layer="216" from-port="1" to-layer="218" to-port="3"/>
		<edge from-layer="217" from-port="1" to-layer="218" to-port="4"/>
		<edge from-layer="211" from-port="2" to-layer="219" to-port="0"/>
		<edge from-layer="218" from-port="5" to-layer="219" to-port="1"/>
		<edge from-layer="219" from-port="2" to-layer="224" to-port="0"/>
		<edge from-layer="220" from-port="1" to-layer="224" to-port="1"/>
		<edge from-layer="221" from-port="1" to-layer="224" to-port="2"/>
		<edge from-layer="222" from-port="1" to-layer="224" to-port="3"/>
		<edge from-layer="223" from-port="1" to-layer="224" to-port="4"/>
		<edge from-layer="186" from-port="2" to-layer="225" to-port="0"/>
		<edge from-layer="224" from-port="5" to-layer="225" to-port="1"/>
		<edge from-layer="225" from-port="2" to-layer="227" to-port="0"/>
		<edge from-layer="226" from-port="1" to-layer="227" to-port="1"/>
		<edge from-layer="227" from-port="2" to-layer="229" to-port="0"/>
		<edge from-layer="228" from-port="1" to-layer="229" to-port="1"/>
		<edge from-layer="229" from-port="2" to-layer="230" to-port="0"/>
		<edge from-layer="230" from-port="1" to-layer="235" to-port="0"/>
		<edge from-layer="231" from-port="1" to-layer="235" to-port="1"/>
		<edge from-layer="232" from-port="1" to-layer="235" to-port="2"/>
		<edge from-layer="233" from-port="1" to-layer="235" to-port="3"/>
		<edge from-layer="234" from-port="1" to-layer="235" to-port="4"/>
		<edge from-layer="235" from-port="5" to-layer="237" to-port="0"/>
		<edge from-layer="236" from-port="1" to-layer="237" to-port="1"/>
		<edge from-layer="163" from-port="5" to-layer="239" to-port="0"/>
		<edge from-layer="238" from-port="1" to-layer="239" to-port="1"/>
		<edge from-layer="239" from-port="2" to-layer="241" to-port="0"/>
		<edge from-layer="240" from-port="1" to-layer="241" to-port="1"/>
		<edge from-layer="241" from-port="2" to-layer="243" to-port="0"/>
		<edge from-layer="242" from-port="1" to-layer="243" to-port="1"/>
		<edge from-layer="243" from-port="2" to-layer="245" to-port="0"/>
		<edge from-layer="244" from-port="1" to-layer="245" to-port="1"/>
		<edge from-layer="246" from-port="1" to-layer="247" to-port="0"/>
		<edge from-layer="247" from-port="1" to-layer="252" to-port="0"/>
		<edge from-layer="248" from-port="1" to-layer="252" to-port="1"/>
		<edge from-layer="249" from-port="1" to-layer="252" to-port="2"/>
		<edge from-layer="250" from-port="1" to-layer="252" to-port="3"/>
		<edge from-layer="251" from-port="1" to-layer="252" to-port="4"/>
		<edge from-layer="245" from-port="2" to-layer="253" to-port="0"/>
		<edge from-layer="252" from-port="5" to-layer="253" to-port="1"/>
		<edge from-layer="253" from-port="2" to-layer="258" to-port="0"/>
		<edge from-layer="254" from-port="1" to-layer="258" to-port="1"/>
		<edge from-layer="255" from-port="1" to-layer="258" to-port="2"/>
		<edge from-layer="256" from-port="1" to-layer="258" to-port="3"/>
		<edge from-layer="257" from-port="1" to-layer="258" to-port="4"/>
		<edge from-layer="258" from-port="5" to-layer="260" to-port="0"/>
		<edge from-layer="259" from-port="1" to-layer="260" to-port="1"/>
		<edge from-layer="237" from-port="2" to-layer="261" to-port="0"/>
		<edge from-layer="260" from-port="2" to-layer="261" to-port="1"/>
		<edge from-layer="261" from-port="2" to-layer="266" to-port="0"/>
		<edge from-layer="262" from-port="1" to-layer="266" to-port="1"/>
		<edge from-layer="263" from-port="1" to-layer="266" to-port="2"/>
		<edge from-layer="264" from-port="1" to-layer="266" to-port="3"/>
		<edge from-layer="265" from-port="1" to-layer="266" to-port="4"/>
		<edge from-layer="266" from-port="5" to-layer="268" to-port="0"/>
		<edge from-layer="267" from-port="1" to-layer="268" to-port="1"/>
		<edge from-layer="268" from-port="2" to-layer="270" to-port="0"/>
		<edge from-layer="269" from-port="1" to-layer="270" to-port="1"/>
		<edge from-layer="270" from-port="2" to-layer="272" to-port="0"/>
		<edge from-layer="271" from-port="1" to-layer="272" to-port="1"/>
		<edge from-layer="272" from-port="2" to-layer="273" to-port="0"/>
		<edge from-layer="163" from-port="5" to-layer="273" to-port="1"/>
		<edge from-layer="273" from-port="2" to-layer="278" to-port="0"/>
		<edge from-layer="274" from-port="1" to-layer="278" to-port="1"/>
		<edge from-layer="275" from-port="1" to-layer="278" to-port="2"/>
		<edge from-layer="276" from-port="1" to-layer="278" to-port="3"/>
		<edge from-layer="277" from-port="1" to-layer="278" to-port="4"/>
		<edge from-layer="278" from-port="5" to-layer="280" to-port="0"/>
		<edge from-layer="279" from-port="1" to-layer="280" to-port="1"/>
		<edge from-layer="281" from-port="1" to-layer="282" to-port="0"/>
		<edge from-layer="282" from-port="1" to-layer="287" to-port="0"/>
		<edge from-layer="283" from-port="1" to-layer="287" to-port="1"/>
		<edge from-layer="284" from-port="1" to-layer="287" to-port="2"/>
		<edge from-layer="285" from-port="1" to-layer="287" to-port="3"/>
		<edge from-layer="286" from-port="1" to-layer="287" to-port="4"/>
		<edge from-layer="280" from-port="2" to-layer="288" to-port="0"/>
		<edge from-layer="287" from-port="5" to-layer="288" to-port="1"/>
		<edge from-layer="288" from-port="2" to-layer="290" to-port="0"/>
		<edge from-layer="289" from-port="1" to-layer="290" to-port="1"/>
		<edge from-layer="290" from-port="2" to-layer="291" to-port="0"/>
		<edge from-layer="291" from-port="1" to-layer="296" to-port="0"/>
		<edge from-layer="292" from-port="1" to-layer="296" to-port="1"/>
		<edge from-layer="293" from-port="1" to-layer="296" to-port="2"/>
		<edge from-layer="294" from-port="1" to-layer="296" to-port="3"/>
		<edge from-layer="295" from-port="1" to-layer="296" to-port="4"/>
		<edge from-layer="297" from-port="1" to-layer="298" to-port="0"/>
		<edge from-layer="298" from-port="1" to-layer="303" to-port="0"/>
		<edge from-layer="299" from-port="1" to-layer="303" to-port="1"/>
		<edge from-layer="300" from-port="1" to-layer="303" to-port="2"/>
		<edge from-layer="301" from-port="1" to-layer="303" to-port="3"/>
		<edge from-layer="302" from-port="1" to-layer="303" to-port="4"/>
		<edge from-layer="296" from-port="5" to-layer="304" to-port="0"/>
		<edge from-layer="303" from-port="5" to-layer="304" to-port="1"/>
		<edge from-layer="304" from-port="2" to-layer="306" to-port="0"/>
		<edge from-layer="305" from-port="1" to-layer="306" to-port="1"/>
		<edge from-layer="306" from-port="2" to-layer="311" to-port="0"/>
		<edge from-layer="307" from-port="1" to-layer="311" to-port="1"/>
		<edge from-layer="308" from-port="1" to-layer="311" to-port="2"/>
		<edge from-layer="309" from-port="1" to-layer="311" to-port="3"/>
		<edge from-layer="310" from-port="1" to-layer="311" to-port="4"/>
		<edge from-layer="311" from-port="5" to-layer="313" to-port="0"/>
		<edge from-layer="312" from-port="1" to-layer="313" to-port="1"/>
		<edge from-layer="313" from-port="2" to-layer="314" to-port="0"/>
		<edge from-layer="278" from-port="5" to-layer="314" to-port="1"/>
		<edge from-layer="314" from-port="2" to-layer="319" to-port="0"/>
		<edge from-layer="315" from-port="1" to-layer="319" to-port="1"/>
		<edge from-layer="316" from-port="1" to-layer="319" to-port="2"/>
		<edge from-layer="317" from-port="1" to-layer="319" to-port="3"/>
		<edge from-layer="318" from-port="1" to-layer="319" to-port="4"/>
		<edge from-layer="319" from-port="5" to-layer="321" to-port="0"/>
		<edge from-layer="320" from-port="1" to-layer="321" to-port="1"/>
		<edge from-layer="321" from-port="2" to-layer="323" to-port="0"/>
		<edge from-layer="322" from-port="1" to-layer="323" to-port="1"/>
		<edge from-layer="323" from-port="2" to-layer="325" to-port="0"/>
		<edge from-layer="324" from-port="1" to-layer="325" to-port="1"/>
		<edge from-layer="325" from-port="2" to-layer="327" to-port="0"/>
		<edge from-layer="326" from-port="1" to-layer="327" to-port="1"/>
		<edge from-layer="328" from-port="1" to-layer="329" to-port="0"/>
		<edge from-layer="329" from-port="1" to-layer="334" to-port="0"/>
		<edge from-layer="330" from-port="1" to-layer="334" to-port="1"/>
		<edge from-layer="331" from-port="1" to-layer="334" to-port="2"/>
		<edge from-layer="332" from-port="1" to-layer="334" to-port="3"/>
		<edge from-layer="333" from-port="1" to-layer="334" to-port="4"/>
		<edge from-layer="327" from-port="2" to-layer="335" to-port="0"/>
		<edge from-layer="334" from-port="5" to-layer="335" to-port="1"/>
		<edge from-layer="335" from-port="2" to-layer="340" to-port="0"/>
		<edge from-layer="336" from-port="1" to-layer="340" to-port="1"/>
		<edge from-layer="337" from-port="1" to-layer="340" to-port="2"/>
		<edge from-layer="338" from-port="1" to-layer="340" to-port="3"/>
		<edge from-layer="339" from-port="1" to-layer="340" to-port="4"/>
		<edge from-layer="340" from-port="5" to-layer="342" to-port="0"/>
		<edge from-layer="341" from-port="1" to-layer="342" to-port="1"/>
		<edge from-layer="319" from-port="5" to-layer="344" to-port="0"/>
		<edge from-layer="343" from-port="1" to-layer="344" to-port="1"/>
		<edge from-layer="344" from-port="2" to-layer="346" to-port="0"/>
		<edge from-layer="345" from-port="1" to-layer="346" to-port="1"/>
		<edge from-layer="346" from-port="2" to-layer="348" to-port="0"/>
		<edge from-layer="347" from-port="1" to-layer="348" to-port="1"/>
		<edge from-layer="348" from-port="2" to-layer="350" to-port="0"/>
		<edge from-layer="349" from-port="1" to-layer="350" to-port="1"/>
		<edge from-layer="351" from-port="1" to-layer="352" to-port="0"/>
		<edge from-layer="352" from-port="1" to-layer="357" to-port="0"/>
		<edge from-layer="353" from-port="1" to-layer="357" to-port="1"/>
		<edge from-layer="354" from-port="1" to-layer="357" to-port="2"/>
		<edge from-layer="355" from-port="1" to-layer="357" to-port="3"/>
		<edge from-layer="356" from-port="1" to-layer="357" to-port="4"/>
		<edge from-layer="350" from-port="2" to-layer="358" to-port="0"/>
		<edge from-layer="357" from-port="5" to-layer="358" to-port="1"/>
		<edge from-layer="358" from-port="2" to-layer="363" to-port="0"/>
		<edge from-layer="359" from-port="1" to-layer="363" to-port="1"/>
		<edge from-layer="360" from-port="1" to-layer="363" to-port="2"/>
		<edge from-layer="361" from-port="1" to-layer="363" to-port="3"/>
		<edge from-layer="362" from-port="1" to-layer="363" to-port="4"/>
		<edge from-layer="363" from-port="5" to-layer="365" to-port="0"/>
		<edge from-layer="364" from-port="1" to-layer="365" to-port="1"/>
		<edge from-layer="365" from-port="2" to-layer="367" to-port="0"/>
		<edge from-layer="366" from-port="1" to-layer="367" to-port="1"/>
		<edge from-layer="368" from-port="1" to-layer="369" to-port="0"/>
		<edge from-layer="369" from-port="1" to-layer="374" to-port="0"/>
		<edge from-layer="370" from-port="1" to-layer="374" to-port="1"/>
		<edge from-layer="371" from-port="1" to-layer="374" to-port="2"/>
		<edge from-layer="372" from-port="1" to-layer="374" to-port="3"/>
		<edge from-layer="373" from-port="1" to-layer="374" to-port="4"/>
		<edge from-layer="367" from-port="2" to-layer="375" to-port="0"/>
		<edge from-layer="374" from-port="5" to-layer="375" to-port="1"/>
		<edge from-layer="375" from-port="2" to-layer="380" to-port="0"/>
		<edge from-layer="376" from-port="1" to-layer="380" to-port="1"/>
		<edge from-layer="377" from-port="1" to-layer="380" to-port="2"/>
		<edge from-layer="378" from-port="1" to-layer="380" to-port="3"/>
		<edge from-layer="379" from-port="1" to-layer="380" to-port="4"/>
		<edge from-layer="342" from-port="2" to-layer="381" to-port="0"/>
		<edge from-layer="380" from-port="5" to-layer="381" to-port="1"/>
		<edge from-layer="381" from-port="2" to-layer="383" to-port="0"/>
		<edge from-layer="382" from-port="1" to-layer="383" to-port="1"/>
		<edge from-layer="383" from-port="2" to-layer="385" to-port="0"/>
		<edge from-layer="384" from-port="1" to-layer="385" to-port="1"/>
		<edge from-layer="385" from-port="2" to-layer="386" to-port="0"/>
		<edge from-layer="386" from-port="1" to-layer="391" to-port="0"/>
		<edge from-layer="387" from-port="1" to-layer="391" to-port="1"/>
		<edge from-layer="388" from-port="1" to-layer="391" to-port="2"/>
		<edge from-layer="389" from-port="1" to-layer="391" to-port="3"/>
		<edge from-layer="390" from-port="1" to-layer="391" to-port="4"/>
		<edge from-layer="391" from-port="5" to-layer="393" to-port="0"/>
		<edge from-layer="392" from-port="1" to-layer="393" to-port="1"/>
		<edge from-layer="319" from-port="5" to-layer="395" to-port="0"/>
		<edge from-layer="394" from-port="1" to-layer="395" to-port="1"/>
		<edge from-layer="395" from-port="2" to-layer="397" to-port="0"/>
		<edge from-layer="396" from-port="1" to-layer="397" to-port="1"/>
		<edge from-layer="397" from-port="2" to-layer="399" to-port="0"/>
		<edge from-layer="398" from-port="1" to-layer="399" to-port="1"/>
		<edge from-layer="399" from-port="2" to-layer="401" to-port="0"/>
		<edge from-layer="400" from-port="1" to-layer="401" to-port="1"/>
		<edge from-layer="402" from-port="1" to-layer="403" to-port="0"/>
		<edge from-layer="403" from-port="1" to-layer="408" to-port="0"/>
		<edge from-layer="404" from-port="1" to-layer="408" to-port="1"/>
		<edge from-layer="405" from-port="1" to-layer="408" to-port="2"/>
		<edge from-layer="406" from-port="1" to-layer="408" to-port="3"/>
		<edge from-layer="407" from-port="1" to-layer="408" to-port="4"/>
		<edge from-layer="401" from-port="2" to-layer="409" to-port="0"/>
		<edge from-layer="408" from-port="5" to-layer="409" to-port="1"/>
		<edge from-layer="409" from-port="2" to-layer="414" to-port="0"/>
		<edge from-layer="410" from-port="1" to-layer="414" to-port="1"/>
		<edge from-layer="411" from-port="1" to-layer="414" to-port="2"/>
		<edge from-layer="412" from-port="1" to-layer="414" to-port="3"/>
		<edge from-layer="413" from-port="1" to-layer="414" to-port="4"/>
		<edge from-layer="414" from-port="5" to-layer="416" to-port="0"/>
		<edge from-layer="415" from-port="1" to-layer="416" to-port="1"/>
		<edge from-layer="393" from-port="2" to-layer="417" to-port="0"/>
		<edge from-layer="416" from-port="2" to-layer="417" to-port="1"/>
		<edge from-layer="417" from-port="2" to-layer="422" to-port="0"/>
		<edge from-layer="418" from-port="1" to-layer="422" to-port="1"/>
		<edge from-layer="419" from-port="1" to-layer="422" to-port="2"/>
		<edge from-layer="420" from-port="1" to-layer="422" to-port="3"/>
		<edge from-layer="421" from-port="1" to-layer="422" to-port="4"/>
		<edge from-layer="422" from-port="5" to-layer="424" to-port="0"/>
		<edge from-layer="423" from-port="1" to-layer="424" to-port="1"/>
		<edge from-layer="424" from-port="2" to-layer="426" to-port="0"/>
		<edge from-layer="425" from-port="1" to-layer="426" to-port="1"/>
		<edge from-layer="426" from-port="2" to-layer="428" to-port="0"/>
		<edge from-layer="427" from-port="1" to-layer="428" to-port="1"/>
		<edge from-layer="428" from-port="2" to-layer="429" to-port="0"/>
		<edge from-layer="319" from-port="5" to-layer="429" to-port="1"/>
		<edge from-layer="429" from-port="2" to-layer="434" to-port="0"/>
		<edge from-layer="430" from-port="1" to-layer="434" to-port="1"/>
		<edge from-layer="431" from-port="1" to-layer="434" to-port="2"/>
		<edge from-layer="432" from-port="1" to-layer="434" to-port="3"/>
		<edge from-layer="433" from-port="1" to-layer="434" to-port="4"/>
		<edge from-layer="434" from-port="5" to-layer="436" to-port="0"/>
		<edge from-layer="435" from-port="1" to-layer="436" to-port="1"/>
		<edge from-layer="437" from-port="1" to-layer="438" to-port="0"/>
		<edge from-layer="438" from-port="1" to-layer="443" to-port="0"/>
		<edge from-layer="439" from-port="1" to-layer="443" to-port="1"/>
		<edge from-layer="440" from-port="1" to-layer="443" to-port="2"/>
		<edge from-layer="441" from-port="1" to-layer="443" to-port="3"/>
		<edge from-layer="442" from-port="1" to-layer="443" to-port="4"/>
		<edge from-layer="436" from-port="2" to-layer="444" to-port="0"/>
		<edge from-layer="443" from-port="5" to-layer="444" to-port="1"/>
		<edge from-layer="444" from-port="2" to-layer="446" to-port="0"/>
		<edge from-layer="445" from-port="1" to-layer="446" to-port="1"/>
		<edge from-layer="446" from-port="2" to-layer="447" to-port="0"/>
		<edge from-layer="447" from-port="1" to-layer="452" to-port="0"/>
		<edge from-layer="448" from-port="1" to-layer="452" to-port="1"/>
		<edge from-layer="449" from-port="1" to-layer="452" to-port="2"/>
		<edge from-layer="450" from-port="1" to-layer="452" to-port="3"/>
		<edge from-layer="451" from-port="1" to-layer="452" to-port="4"/>
		<edge from-layer="453" from-port="1" to-layer="454" to-port="0"/>
		<edge from-layer="454" from-port="1" to-layer="459" to-port="0"/>
		<edge from-layer="455" from-port="1" to-layer="459" to-port="1"/>
		<edge from-layer="456" from-port="1" to-layer="459" to-port="2"/>
		<edge from-layer="457" from-port="1" to-layer="459" to-port="3"/>
		<edge from-layer="458" from-port="1" to-layer="459" to-port="4"/>
		<edge from-layer="452" from-port="5" to-layer="460" to-port="0"/>
		<edge from-layer="459" from-port="5" to-layer="460" to-port="1"/>
		<edge from-layer="460" from-port="2" to-layer="462" to-port="0"/>
		<edge from-layer="461" from-port="1" to-layer="462" to-port="1"/>
		<edge from-layer="462" from-port="2" to-layer="467" to-port="0"/>
		<edge from-layer="463" from-port="1" to-layer="467" to-port="1"/>
		<edge from-layer="464" from-port="1" to-layer="467" to-port="2"/>
		<edge from-layer="465" from-port="1" to-layer="467" to-port="3"/>
		<edge from-layer="466" from-port="1" to-layer="467" to-port="4"/>
		<edge from-layer="467" from-port="5" to-layer="469" to-port="0"/>
		<edge from-layer="468" from-port="1" to-layer="469" to-port="1"/>
		<edge from-layer="469" from-port="2" to-layer="470" to-port="0"/>
		<edge from-layer="434" from-port="5" to-layer="470" to-port="1"/>
		<edge from-layer="470" from-port="2" to-layer="475" to-port="0"/>
		<edge from-layer="471" from-port="1" to-layer="475" to-port="1"/>
		<edge from-layer="472" from-port="1" to-layer="475" to-port="2"/>
		<edge from-layer="473" from-port="1" to-layer="475" to-port="3"/>
		<edge from-layer="474" from-port="1" to-layer="475" to-port="4"/>
		<edge from-layer="475" from-port="5" to-layer="477" to-port="0"/>
		<edge from-layer="476" from-port="1" to-layer="477" to-port="1"/>
		<edge from-layer="477" from-port="2" to-layer="479" to-port="0"/>
		<edge from-layer="478" from-port="1" to-layer="479" to-port="1"/>
		<edge from-layer="479" from-port="2" to-layer="481" to-port="0"/>
		<edge from-layer="480" from-port="1" to-layer="481" to-port="1"/>
		<edge from-layer="481" from-port="2" to-layer="483" to-port="0"/>
		<edge from-layer="482" from-port="1" to-layer="483" to-port="1"/>
		<edge from-layer="484" from-port="1" to-layer="485" to-port="0"/>
		<edge from-layer="485" from-port="1" to-layer="490" to-port="0"/>
		<edge from-layer="486" from-port="1" to-layer="490" to-port="1"/>
		<edge from-layer="487" from-port="1" to-layer="490" to-port="2"/>
		<edge from-layer="488" from-port="1" to-layer="490" to-port="3"/>
		<edge from-layer="489" from-port="1" to-layer="490" to-port="4"/>
		<edge from-layer="483" from-port="2" to-layer="491" to-port="0"/>
		<edge from-layer="490" from-port="5" to-layer="491" to-port="1"/>
		<edge from-layer="491" from-port="2" to-layer="496" to-port="0"/>
		<edge from-layer="492" from-port="1" to-layer="496" to-port="1"/>
		<edge from-layer="493" from-port="1" to-layer="496" to-port="2"/>
		<edge from-layer="494" from-port="1" to-layer="496" to-port="3"/>
		<edge from-layer="495" from-port="1" to-layer="496" to-port="4"/>
		<edge from-layer="496" from-port="5" to-layer="498" to-port="0"/>
		<edge from-layer="497" from-port="1" to-layer="498" to-port="1"/>
		<edge from-layer="475" from-port="5" to-layer="500" to-port="0"/>
		<edge from-layer="499" from-port="1" to-layer="500" to-port="1"/>
		<edge from-layer="500" from-port="2" to-layer="502" to-port="0"/>
		<edge from-layer="501" from-port="1" to-layer="502" to-port="1"/>
		<edge from-layer="502" from-port="2" to-layer="504" to-port="0"/>
		<edge from-layer="503" from-port="1" to-layer="504" to-port="1"/>
		<edge from-layer="504" from-port="2" to-layer="506" to-port="0"/>
		<edge from-layer="505" from-port="1" to-layer="506" to-port="1"/>
		<edge from-layer="507" from-port="1" to-layer="508" to-port="0"/>
		<edge from-layer="508" from-port="1" to-layer="513" to-port="0"/>
		<edge from-layer="509" from-port="1" to-layer="513" to-port="1"/>
		<edge from-layer="510" from-port="1" to-layer="513" to-port="2"/>
		<edge from-layer="511" from-port="1" to-layer="513" to-port="3"/>
		<edge from-layer="512" from-port="1" to-layer="513" to-port="4"/>
		<edge from-layer="506" from-port="2" to-layer="514" to-port="0"/>
		<edge from-layer="513" from-port="5" to-layer="514" to-port="1"/>
		<edge from-layer="514" from-port="2" to-layer="519" to-port="0"/>
		<edge from-layer="515" from-port="1" to-layer="519" to-port="1"/>
		<edge from-layer="516" from-port="1" to-layer="519" to-port="2"/>
		<edge from-layer="517" from-port="1" to-layer="519" to-port="3"/>
		<edge from-layer="518" from-port="1" to-layer="519" to-port="4"/>
		<edge from-layer="519" from-port="5" to-layer="521" to-port="0"/>
		<edge from-layer="520" from-port="1" to-layer="521" to-port="1"/>
		<edge from-layer="521" from-port="2" to-layer="523" to-port="0"/>
		<edge from-layer="522" from-port="1" to-layer="523" to-port="1"/>
		<edge from-layer="524" from-port="1" to-layer="525" to-port="0"/>
		<edge from-layer="525" from-port="1" to-layer="530" to-port="0"/>
		<edge from-layer="526" from-port="1" to-layer="530" to-port="1"/>
		<edge from-layer="527" from-port="1" to-layer="530" to-port="2"/>
		<edge from-layer="528" from-port="1" to-layer="530" to-port="3"/>
		<edge from-layer="529" from-port="1" to-layer="530" to-port="4"/>
		<edge from-layer="523" from-port="2" to-layer="531" to-port="0"/>
		<edge from-layer="530" from-port="5" to-layer="531" to-port="1"/>
		<edge from-layer="531" from-port="2" to-layer="536" to-port="0"/>
		<edge from-layer="532" from-port="1" to-layer="536" to-port="1"/>
		<edge from-layer="533" from-port="1" to-layer="536" to-port="2"/>
		<edge from-layer="534" from-port="1" to-layer="536" to-port="3"/>
		<edge from-layer="535" from-port="1" to-layer="536" to-port="4"/>
		<edge from-layer="498" from-port="2" to-layer="537" to-port="0"/>
		<edge from-layer="536" from-port="5" to-layer="537" to-port="1"/>
		<edge from-layer="537" from-port="2" to-layer="539" to-port="0"/>
		<edge from-layer="538" from-port="1" to-layer="539" to-port="1"/>
		<edge from-layer="539" from-port="2" to-layer="541" to-port="0"/>
		<edge from-layer="540" from-port="1" to-layer="541" to-port="1"/>
		<edge from-layer="541" from-port="2" to-layer="542" to-port="0"/>
		<edge from-layer="542" from-port="1" to-layer="547" to-port="0"/>
		<edge from-layer="543" from-port="1" to-layer="547" to-port="1"/>
		<edge from-layer="544" from-port="1" to-layer="547" to-port="2"/>
		<edge from-layer="545" from-port="1" to-layer="547" to-port="3"/>
		<edge from-layer="546" from-port="1" to-layer="547" to-port="4"/>
		<edge from-layer="547" from-port="5" to-layer="549" to-port="0"/>
		<edge from-layer="548" from-port="1" to-layer="549" to-port="1"/>
		<edge from-layer="475" from-port="5" to-layer="551" to-port="0"/>
		<edge from-layer="550" from-port="1" to-layer="551" to-port="1"/>
		<edge from-layer="551" from-port="2" to-layer="553" to-port="0"/>
		<edge from-layer="552" from-port="1" to-layer="553" to-port="1"/>
		<edge from-layer="553" from-port="2" to-layer="555" to-port="0"/>
		<edge from-layer="554" from-port="1" to-layer="555" to-port="1"/>
		<edge from-layer="555" from-port="2" to-layer="557" to-port="0"/>
		<edge from-layer="556" from-port="1" to-layer="557" to-port="1"/>
		<edge from-layer="558" from-port="1" to-layer="559" to-port="0"/>
		<edge from-layer="559" from-port="1" to-layer="564" to-port="0"/>
		<edge from-layer="560" from-port="1" to-layer="564" to-port="1"/>
		<edge from-layer="561" from-port="1" to-layer="564" to-port="2"/>
		<edge from-layer="562" from-port="1" to-layer="564" to-port="3"/>
		<edge from-layer="563" from-port="1" to-layer="564" to-port="4"/>
		<edge from-layer="557" from-port="2" to-layer="565" to-port="0"/>
		<edge from-layer="564" from-port="5" to-layer="565" to-port="1"/>
		<edge from-layer="565" from-port="2" to-layer="570" to-port="0"/>
		<edge from-layer="566" from-port="1" to-layer="570" to-port="1"/>
		<edge from-layer="567" from-port="1" to-layer="570" to-port="2"/>
		<edge from-layer="568" from-port="1" to-layer="570" to-port="3"/>
		<edge from-layer="569" from-port="1" to-layer="570" to-port="4"/>
		<edge from-layer="570" from-port="5" to-layer="572" to-port="0"/>
		<edge from-layer="571" from-port="1" to-layer="572" to-port="1"/>
		<edge from-layer="549" from-port="2" to-layer="573" to-port="0"/>
		<edge from-layer="572" from-port="2" to-layer="573" to-port="1"/>
		<edge from-layer="573" from-port="2" to-layer="578" to-port="0"/>
		<edge from-layer="574" from-port="1" to-layer="578" to-port="1"/>
		<edge from-layer="575" from-port="1" to-layer="578" to-port="2"/>
		<edge from-layer="576" from-port="1" to-layer="578" to-port="3"/>
		<edge from-layer="577" from-port="1" to-layer="578" to-port="4"/>
		<edge from-layer="578" from-port="5" to-layer="580" to-port="0"/>
		<edge from-layer="579" from-port="1" to-layer="580" to-port="1"/>
		<edge from-layer="580" from-port="2" to-layer="582" to-port="0"/>
		<edge from-layer="581" from-port="1" to-layer="582" to-port="1"/>
		<edge from-layer="582" from-port="2" to-layer="584" to-port="0"/>
		<edge from-layer="583" from-port="1" to-layer="584" to-port="1"/>
		<edge from-layer="584" from-port="2" to-layer="585" to-port="0"/>
		<edge from-layer="475" from-port="5" to-layer="585" to-port="1"/>
		<edge from-layer="585" from-port="2" to-layer="590" to-port="0"/>
		<edge from-layer="586" from-port="1" to-layer="590" to-port="1"/>
		<edge from-layer="587" from-port="1" to-layer="590" to-port="2"/>
		<edge from-layer="588" from-port="1" to-layer="590" to-port="3"/>
		<edge from-layer="589" from-port="1" to-layer="590" to-port="4"/>
		<edge from-layer="590" from-port="5" to-layer="592" to-port="0"/>
		<edge from-layer="591" from-port="1" to-layer="592" to-port="1"/>
		<edge from-layer="593" from-port="1" to-layer="594" to-port="0"/>
		<edge from-layer="594" from-port="1" to-layer="599" to-port="0"/>
		<edge from-layer="595" from-port="1" to-layer="599" to-port="1"/>
		<edge from-layer="596" from-port="1" to-layer="599" to-port="2"/>
		<edge from-layer="597" from-port="1" to-layer="599" to-port="3"/>
		<edge from-layer="598" from-port="1" to-layer="599" to-port="4"/>
		<edge from-layer="592" from-port="2" to-layer="600" to-port="0"/>
		<edge from-layer="599" from-port="5" to-layer="600" to-port="1"/>
		<edge from-layer="600" from-port="2" to-layer="602" to-port="0"/>
		<edge from-layer="601" from-port="1" to-layer="602" to-port="1"/>
		<edge from-layer="602" from-port="2" to-layer="603" to-port="0"/>
		<edge from-layer="603" from-port="1" to-layer="608" to-port="0"/>
		<edge from-layer="604" from-port="1" to-layer="608" to-port="1"/>
		<edge from-layer="605" from-port="1" to-layer="608" to-port="2"/>
		<edge from-layer="606" from-port="1" to-layer="608" to-port="3"/>
		<edge from-layer="607" from-port="1" to-layer="608" to-port="4"/>
		<edge from-layer="609" from-port="1" to-layer="610" to-port="0"/>
		<edge from-layer="610" from-port="1" to-layer="615" to-port="0"/>
		<edge from-layer="611" from-port="1" to-layer="615" to-port="1"/>
		<edge from-layer="612" from-port="1" to-layer="615" to-port="2"/>
		<edge from-layer="613" from-port="1" to-layer="615" to-port="3"/>
		<edge from-layer="614" from-port="1" to-layer="615" to-port="4"/>
		<edge from-layer="608" from-port="5" to-layer="616" to-port="0"/>
		<edge from-layer="615" from-port="5" to-layer="616" to-port="1"/>
		<edge from-layer="616" from-port="2" to-layer="618" to-port="0"/>
		<edge from-layer="617" from-port="1" to-layer="618" to-port="1"/>
		<edge from-layer="618" from-port="2" to-layer="623" to-port="0"/>
		<edge from-layer="619" from-port="1" to-layer="623" to-port="1"/>
		<edge from-layer="620" from-port="1" to-layer="623" to-port="2"/>
		<edge from-layer="621" from-port="1" to-layer="623" to-port="3"/>
		<edge from-layer="622" from-port="1" to-layer="623" to-port="4"/>
		<edge from-layer="623" from-port="5" to-layer="625" to-port="0"/>
		<edge from-layer="624" from-port="1" to-layer="625" to-port="1"/>
		<edge from-layer="625" from-port="2" to-layer="626" to-port="0"/>
		<edge from-layer="590" from-port="5" to-layer="626" to-port="1"/>
		<edge from-layer="626" from-port="2" to-layer="631" to-port="0"/>
		<edge from-layer="627" from-port="1" to-layer="631" to-port="1"/>
		<edge from-layer="628" from-port="1" to-layer="631" to-port="2"/>
		<edge from-layer="629" from-port="1" to-layer="631" to-port="3"/>
		<edge from-layer="630" from-port="1" to-layer="631" to-port="4"/>
		<edge from-layer="632" from-port="1" to-layer="633" to-port="0"/>
		<edge from-layer="633" from-port="1" to-layer="638" to-port="0"/>
		<edge from-layer="634" from-port="1" to-layer="638" to-port="1"/>
		<edge from-layer="635" from-port="1" to-layer="638" to-port="2"/>
		<edge from-layer="636" from-port="1" to-layer="638" to-port="3"/>
		<edge from-layer="637" from-port="1" to-layer="638" to-port="4"/>
		<edge from-layer="631" from-port="5" to-layer="639" to-port="0"/>
		<edge from-layer="638" from-port="5" to-layer="639" to-port="1"/>
		<edge from-layer="639" from-port="2" to-layer="641" to-port="0"/>
		<edge from-layer="640" from-port="1" to-layer="641" to-port="1"/>
		<edge from-layer="641" from-port="2" to-layer="643" to-port="0"/>
		<edge from-layer="642" from-port="1" to-layer="643" to-port="1"/>
		<edge from-layer="643" from-port="2" to-layer="644" to-port="0"/>
	</edges>
	<meta_data>
		<MO_version value="unknown version"/>
		<cli_parameters>
			<blobs_as_inputs value="True"/>
			<caffe_parser_path value="DIR"/>
			<data_type value="FP16"/>
			<disable_nhwc_to_nchw value="False"/>
			<disable_omitting_optional value="False"/>
			<disable_resnet_optimization value="False"/>
			<disable_weights_compression value="False"/>
			<enable_concat_optimization value="False"/>
			<enable_flattening_nested_params value="False"/>
			<enable_ssd_gluoncv value="False"/>
			<extensions value="DIR"/>
			<framework value="onnx"/>
			<freeze_placeholder_with_value value="{}"/>
			<generate_deprecated_IR_V2 value="False"/>
			<generate_deprecated_IR_V7 value="False"/>
			<generate_experimental_IR_V10 value="True"/>
			<input value="0"/>
			<input_model value="DIR/action_recognition_0001_decoder.onnx"/>
			<input_model_is_text value="False"/>
			<input_shape value="[1,16,512]"/>
			<k value="DIR/CustomLayersMapping.xml"/>
			<keep_quantize_ops_in_IR value="True"/>
			<keep_shape_ops value="False"/>
			<legacy_mxnet_model value="False"/>
			<log_level value="ERROR"/>
			<mean_scale_values value="{}"/>
			<mean_values value="()"/>
			<model_name value="action-recognition-0001-decoder"/>
			<move_to_preprocess value="False"/>
			<output value="['674']"/>
			<output_dir value="DIR"/>
			<placeholder_data_types value="{}"/>
			<placeholder_shapes value="{'0': array([  1,  16, 512])}"/>
			<progress value="False"/>
			<remove_memory value="False"/>
			<remove_output_softmax value="False"/>
			<reverse_input_channels value="False"/>
			<save_params_from_nd value="False"/>
			<scale_values value="()"/>
			<silent value="False"/>
			<stream_output value="False"/>
			<unset unset_cli_parameters="batch, counts, disable_fusing, disable_gfusing, finegrain_fusing, input_checkpoint, input_meta_graph, input_proto, input_symbol, mean_file, mean_file_offsets, nd_prefix_name, pretrained_model_name, saved_model_dir, saved_model_tags, scale, tensorboard_logdir, tensorflow_custom_layer_libraries, tensorflow_custom_operations_config_update, tensorflow_object_detection_api_pipeline_config, tensorflow_use_custom_operations_config, transformations_config"/>
		</cli_parameters>
	</meta_data>
	<quantization_parameters>
		<config>{
		'compression': {
			'algorithms': [
				{
					'name': 'DefaultQuantization',
					'params': {
						'ignored': {
							'decoder': {
								'scope': [
									'674'
								]
							}
						},
						'stat_subset_size': 300
					}
				}
			]
		},
		'engine': {
			'evaluations': [
				{
					'name': 'action-recognition-0001-encoder',
					'module': 'custom_evaluators.sequential_action_recognition_evaluator.SequentialActionRecognitionEvaluator',
					'module_config': {
						'network_info': {
							'encoder': {
								'model': 'intel/action-recognition-0001/action-recognition-0001-encoder/FP32/action-recognition-0001-encoder.xml',
								'weights': 'intel/action-recognition-0001/action-recognition-0001-encoder/FP32/action-recognition-0001-encoder.bin'
							},
							'decoder': {
								'model': 'intel/action-recognition-0001/action-recognition-0001-decoder/FP32/action-recognition-0001-decoder.xml',
								'weights': 'intel/action-recognition-0001/action-recognition-0001-decoder/FP32/action-recognition-0001-decoder.bin',
								'num_processing_frames': 16,
								'adapter': 'classification'
							}
						},
						'launchers': [
							{
								'framework': 'dlsdk',
								'tags': [
									'FP32'
								],
								'device': 'CPU'
							}
						],
						'datasets': [
							{
								'name': 'kinetics-400',
								'data_source': 'PATH',
								'annotation_conversion': {
									'converter': 'clip_action_recognition',
									'annotation_file': 'PATH',
									'data_dir': 'PATH'
								},
								'annotation': 'kinetics_action_recognition.pickle',
								'dataset_meta': 'kinetics_action_recognition.json',
								'preprocessing': [
									{
										'type': 'resize',
										'size': 224,
										'aspect_ratio_scale': 'fit_to_window'
									},
									{
										'type': 'crop',
										'size': 224
									}
								],
								'metrics': [
									{
										'type': 'clip_accuracy',
										'presenter': 'print_vector'
									}
								]
							}
						]
					}
				},
				{
					'name': 'action-recognition-0001-encoder',
					'module': 'custom_evaluators.sequential_action_recognition_evaluator.SequentialActionRecognitionEvaluator',
					'module_config': {
						'network_info': {
							'encoder': {
								'model': 'intel/action-recognition-0001/action-recognition-0001-encoder/FP16/action-recognition-0001-encoder.xml',
								'weights': 'intel/action-recognition-0001/action-recognition-0001-encoder/FP16/action-recognition-0001-encoder.bin'
							},
							'decoder': {
								'model': 'intel/action-recognition-0001/action-recognition-0001-decoder/FP16/action-recognition-0001-decoder.xml',
								'weights': 'intel/action-recognition-0001/action-recognition-0001-decoder/FP16/action-recognition-0001-decoder.bin',
								'num_processing_frames': 16,
								'adapter': 'classification'
							}
						},
						'launchers': [
							{
								'framework': 'dlsdk',
								'tags': [
									'FP16'
								],
								'device': 'CPU'
							}
						],
						'datasets': [
							{
								'name': 'kinetics-400',
								'data_source': 'PATH',
								'annotation_conversion': {
									'converter': 'clip_action_recognition',
									'annotation_file': 'PATH',
									'data_dir': 'PATH'
								},
								'annotation': 'kinetics_action_recognition.pickle',
								'dataset_meta': 'kinetics_action_recognition.json',
								'preprocessing': [
									{
										'type': 'resize',
										'size': 224,
										'aspect_ratio_scale': 'fit_to_window'
									},
									{
										'type': 'crop',
										'size': 224
									}
								],
								'metrics': [
									{
										'type': 'clip_accuracy',
										'presenter': 'print_vector'
									}
								]
							}
						]
					}
				}
			],
			'global_definitions': '../dataset_definitions.yml',
			'stat_requests_number': null,
			'eval_requests_number': null,
			'type': 'accuracy_checker'
		}
	}</config>
		<version value="1.0"/>
		<cli_params value="{'evaluate': False, 'output_dir': 'PATH', 'direct_dump': True, 'log_level': 'INFO', 'pbar': False, 'keep_uncompressed_weights': False}"/>
	</quantization_parameters>
</net>