<?xml version="1.0" encoding="UTF-8"?>
<net name="driver-action-recognition-adas-0002-encoder" version="10">
	<layers>
		<layer id="0" name="0" type="Parameter" version="opset1">
			<data element_type="f16" shape="1,3,224,224"/>
			<output>
				<port id="0" precision="FP16">
					<dim>1</dim>
					<dim>3</dim>
					<dim>224</dim>
					<dim>224</dim>
				</port>
			</output>
		</layer>
		<layer id="1" name="0/reverse_input_channels13338/Concat13357_const266_const" type="Const" version="opset1">
			<data element_type="f16" offset="0" shape="1,3,1,1" size="6"/>
			<output>
				<port id="1" precision="FP16">
					<dim>1</dim>
					<dim>3</dim>
					<dim>1</dim>
					<dim>1</dim>
				</port>
			</output>
		</layer>
		<layer id="2" name="Mul_/Fused_Mul_" type="Multiply" version="opset1">
			<input>
				<port id="0">
					<dim>1</dim>
					<dim>3</dim>
					<dim>224</dim>
					<dim>224</dim>
				</port>
				<port id="1">
					<dim>1</dim>
					<dim>3</dim>
					<dim>1</dim>
					<dim>1</dim>
				</port>
			</input>
			<output>
				<port id="2" precision="FP16">
					<dim>1</dim>
					<dim>3</dim>
					<dim>224</dim>
					<dim>224</dim>
				</port>
			</output>
		</layer>
		<layer id="3" name="0/reverse_input_channels13340/Concat13365_const268_const" type="Const" version="opset1">
			<data element_type="f16" offset="6" shape="1,3,1,1" size="6"/>
			<output>
				<port id="1" precision="FP16">
					<dim>1</dim>
					<dim>3</dim>
					<dim>1</dim>
					<dim>1</dim>
				</port>
			</output>
		</layer>
		<layer id="4" name="Add_/Fused_Add_" type="Add" version="opset1">
			<input>
				<port id="0">
					<dim>1</dim>
					<dim>3</dim>
					<dim>224</dim>
					<dim>224</dim>
				</port>
				<port id="1">
					<dim>1</dim>
					<dim>3</dim>
					<dim>1</dim>
					<dim>1</dim>
				</port>
			</input>
			<output>
				<port id="2" precision="FP16">
					<dim>1</dim>
					<dim>3</dim>
					<dim>224</dim>
					<dim>224</dim>
				</port>
			</output>
		</layer>
		<layer id="5" name="15331537_const" type="Const" version="opset1">
			<data element_type="f16" offset="12" shape="" size="2"/>
			<output>
				<port id="1" precision="FP16"/>
			</output>
		</layer>
		<layer id="6" name="15341538_const" type="Const" version="opset1">
			<data element_type="f16" offset="14" shape="" size="2"/>
			<output>
				<port id="1" precision="FP16"/>
			</output>
		</layer>
		<layer id="7" name="15351539_const" type="Const" version="opset1">
			<data element_type="f16" offset="12" shape="" size="2"/>
			<output>
				<port id="1" precision="FP16"/>
			</output>
		</layer>
		<layer id="8" name="15361540_const" type="Const" version="opset1">
			<data element_type="f16" offset="14" shape="" size="2"/>
			<output>
				<port id="1" precision="FP16"/>
			</output>
		</layer>
		<layer id="9" name="362/fq_input_0" type="FakeQuantize" version="opset1">
			<data levels="256"/>
			<input>
				<port id="0">
					<dim>1</dim>
					<dim>3</dim>
					<dim>224</dim>
					<dim>224</dim>
				</port>
				<port id="1"/>
				<port id="2"/>
				<port id="3"/>
				<port id="4"/>
			</input>
			<output>
				<port id="5" precision="FP16">
					<dim>1</dim>
					<dim>3</dim>
					<dim>224</dim>
					<dim>224</dim>
				</port>
			</output>
		</layer>
		<layer id="10" name="encoder_362/fq_weights_1/Convert_to_float/Cast_04941_const" type="Const" version="opset1">
			<data element_type="u8" offset="16" shape="32,3,3,3" size="864"/>
			<output>
				<port id="1" precision="U8">
					<dim>32</dim>
					<dim>3</dim>
					<dim>3</dim>
					<dim>3</dim>
				</port>
			</output>
		</layer>
		<layer id="11" name="362/fq_weights_1/Convert_to_float" type="Convert" version="opset1">
			<data destination_type="f16"/>
			<input>
				<port id="0">
					<dim>32</dim>
					<dim>3</dim>
					<dim>3</dim>
					<dim>3</dim>
				</port>
			</input>
			<output>
				<port id="1" precision="FP16">
					<dim>32</dim>
					<dim>3</dim>
					<dim>3</dim>
					<dim>3</dim>
				</port>
			</output>
		</layer>
		<layer id="12" name="encoder_362/fq_weights_1/Copy/out_low3933_const" type="Const" version="opset1">
			<data element_type="f16" offset="880" shape="1" size="2"/>
			<output>
				<port id="1" precision="FP16">
					<dim>1</dim>
				</port>
			</output>
		</layer>
		<layer id="13" name="encoder_362/fq_weights_1/Copy/out_high3934_const" type="Const" version="opset1">
			<data element_type="f16" offset="882" shape="1" size="2"/>
			<output>
				<port id="1" precision="FP16">
					<dim>1</dim>
				</port>
			</output>
		</layer>
		<layer id="14" name="15451549_const" type="Const" version="opset1">
			<data element_type="f16" offset="884" shape="32,1,1,1" size="64"/>
			<output>
				<port id="1" precision="FP16">
					<dim>32</dim>
					<dim>1</dim>
					<dim>1</dim>
					<dim>1</dim>
				</port>
			</output>
		</layer>
		<layer id="15" name="15461550_const" type="Const" version="opset1">
			<data element_type="f16" offset="948" shape="32,1,1,1" size="64"/>
			<output>
				<port id="1" precision="FP16">
					<dim>32</dim>
					<dim>1</dim>
					<dim>1</dim>
					<dim>1</dim>
				</port>
			</output>
		</layer>
		<layer id="16" name="362/fq_weights_1" type="FakeQuantize" version="opset1">
			<data levels="255"/>
			<input>
				<port id="0">
					<dim>32</dim>
					<dim>3</dim>
					<dim>3</dim>
					<dim>3</dim>
				</port>
				<port id="1">
					<dim>1</dim>
				</port>
				<port id="2">
					<dim>1</dim>
				</port>
				<port id="3">
					<dim>32</dim>
					<dim>1</dim>
					<dim>1</dim>
					<dim>1</dim>
				</port>
				<port id="4">
					<dim>32</dim>
					<dim>1</dim>
					<dim>1</dim>
					<dim>1</dim>
				</port>
			</input>
			<output>
				<port id="5" precision="FP16">
					<dim>32</dim>
					<dim>3</dim>
					<dim>3</dim>
					<dim>3</dim>
				</port>
			</output>
		</layer>
		<layer id="17" name="362" type="Convolution" version="opset1">
			<data dilations="1,1" output_padding="0,0" pads_begin="1,1" pads_end="1,1" strides="2,2"/>
			<input>
				<port id="0">
					<dim>1</dim>
					<dim>3</dim>
					<dim>224</dim>
					<dim>224</dim>
				</port>
				<port id="1">
					<dim>32</dim>
					<dim>3</dim>
					<dim>3</dim>
					<dim>3</dim>
				</port>
			</input>
			<output>
				<port id="2" precision="FP16">
					<dim>1</dim>
					<dim>32</dim>
					<dim>112</dim>
					<dim>112</dim>
				</port>
			</output>
		</layer>
		<layer id="18" name="data_add_88308835/copy_const272_const" type="Const" version="opset1">
			<data element_type="f16" offset="1012" shape="1,32,1,1" size="64"/>
			<output>
				<port id="1" precision="FP16">
					<dim>1</dim>
					<dim>32</dim>
					<dim>1</dim>
					<dim>1</dim>
				</port>
			</output>
		</layer>
		<layer id="19" name="363/variance/Fused_Add_" type="Add" version="opset1">
			<input>
				<port id="0">
					<dim>1</dim>
					<dim>32</dim>
					<dim>112</dim>
					<dim>112</dim>
				</port>
				<port id="1">
					<dim>1</dim>
					<dim>32</dim>
					<dim>1</dim>
					<dim>1</dim>
				</port>
			</input>
			<output>
				<port id="2" precision="FP16">
					<dim>1</dim>
					<dim>32</dim>
					<dim>112</dim>
					<dim>112</dim>
				</port>
			</output>
		</layer>
		<layer id="20" name="364" type="ReLU" version="opset1">
			<input>
				<port id="0">
					<dim>1</dim>
					<dim>32</dim>
					<dim>112</dim>
					<dim>112</dim>
				</port>
			</input>
			<output>
				<port id="1" precision="FP16">
					<dim>1</dim>
					<dim>32</dim>
					<dim>112</dim>
					<dim>112</dim>
				</port>
			</output>
		</layer>
		<layer id="21" name="10331037_const" type="Const" version="opset1">
			<data element_type="f16" offset="1076" shape="1,32,1,1" size="64"/>
			<output>
				<port id="1" precision="FP16">
					<dim>1</dim>
					<dim>32</dim>
					<dim>1</dim>
					<dim>1</dim>
				</port>
			</output>
		</layer>
		<layer id="22" name="10341038_const" type="Const" version="opset1">
			<data element_type="f16" offset="1140" shape="1,32,1,1" size="64"/>
			<output>
				<port id="1" precision="FP16">
					<dim>1</dim>
					<dim>32</dim>
					<dim>1</dim>
					<dim>1</dim>
				</port>
			</output>
		</layer>
		<layer id="23" name="10351039_const" type="Const" version="opset1">
			<data element_type="f16" offset="1076" shape="1,32,1,1" size="64"/>
			<output>
				<port id="1" precision="FP16">
					<dim>1</dim>
					<dim>32</dim>
					<dim>1</dim>
					<dim>1</dim>
				</port>
			</output>
		</layer>
		<layer id="24" name="10361040_const" type="Const" version="opset1">
			<data element_type="f16" offset="1140" shape="1,32,1,1" size="64"/>
			<output>
				<port id="1" precision="FP16">
					<dim>1</dim>
					<dim>32</dim>
					<dim>1</dim>
					<dim>1</dim>
				</port>
			</output>
		</layer>
		<layer id="25" name="365/fq_input_0" type="FakeQuantize" version="opset1">
			<data levels="256"/>
			<input>
				<port id="0">
					<dim>1</dim>
					<dim>32</dim>
					<dim>112</dim>
					<dim>112</dim>
				</port>
				<port id="1">
					<dim>1</dim>
					<dim>32</dim>
					<dim>1</dim>
					<dim>1</dim>
				</port>
				<port id="2">
					<dim>1</dim>
					<dim>32</dim>
					<dim>1</dim>
					<dim>1</dim>
				</port>
				<port id="3">
					<dim>1</dim>
					<dim>32</dim>
					<dim>1</dim>
					<dim>1</dim>
				</port>
				<port id="4">
					<dim>1</dim>
					<dim>32</dim>
					<dim>1</dim>
					<dim>1</dim>
				</port>
			</input>
			<output>
				<port id="5" precision="FP16">
					<dim>1</dim>
					<dim>32</dim>
					<dim>112</dim>
					<dim>112</dim>
				</port>
			</output>
		</layer>
		<layer id="26" name="encoder_365/fq_weights_1/Convert_to_float/Cast_04945_const" type="Const" version="opset1">
			<data element_type="u8" offset="1204" shape="32,1,3,3" size="288"/>
			<output>
				<port id="1" precision="U8">
					<dim>32</dim>
					<dim>1</dim>
					<dim>3</dim>
					<dim>3</dim>
				</port>
			</output>
		</layer>
		<layer id="27" name="365/fq_weights_1/Convert_to_float" type="Convert" version="opset1">
			<data destination_type="f16"/>
			<input>
				<port id="0">
					<dim>32</dim>
					<dim>1</dim>
					<dim>3</dim>
					<dim>3</dim>
				</port>
			</input>
			<output>
				<port id="1" precision="FP16">
					<dim>32</dim>
					<dim>1</dim>
					<dim>3</dim>
					<dim>3</dim>
				</port>
			</output>
		</layer>
		<layer id="28" name="encoder_365/fq_weights_1/Copy/out_low4029_const" type="Const" version="opset1">
			<data element_type="f16" offset="880" shape="1" size="2"/>
			<output>
				<port id="1" precision="FP16">
					<dim>1</dim>
				</port>
			</output>
		</layer>
		<layer id="29" name="encoder_365/fq_weights_1/Copy/out_high4030_const" type="Const" version="opset1">
			<data element_type="f16" offset="882" shape="1" size="2"/>
			<output>
				<port id="1" precision="FP16">
					<dim>1</dim>
				</port>
			</output>
		</layer>
		<layer id="30" name="10451049_const" type="Const" version="opset1">
			<data element_type="f16" offset="1492" shape="32,1,1,1" size="64"/>
			<output>
				<port id="1" precision="FP16">
					<dim>32</dim>
					<dim>1</dim>
					<dim>1</dim>
					<dim>1</dim>
				</port>
			</output>
		</layer>
		<layer id="31" name="10461050_const" type="Const" version="opset1">
			<data element_type="f16" offset="1556" shape="32,1,1,1" size="64"/>
			<output>
				<port id="1" precision="FP16">
					<dim>32</dim>
					<dim>1</dim>
					<dim>1</dim>
					<dim>1</dim>
				</port>
			</output>
		</layer>
		<layer id="32" name="365/fq_weights_1" type="FakeQuantize" version="opset1">
			<data levels="255"/>
			<input>
				<port id="0">
					<dim>32</dim>
					<dim>1</dim>
					<dim>3</dim>
					<dim>3</dim>
				</port>
				<port id="1">
					<dim>1</dim>
				</port>
				<port id="2">
					<dim>1</dim>
				</port>
				<port id="3">
					<dim>32</dim>
					<dim>1</dim>
					<dim>1</dim>
					<dim>1</dim>
				</port>
				<port id="4">
					<dim>32</dim>
					<dim>1</dim>
					<dim>1</dim>
					<dim>1</dim>
				</port>
			</input>
			<output>
				<port id="5" precision="FP16">
					<dim>32</dim>
					<dim>1</dim>
					<dim>3</dim>
					<dim>3</dim>
				</port>
			</output>
		</layer>
		<layer id="33" name="5672/value5674_const" type="Const" version="opset1">
			<data element_type="i64" offset="1620" shape="5" size="40"/>
			<output>
				<port id="1" precision="I64">
					<dim>5</dim>
				</port>
			</output>
		</layer>
		<layer id="34" name="5672" type="Reshape" version="opset1">
			<data special_zero="True"/>
			<input>
				<port id="0">
					<dim>32</dim>
					<dim>1</dim>
					<dim>3</dim>
					<dim>3</dim>
				</port>
				<port id="1">
					<dim>5</dim>
				</port>
			</input>
			<output>
				<port id="2" precision="FP16">
					<dim>32</dim>
					<dim>1</dim>
					<dim>1</dim>
					<dim>3</dim>
					<dim>3</dim>
				</port>
			</output>
		</layer>
		<layer id="35" name="365" type="GroupConvolution" version="opset1">
			<data dilations="1,1" output_padding="0,0" pads_begin="1,1" pads_end="1,1" strides="1,1"/>
			<input>
				<port id="0">
					<dim>1</dim>
					<dim>32</dim>
					<dim>112</dim>
					<dim>112</dim>
				</port>
				<port id="1">
					<dim>32</dim>
					<dim>1</dim>
					<dim>1</dim>
					<dim>3</dim>
					<dim>3</dim>
				</port>
			</input>
			<output>
				<port id="2" precision="FP16">
					<dim>1</dim>
					<dim>32</dim>
					<dim>112</dim>
					<dim>112</dim>
				</port>
			</output>
		</layer>
		<layer id="36" name="data_add_88388843/copy_const277_const" type="Const" version="opset1">
			<data element_type="f16" offset="1660" shape="1,32,1,1" size="64"/>
			<output>
				<port id="1" precision="FP16">
					<dim>1</dim>
					<dim>32</dim>
					<dim>1</dim>
					<dim>1</dim>
				</port>
			</output>
		</layer>
		<layer id="37" name="366/variance/Fused_Add_" type="Add" version="opset1">
			<input>
				<port id="0">
					<dim>1</dim>
					<dim>32</dim>
					<dim>112</dim>
					<dim>112</dim>
				</port>
				<port id="1">
					<dim>1</dim>
					<dim>32</dim>
					<dim>1</dim>
					<dim>1</dim>
				</port>
			</input>
			<output>
				<port id="2" precision="FP16">
					<dim>1</dim>
					<dim>32</dim>
					<dim>112</dim>
					<dim>112</dim>
				</port>
			</output>
		</layer>
		<layer id="38" name="367" type="ReLU" version="opset1">
			<input>
				<port id="0">
					<dim>1</dim>
					<dim>32</dim>
					<dim>112</dim>
					<dim>112</dim>
				</port>
			</input>
			<output>
				<port id="1" precision="FP16">
					<dim>1</dim>
					<dim>32</dim>
					<dim>112</dim>
					<dim>112</dim>
				</port>
			</output>
		</layer>
		<layer id="39" name="13731377_const" type="Const" version="opset1">
			<data element_type="f16" offset="880" shape="" size="2"/>
			<output>
				<port id="1" precision="FP16"/>
			</output>
		</layer>
		<layer id="40" name="13741378_const" type="Const" version="opset1">
			<data element_type="f16" offset="1724" shape="" size="2"/>
			<output>
				<port id="1" precision="FP16"/>
			</output>
		</layer>
		<layer id="41" name="13751379_const" type="Const" version="opset1">
			<data element_type="f16" offset="880" shape="" size="2"/>
			<output>
				<port id="1" precision="FP16"/>
			</output>
		</layer>
		<layer id="42" name="13761380_const" type="Const" version="opset1">
			<data element_type="f16" offset="1724" shape="" size="2"/>
			<output>
				<port id="1" precision="FP16"/>
			</output>
		</layer>
		<layer id="43" name="368/fq_input_0" type="FakeQuantize" version="opset1">
			<data levels="256"/>
			<input>
				<port id="0">
					<dim>1</dim>
					<dim>32</dim>
					<dim>112</dim>
					<dim>112</dim>
				</port>
				<port id="1"/>
				<port id="2"/>
				<port id="3"/>
				<port id="4"/>
			</input>
			<output>
				<port id="5" precision="FP16">
					<dim>1</dim>
					<dim>32</dim>
					<dim>112</dim>
					<dim>112</dim>
				</port>
			</output>
		</layer>
		<layer id="44" name="encoder_368/fq_weights_1/Convert_to_float/Cast_04971_const" type="Const" version="opset1">
			<data element_type="u8" offset="1726" shape="16,32,1,1" size="512"/>
			<output>
				<port id="1" precision="U8">
					<dim>16</dim>
					<dim>32</dim>
					<dim>1</dim>
					<dim>1</dim>
				</port>
			</output>
		</layer>
		<layer id="45" name="368/fq_weights_1/Convert_to_float" type="Convert" version="opset1">
			<data destination_type="f16"/>
			<input>
				<port id="0">
					<dim>16</dim>
					<dim>32</dim>
					<dim>1</dim>
					<dim>1</dim>
				</port>
			</input>
			<output>
				<port id="1" precision="FP16">
					<dim>16</dim>
					<dim>32</dim>
					<dim>1</dim>
					<dim>1</dim>
				</port>
			</output>
		</layer>
		<layer id="46" name="encoder_368/fq_weights_1/Copy/out_low4293_const" type="Const" version="opset1">
			<data element_type="f16" offset="880" shape="1" size="2"/>
			<output>
				<port id="1" precision="FP16">
					<dim>1</dim>
				</port>
			</output>
		</layer>
		<layer id="47" name="encoder_368/fq_weights_1/Copy/out_high4294_const" type="Const" version="opset1">
			<data element_type="f16" offset="882" shape="1" size="2"/>
			<output>
				<port id="1" precision="FP16">
					<dim>1</dim>
				</port>
			</output>
		</layer>
		<layer id="48" name="13851389_const" type="Const" version="opset1">
			<data element_type="f16" offset="2238" shape="16,1,1,1" size="32"/>
			<output>
				<port id="1" precision="FP16">
					<dim>16</dim>
					<dim>1</dim>
					<dim>1</dim>
					<dim>1</dim>
				</port>
			</output>
		</layer>
		<layer id="49" name="13861390_const" type="Const" version="opset1">
			<data element_type="f16" offset="2270" shape="16,1,1,1" size="32"/>
			<output>
				<port id="1" precision="FP16">
					<dim>16</dim>
					<dim>1</dim>
					<dim>1</dim>
					<dim>1</dim>
				</port>
			</output>
		</layer>
		<layer id="50" name="368/fq_weights_1" type="FakeQuantize" version="opset1">
			<data levels="255"/>
			<input>
				<port id="0">
					<dim>16</dim>
					<dim>32</dim>
					<dim>1</dim>
					<dim>1</dim>
				</port>
				<port id="1">
					<dim>1</dim>
				</port>
				<port id="2">
					<dim>1</dim>
				</port>
				<port id="3">
					<dim>16</dim>
					<dim>1</dim>
					<dim>1</dim>
					<dim>1</dim>
				</port>
				<port id="4">
					<dim>16</dim>
					<dim>1</dim>
					<dim>1</dim>
					<dim>1</dim>
				</port>
			</input>
			<output>
				<port id="5" precision="FP16">
					<dim>16</dim>
					<dim>32</dim>
					<dim>1</dim>
					<dim>1</dim>
				</port>
			</output>
		</layer>
		<layer id="51" name="368" type="Convolution" version="opset1">
			<data dilations="1,1" output_padding="0,0" pads_begin="0,0" pads_end="0,0" strides="1,1"/>
			<input>
				<port id="0">
					<dim>1</dim>
					<dim>32</dim>
					<dim>112</dim>
					<dim>112</dim>
				</port>
				<port id="1">
					<dim>16</dim>
					<dim>32</dim>
					<dim>1</dim>
					<dim>1</dim>
				</port>
			</input>
			<output>
				<port id="2" precision="FP16">
					<dim>1</dim>
					<dim>16</dim>
					<dim>112</dim>
					<dim>112</dim>
				</port>
			</output>
		</layer>
		<layer id="52" name="data_add_88468851/copy_const282_const" type="Const" version="opset1">
			<data element_type="f16" offset="2302" shape="1,16,1,1" size="32"/>
			<output>
				<port id="1" precision="FP16">
					<dim>1</dim>
					<dim>16</dim>
					<dim>1</dim>
					<dim>1</dim>
				</port>
			</output>
		</layer>
		<layer id="53" name="369/variance/Fused_Add_" type="Add" version="opset1">
			<input>
				<port id="0">
					<dim>1</dim>
					<dim>16</dim>
					<dim>112</dim>
					<dim>112</dim>
				</port>
				<port id="1">
					<dim>1</dim>
					<dim>16</dim>
					<dim>1</dim>
					<dim>1</dim>
				</port>
			</input>
			<output>
				<port id="2" precision="FP16">
					<dim>1</dim>
					<dim>16</dim>
					<dim>112</dim>
					<dim>112</dim>
				</port>
			</output>
		</layer>
		<layer id="54" name="18731877_const" type="Const" version="opset1">
			<data element_type="f16" offset="2334" shape="" size="2"/>
			<output>
				<port id="1" precision="FP16"/>
			</output>
		</layer>
		<layer id="55" name="18741878_const" type="Const" version="opset1">
			<data element_type="f16" offset="2336" shape="" size="2"/>
			<output>
				<port id="1" precision="FP16"/>
			</output>
		</layer>
		<layer id="56" name="18751879_const" type="Const" version="opset1">
			<data element_type="f16" offset="2334" shape="" size="2"/>
			<output>
				<port id="1" precision="FP16"/>
			</output>
		</layer>
		<layer id="57" name="18761880_const" type="Const" version="opset1">
			<data element_type="f16" offset="2336" shape="" size="2"/>
			<output>
				<port id="1" precision="FP16"/>
			</output>
		</layer>
		<layer id="58" name="370/fq_input_0" type="FakeQuantize" version="opset1">
			<data levels="256"/>
			<input>
				<port id="0">
					<dim>1</dim>
					<dim>16</dim>
					<dim>112</dim>
					<dim>112</dim>
				</port>
				<port id="1"/>
				<port id="2"/>
				<port id="3"/>
				<port id="4"/>
			</input>
			<output>
				<port id="5" precision="FP16">
					<dim>1</dim>
					<dim>16</dim>
					<dim>112</dim>
					<dim>112</dim>
				</port>
			</output>
		</layer>
		<layer id="59" name="encoder_370/fq_weights_1/Convert_to_float/Cast_04969_const" type="Const" version="opset1">
			<data element_type="u8" offset="2338" shape="96,16,1,1" size="1536"/>
			<output>
				<port id="1" precision="U8">
					<dim>96</dim>
					<dim>16</dim>
					<dim>1</dim>
					<dim>1</dim>
				</port>
			</output>
		</layer>
		<layer id="60" name="370/fq_weights_1/Convert_to_float" type="Convert" version="opset1">
			<data destination_type="f16"/>
			<input>
				<port id="0">
					<dim>96</dim>
					<dim>16</dim>
					<dim>1</dim>
					<dim>1</dim>
				</port>
			</input>
			<output>
				<port id="1" precision="FP16">
					<dim>96</dim>
					<dim>16</dim>
					<dim>1</dim>
					<dim>1</dim>
				</port>
			</output>
		</layer>
		<layer id="61" name="encoder_370/fq_weights_1/Copy/out_low4069_const" type="Const" version="opset1">
			<data element_type="f16" offset="880" shape="1" size="2"/>
			<output>
				<port id="1" precision="FP16">
					<dim>1</dim>
				</port>
			</output>
		</layer>
		<layer id="62" name="encoder_370/fq_weights_1/Copy/out_high4070_const" type="Const" version="opset1">
			<data element_type="f16" offset="882" shape="1" size="2"/>
			<output>
				<port id="1" precision="FP16">
					<dim>1</dim>
				</port>
			</output>
		</layer>
		<layer id="63" name="18851889_const" type="Const" version="opset1">
			<data element_type="f16" offset="3874" shape="96,1,1,1" size="192"/>
			<output>
				<port id="1" precision="FP16">
					<dim>96</dim>
					<dim>1</dim>
					<dim>1</dim>
					<dim>1</dim>
				</port>
			</output>
		</layer>
		<layer id="64" name="18861890_const" type="Const" version="opset1">
			<data element_type="f16" offset="4066" shape="96,1,1,1" size="192"/>
			<output>
				<port id="1" precision="FP16">
					<dim>96</dim>
					<dim>1</dim>
					<dim>1</dim>
					<dim>1</dim>
				</port>
			</output>
		</layer>
		<layer id="65" name="370/fq_weights_1" type="FakeQuantize" version="opset1">
			<data levels="255"/>
			<input>
				<port id="0">
					<dim>96</dim>
					<dim>16</dim>
					<dim>1</dim>
					<dim>1</dim>
				</port>
				<port id="1">
					<dim>1</dim>
				</port>
				<port id="2">
					<dim>1</dim>
				</port>
				<port id="3">
					<dim>96</dim>
					<dim>1</dim>
					<dim>1</dim>
					<dim>1</dim>
				</port>
				<port id="4">
					<dim>96</dim>
					<dim>1</dim>
					<dim>1</dim>
					<dim>1</dim>
				</port>
			</input>
			<output>
				<port id="5" precision="FP16">
					<dim>96</dim>
					<dim>16</dim>
					<dim>1</dim>
					<dim>1</dim>
				</port>
			</output>
		</layer>
		<layer id="66" name="370" type="Convolution" version="opset1">
			<data dilations="1,1" output_padding="0,0" pads_begin="0,0" pads_end="0,0" strides="1,1"/>
			<input>
				<port id="0">
					<dim>1</dim>
					<dim>16</dim>
					<dim>112</dim>
					<dim>112</dim>
				</port>
				<port id="1">
					<dim>96</dim>
					<dim>16</dim>
					<dim>1</dim>
					<dim>1</dim>
				</port>
			</input>
			<output>
				<port id="2" precision="FP16">
					<dim>1</dim>
					<dim>96</dim>
					<dim>112</dim>
					<dim>112</dim>
				</port>
			</output>
		</layer>
		<layer id="67" name="data_add_88548859/copy_const286_const" type="Const" version="opset1">
			<data element_type="f16" offset="4258" shape="1,96,1,1" size="192"/>
			<output>
				<port id="1" precision="FP16">
					<dim>1</dim>
					<dim>96</dim>
					<dim>1</dim>
					<dim>1</dim>
				</port>
			</output>
		</layer>
		<layer id="68" name="371/variance/Fused_Add_" type="Add" version="opset1">
			<input>
				<port id="0">
					<dim>1</dim>
					<dim>96</dim>
					<dim>112</dim>
					<dim>112</dim>
				</port>
				<port id="1">
					<dim>1</dim>
					<dim>96</dim>
					<dim>1</dim>
					<dim>1</dim>
				</port>
			</input>
			<output>
				<port id="2" precision="FP16">
					<dim>1</dim>
					<dim>96</dim>
					<dim>112</dim>
					<dim>112</dim>
				</port>
			</output>
		</layer>
		<layer id="69" name="372" type="ReLU" version="opset1">
			<input>
				<port id="0">
					<dim>1</dim>
					<dim>96</dim>
					<dim>112</dim>
					<dim>112</dim>
				</port>
			</input>
			<output>
				<port id="1" precision="FP16">
					<dim>1</dim>
					<dim>96</dim>
					<dim>112</dim>
					<dim>112</dim>
				</port>
			</output>
		</layer>
		<layer id="70" name="14931497_const" type="Const" version="opset1">
			<data element_type="f16" offset="4450" shape="1,96,1,1" size="192"/>
			<output>
				<port id="1" precision="FP16">
					<dim>1</dim>
					<dim>96</dim>
					<dim>1</dim>
					<dim>1</dim>
				</port>
			</output>
		</layer>
		<layer id="71" name="14941498_const" type="Const" version="opset1">
			<data element_type="f16" offset="4642" shape="1,96,1,1" size="192"/>
			<output>
				<port id="1" precision="FP16">
					<dim>1</dim>
					<dim>96</dim>
					<dim>1</dim>
					<dim>1</dim>
				</port>
			</output>
		</layer>
		<layer id="72" name="14951499_const" type="Const" version="opset1">
			<data element_type="f16" offset="4450" shape="1,96,1,1" size="192"/>
			<output>
				<port id="1" precision="FP16">
					<dim>1</dim>
					<dim>96</dim>
					<dim>1</dim>
					<dim>1</dim>
				</port>
			</output>
		</layer>
		<layer id="73" name="14961500_const" type="Const" version="opset1">
			<data element_type="f16" offset="4642" shape="1,96,1,1" size="192"/>
			<output>
				<port id="1" precision="FP16">
					<dim>1</dim>
					<dim>96</dim>
					<dim>1</dim>
					<dim>1</dim>
				</port>
			</output>
		</layer>
		<layer id="74" name="373/fq_input_0" type="FakeQuantize" version="opset1">
			<data levels="256"/>
			<input>
				<port id="0">
					<dim>1</dim>
					<dim>96</dim>
					<dim>112</dim>
					<dim>112</dim>
				</port>
				<port id="1">
					<dim>1</dim>
					<dim>96</dim>
					<dim>1</dim>
					<dim>1</dim>
				</port>
				<port id="2">
					<dim>1</dim>
					<dim>96</dim>
					<dim>1</dim>
					<dim>1</dim>
				</port>
				<port id="3">
					<dim>1</dim>
					<dim>96</dim>
					<dim>1</dim>
					<dim>1</dim>
				</port>
				<port id="4">
					<dim>1</dim>
					<dim>96</dim>
					<dim>1</dim>
					<dim>1</dim>
				</port>
			</input>
			<output>
				<port id="5" precision="FP16">
					<dim>1</dim>
					<dim>96</dim>
					<dim>112</dim>
					<dim>112</dim>
				</port>
			</output>
		</layer>
		<layer id="75" name="encoder_373/fq_weights_1/Convert_to_float/Cast_04947_const" type="Const" version="opset1">
			<data element_type="u8" offset="4834" shape="96,1,3,3" size="864"/>
			<output>
				<port id="1" precision="U8">
					<dim>96</dim>
					<dim>1</dim>
					<dim>3</dim>
					<dim>3</dim>
				</port>
			</output>
		</layer>
		<layer id="76" name="373/fq_weights_1/Convert_to_float" type="Convert" version="opset1">
			<data destination_type="f16"/>
			<input>
				<port id="0">
					<dim>96</dim>
					<dim>1</dim>
					<dim>3</dim>
					<dim>3</dim>
				</port>
			</input>
			<output>
				<port id="1" precision="FP16">
					<dim>96</dim>
					<dim>1</dim>
					<dim>3</dim>
					<dim>3</dim>
				</port>
			</output>
		</layer>
		<layer id="77" name="encoder_373/fq_weights_1/Copy/out_low4301_const" type="Const" version="opset1">
			<data element_type="f16" offset="880" shape="1" size="2"/>
			<output>
				<port id="1" precision="FP16">
					<dim>1</dim>
				</port>
			</output>
		</layer>
		<layer id="78" name="encoder_373/fq_weights_1/Copy/out_high4302_const" type="Const" version="opset1">
			<data element_type="f16" offset="882" shape="1" size="2"/>
			<output>
				<port id="1" precision="FP16">
					<dim>1</dim>
				</port>
			</output>
		</layer>
		<layer id="79" name="15051509_const" type="Const" version="opset1">
			<data element_type="f16" offset="5698" shape="96,1,1,1" size="192"/>
			<output>
				<port id="1" precision="FP16">
					<dim>96</dim>
					<dim>1</dim>
					<dim>1</dim>
					<dim>1</dim>
				</port>
			</output>
		</layer>
		<layer id="80" name="15061510_const" type="Const" version="opset1">
			<data element_type="f16" offset="5890" shape="96,1,1,1" size="192"/>
			<output>
				<port id="1" precision="FP16">
					<dim>96</dim>
					<dim>1</dim>
					<dim>1</dim>
					<dim>1</dim>
				</port>
			</output>
		</layer>
		<layer id="81" name="373/fq_weights_1" type="FakeQuantize" version="opset1">
			<data levels="255"/>
			<input>
				<port id="0">
					<dim>96</dim>
					<dim>1</dim>
					<dim>3</dim>
					<dim>3</dim>
				</port>
				<port id="1">
					<dim>1</dim>
				</port>
				<port id="2">
					<dim>1</dim>
				</port>
				<port id="3">
					<dim>96</dim>
					<dim>1</dim>
					<dim>1</dim>
					<dim>1</dim>
				</port>
				<port id="4">
					<dim>96</dim>
					<dim>1</dim>
					<dim>1</dim>
					<dim>1</dim>
				</port>
			</input>
			<output>
				<port id="5" precision="FP16">
					<dim>96</dim>
					<dim>1</dim>
					<dim>3</dim>
					<dim>3</dim>
				</port>
			</output>
		</layer>
		<layer id="82" name="5664/value5666_const" type="Const" version="opset1">
			<data element_type="i64" offset="6082" shape="5" size="40"/>
			<output>
				<port id="1" precision="I64">
					<dim>5</dim>
				</port>
			</output>
		</layer>
		<layer id="83" name="5664" type="Reshape" version="opset1">
			<data special_zero="True"/>
			<input>
				<port id="0">
					<dim>96</dim>
					<dim>1</dim>
					<dim>3</dim>
					<dim>3</dim>
				</port>
				<port id="1">
					<dim>5</dim>
				</port>
			</input>
			<output>
				<port id="2" precision="FP16">
					<dim>96</dim>
					<dim>1</dim>
					<dim>1</dim>
					<dim>3</dim>
					<dim>3</dim>
				</port>
			</output>
		</layer>
		<layer id="84" name="373" type="GroupConvolution" version="opset1">
			<data dilations="1,1" output_padding="0,0" pads_begin="1,1" pads_end="1,1" strides="2,2"/>
			<input>
				<port id="0">
					<dim>1</dim>
					<dim>96</dim>
					<dim>112</dim>
					<dim>112</dim>
				</port>
				<port id="1">
					<dim>96</dim>
					<dim>1</dim>
					<dim>1</dim>
					<dim>3</dim>
					<dim>3</dim>
				</port>
			</input>
			<output>
				<port id="2" precision="FP16">
					<dim>1</dim>
					<dim>96</dim>
					<dim>56</dim>
					<dim>56</dim>
				</port>
			</output>
		</layer>
		<layer id="85" name="data_add_88628867/copy_const291_const" type="Const" version="opset1">
			<data element_type="f16" offset="6122" shape="1,96,1,1" size="192"/>
			<output>
				<port id="1" precision="FP16">
					<dim>1</dim>
					<dim>96</dim>
					<dim>1</dim>
					<dim>1</dim>
				</port>
			</output>
		</layer>
		<layer id="86" name="374/variance/Fused_Add_" type="Add" version="opset1">
			<input>
				<port id="0">
					<dim>1</dim>
					<dim>96</dim>
					<dim>56</dim>
					<dim>56</dim>
				</port>
				<port id="1">
					<dim>1</dim>
					<dim>96</dim>
					<dim>1</dim>
					<dim>1</dim>
				</port>
			</input>
			<output>
				<port id="2" precision="FP16">
					<dim>1</dim>
					<dim>96</dim>
					<dim>56</dim>
					<dim>56</dim>
				</port>
			</output>
		</layer>
		<layer id="87" name="375" type="ReLU" version="opset1">
			<input>
				<port id="0">
					<dim>1</dim>
					<dim>96</dim>
					<dim>56</dim>
					<dim>56</dim>
				</port>
			</input>
			<output>
				<port id="1" precision="FP16">
					<dim>1</dim>
					<dim>96</dim>
					<dim>56</dim>
					<dim>56</dim>
				</port>
			</output>
		</layer>
		<layer id="88" name="18531857_const" type="Const" version="opset1">
			<data element_type="f16" offset="880" shape="" size="2"/>
			<output>
				<port id="1" precision="FP16"/>
			</output>
		</layer>
		<layer id="89" name="18541858_const" type="Const" version="opset1">
			<data element_type="f16" offset="6314" shape="" size="2"/>
			<output>
				<port id="1" precision="FP16"/>
			</output>
		</layer>
		<layer id="90" name="18551859_const" type="Const" version="opset1">
			<data element_type="f16" offset="880" shape="" size="2"/>
			<output>
				<port id="1" precision="FP16"/>
			</output>
		</layer>
		<layer id="91" name="18561860_const" type="Const" version="opset1">
			<data element_type="f16" offset="6314" shape="" size="2"/>
			<output>
				<port id="1" precision="FP16"/>
			</output>
		</layer>
		<layer id="92" name="376/fq_input_0" type="FakeQuantize" version="opset1">
			<data levels="256"/>
			<input>
				<port id="0">
					<dim>1</dim>
					<dim>96</dim>
					<dim>56</dim>
					<dim>56</dim>
				</port>
				<port id="1"/>
				<port id="2"/>
				<port id="3"/>
				<port id="4"/>
			</input>
			<output>
				<port id="5" precision="FP16">
					<dim>1</dim>
					<dim>96</dim>
					<dim>56</dim>
					<dim>56</dim>
				</port>
			</output>
		</layer>
		<layer id="93" name="encoder_376/fq_weights_1/Convert_to_float/Cast_04953_const" type="Const" version="opset1">
			<data element_type="u8" offset="6316" shape="24,96,1,1" size="2304"/>
			<output>
				<port id="1" precision="U8">
					<dim>24</dim>
					<dim>96</dim>
					<dim>1</dim>
					<dim>1</dim>
				</port>
			</output>
		</layer>
		<layer id="94" name="376/fq_weights_1/Convert_to_float" type="Convert" version="opset1">
			<data destination_type="f16"/>
			<input>
				<port id="0">
					<dim>24</dim>
					<dim>96</dim>
					<dim>1</dim>
					<dim>1</dim>
				</port>
			</input>
			<output>
				<port id="1" precision="FP16">
					<dim>24</dim>
					<dim>96</dim>
					<dim>1</dim>
					<dim>1</dim>
				</port>
			</output>
		</layer>
		<layer id="95" name="encoder_376/fq_weights_1/Copy/out_low4125_const" type="Const" version="opset1">
			<data element_type="f16" offset="880" shape="1" size="2"/>
			<output>
				<port id="1" precision="FP16">
					<dim>1</dim>
				</port>
			</output>
		</layer>
		<layer id="96" name="encoder_376/fq_weights_1/Copy/out_high4126_const" type="Const" version="opset1">
			<data element_type="f16" offset="882" shape="1" size="2"/>
			<output>
				<port id="1" precision="FP16">
					<dim>1</dim>
				</port>
			</output>
		</layer>
		<layer id="97" name="18651869_const" type="Const" version="opset1">
			<data element_type="f16" offset="8620" shape="24,1,1,1" size="48"/>
			<output>
				<port id="1" precision="FP16">
					<dim>24</dim>
					<dim>1</dim>
					<dim>1</dim>
					<dim>1</dim>
				</port>
			</output>
		</layer>
		<layer id="98" name="18661870_const" type="Const" version="opset1">
			<data element_type="f16" offset="8668" shape="24,1,1,1" size="48"/>
			<output>
				<port id="1" precision="FP16">
					<dim>24</dim>
					<dim>1</dim>
					<dim>1</dim>
					<dim>1</dim>
				</port>
			</output>
		</layer>
		<layer id="99" name="376/fq_weights_1" type="FakeQuantize" version="opset1">
			<data levels="255"/>
			<input>
				<port id="0">
					<dim>24</dim>
					<dim>96</dim>
					<dim>1</dim>
					<dim>1</dim>
				</port>
				<port id="1">
					<dim>1</dim>
				</port>
				<port id="2">
					<dim>1</dim>
				</port>
				<port id="3">
					<dim>24</dim>
					<dim>1</dim>
					<dim>1</dim>
					<dim>1</dim>
				</port>
				<port id="4">
					<dim>24</dim>
					<dim>1</dim>
					<dim>1</dim>
					<dim>1</dim>
				</port>
			</input>
			<output>
				<port id="5" precision="FP16">
					<dim>24</dim>
					<dim>96</dim>
					<dim>1</dim>
					<dim>1</dim>
				</port>
			</output>
		</layer>
		<layer id="100" name="376" type="Convolution" version="opset1">
			<data dilations="1,1" output_padding="0,0" pads_begin="0,0" pads_end="0,0" strides="1,1"/>
			<input>
				<port id="0">
					<dim>1</dim>
					<dim>96</dim>
					<dim>56</dim>
					<dim>56</dim>
				</port>
				<port id="1">
					<dim>24</dim>
					<dim>96</dim>
					<dim>1</dim>
					<dim>1</dim>
				</port>
			</input>
			<output>
				<port id="2" precision="FP16">
					<dim>1</dim>
					<dim>24</dim>
					<dim>56</dim>
					<dim>56</dim>
				</port>
			</output>
		</layer>
		<layer id="101" name="data_add_88708875/copy_const296_const" type="Const" version="opset1">
			<data element_type="f16" offset="8716" shape="1,24,1,1" size="48"/>
			<output>
				<port id="1" precision="FP16">
					<dim>1</dim>
					<dim>24</dim>
					<dim>1</dim>
					<dim>1</dim>
				</port>
			</output>
		</layer>
		<layer id="102" name="377/variance/Fused_Add_" type="Add" version="opset1">
			<input>
				<port id="0">
					<dim>1</dim>
					<dim>24</dim>
					<dim>56</dim>
					<dim>56</dim>
				</port>
				<port id="1">
					<dim>1</dim>
					<dim>24</dim>
					<dim>1</dim>
					<dim>1</dim>
				</port>
			</input>
			<output>
				<port id="2" precision="FP16">
					<dim>1</dim>
					<dim>24</dim>
					<dim>56</dim>
					<dim>56</dim>
				</port>
			</output>
		</layer>
		<layer id="103" name="12131217_const" type="Const" version="opset1">
			<data element_type="f16" offset="8764" shape="" size="2"/>
			<output>
				<port id="1" precision="FP16"/>
			</output>
		</layer>
		<layer id="104" name="12141218_const" type="Const" version="opset1">
			<data element_type="f16" offset="8766" shape="" size="2"/>
			<output>
				<port id="1" precision="FP16"/>
			</output>
		</layer>
		<layer id="105" name="12151219_const" type="Const" version="opset1">
			<data element_type="f16" offset="8764" shape="" size="2"/>
			<output>
				<port id="1" precision="FP16"/>
			</output>
		</layer>
		<layer id="106" name="12161220_const" type="Const" version="opset1">
			<data element_type="f16" offset="8766" shape="" size="2"/>
			<output>
				<port id="1" precision="FP16"/>
			</output>
		</layer>
		<layer id="107" name="378/fq_input_0" type="FakeQuantize" version="opset1">
			<data levels="256"/>
			<input>
				<port id="0">
					<dim>1</dim>
					<dim>24</dim>
					<dim>56</dim>
					<dim>56</dim>
				</port>
				<port id="1"/>
				<port id="2"/>
				<port id="3"/>
				<port id="4"/>
			</input>
			<output>
				<port id="5" precision="FP16">
					<dim>1</dim>
					<dim>24</dim>
					<dim>56</dim>
					<dim>56</dim>
				</port>
			</output>
		</layer>
		<layer id="108" name="encoder_378/fq_weights_1/Convert_to_float/Cast_05031_const" type="Const" version="opset1">
			<data element_type="u8" offset="8768" shape="144,24,1,1" size="3456"/>
			<output>
				<port id="1" precision="U8">
					<dim>144</dim>
					<dim>24</dim>
					<dim>1</dim>
					<dim>1</dim>
				</port>
			</output>
		</layer>
		<layer id="109" name="378/fq_weights_1/Convert_to_float" type="Convert" version="opset1">
			<data destination_type="f16"/>
			<input>
				<port id="0">
					<dim>144</dim>
					<dim>24</dim>
					<dim>1</dim>
					<dim>1</dim>
				</port>
			</input>
			<output>
				<port id="1" precision="FP16">
					<dim>144</dim>
					<dim>24</dim>
					<dim>1</dim>
					<dim>1</dim>
				</port>
			</output>
		</layer>
		<layer id="110" name="encoder_378/fq_weights_1/Copy/out_low4045_const" type="Const" version="opset1">
			<data element_type="f16" offset="880" shape="1" size="2"/>
			<output>
				<port id="1" precision="FP16">
					<dim>1</dim>
				</port>
			</output>
		</layer>
		<layer id="111" name="encoder_378/fq_weights_1/Copy/out_high4046_const" type="Const" version="opset1">
			<data element_type="f16" offset="882" shape="1" size="2"/>
			<output>
				<port id="1" precision="FP16">
					<dim>1</dim>
				</port>
			</output>
		</layer>
		<layer id="112" name="12251229_const" type="Const" version="opset1">
			<data element_type="f16" offset="12224" shape="144,1,1,1" size="288"/>
			<output>
				<port id="1" precision="FP16">
					<dim>144</dim>
					<dim>1</dim>
					<dim>1</dim>
					<dim>1</dim>
				</port>
			</output>
		</layer>
		<layer id="113" name="12261230_const" type="Const" version="opset1">
			<data element_type="f16" offset="12512" shape="144,1,1,1" size="288"/>
			<output>
				<port id="1" precision="FP16">
					<dim>144</dim>
					<dim>1</dim>
					<dim>1</dim>
					<dim>1</dim>
				</port>
			</output>
		</layer>
		<layer id="114" name="378/fq_weights_1" type="FakeQuantize" version="opset1">
			<data levels="255"/>
			<input>
				<port id="0">
					<dim>144</dim>
					<dim>24</dim>
					<dim>1</dim>
					<dim>1</dim>
				</port>
				<port id="1">
					<dim>1</dim>
				</port>
				<port id="2">
					<dim>1</dim>
				</port>
				<port id="3">
					<dim>144</dim>
					<dim>1</dim>
					<dim>1</dim>
					<dim>1</dim>
				</port>
				<port id="4">
					<dim>144</dim>
					<dim>1</dim>
					<dim>1</dim>
					<dim>1</dim>
				</port>
			</input>
			<output>
				<port id="5" precision="FP16">
					<dim>144</dim>
					<dim>24</dim>
					<dim>1</dim>
					<dim>1</dim>
				</port>
			</output>
		</layer>
		<layer id="115" name="378" type="Convolution" version="opset1">
			<data dilations="1,1" output_padding="0,0" pads_begin="0,0" pads_end="0,0" strides="1,1"/>
			<input>
				<port id="0">
					<dim>1</dim>
					<dim>24</dim>
					<dim>56</dim>
					<dim>56</dim>
				</port>
				<port id="1">
					<dim>144</dim>
					<dim>24</dim>
					<dim>1</dim>
					<dim>1</dim>
				</port>
			</input>
			<output>
				<port id="2" precision="FP16">
					<dim>1</dim>
					<dim>144</dim>
					<dim>56</dim>
					<dim>56</dim>
				</port>
			</output>
		</layer>
		<layer id="116" name="data_add_88788883/copy_const300_const" type="Const" version="opset1">
			<data element_type="f16" offset="12800" shape="1,144,1,1" size="288"/>
			<output>
				<port id="1" precision="FP16">
					<dim>1</dim>
					<dim>144</dim>
					<dim>1</dim>
					<dim>1</dim>
				</port>
			</output>
		</layer>
		<layer id="117" name="379/variance/Fused_Add_" type="Add" version="opset1">
			<input>
				<port id="0">
					<dim>1</dim>
					<dim>144</dim>
					<dim>56</dim>
					<dim>56</dim>
				</port>
				<port id="1">
					<dim>1</dim>
					<dim>144</dim>
					<dim>1</dim>
					<dim>1</dim>
				</port>
			</input>
			<output>
				<port id="2" precision="FP16">
					<dim>1</dim>
					<dim>144</dim>
					<dim>56</dim>
					<dim>56</dim>
				</port>
			</output>
		</layer>
		<layer id="118" name="380" type="ReLU" version="opset1">
			<input>
				<port id="0">
					<dim>1</dim>
					<dim>144</dim>
					<dim>56</dim>
					<dim>56</dim>
				</port>
			</input>
			<output>
				<port id="1" precision="FP16">
					<dim>1</dim>
					<dim>144</dim>
					<dim>56</dim>
					<dim>56</dim>
				</port>
			</output>
		</layer>
		<layer id="119" name="14331437_const" type="Const" version="opset1">
			<data element_type="f16" offset="13088" shape="1,144,1,1" size="288"/>
			<output>
				<port id="1" precision="FP16">
					<dim>1</dim>
					<dim>144</dim>
					<dim>1</dim>
					<dim>1</dim>
				</port>
			</output>
		</layer>
		<layer id="120" name="14341438_const" type="Const" version="opset1">
			<data element_type="f16" offset="13376" shape="1,144,1,1" size="288"/>
			<output>
				<port id="1" precision="FP16">
					<dim>1</dim>
					<dim>144</dim>
					<dim>1</dim>
					<dim>1</dim>
				</port>
			</output>
		</layer>
		<layer id="121" name="14351439_const" type="Const" version="opset1">
			<data element_type="f16" offset="13088" shape="1,144,1,1" size="288"/>
			<output>
				<port id="1" precision="FP16">
					<dim>1</dim>
					<dim>144</dim>
					<dim>1</dim>
					<dim>1</dim>
				</port>
			</output>
		</layer>
		<layer id="122" name="14361440_const" type="Const" version="opset1">
			<data element_type="f16" offset="13376" shape="1,144,1,1" size="288"/>
			<output>
				<port id="1" precision="FP16">
					<dim>1</dim>
					<dim>144</dim>
					<dim>1</dim>
					<dim>1</dim>
				</port>
			</output>
		</layer>
		<layer id="123" name="381/fq_input_0" type="FakeQuantize" version="opset1">
			<data levels="256"/>
			<input>
				<port id="0">
					<dim>1</dim>
					<dim>144</dim>
					<dim>56</dim>
					<dim>56</dim>
				</port>
				<port id="1">
					<dim>1</dim>
					<dim>144</dim>
					<dim>1</dim>
					<dim>1</dim>
				</port>
				<port id="2">
					<dim>1</dim>
					<dim>144</dim>
					<dim>1</dim>
					<dim>1</dim>
				</port>
				<port id="3">
					<dim>1</dim>
					<dim>144</dim>
					<dim>1</dim>
					<dim>1</dim>
				</port>
				<port id="4">
					<dim>1</dim>
					<dim>144</dim>
					<dim>1</dim>
					<dim>1</dim>
				</port>
			</input>
			<output>
				<port id="5" precision="FP16">
					<dim>1</dim>
					<dim>144</dim>
					<dim>56</dim>
					<dim>56</dim>
				</port>
			</output>
		</layer>
		<layer id="124" name="encoder_381/fq_weights_1/Convert_to_float/Cast_04977_const" type="Const" version="opset1">
			<data element_type="u8" offset="13664" shape="144,1,3,3" size="1296"/>
			<output>
				<port id="1" precision="U8">
					<dim>144</dim>
					<dim>1</dim>
					<dim>3</dim>
					<dim>3</dim>
				</port>
			</output>
		</layer>
		<layer id="125" name="381/fq_weights_1/Convert_to_float" type="Convert" version="opset1">
			<data destination_type="f16"/>
			<input>
				<port id="0">
					<dim>144</dim>
					<dim>1</dim>
					<dim>3</dim>
					<dim>3</dim>
				</port>
			</input>
			<output>
				<port id="1" precision="FP16">
					<dim>144</dim>
					<dim>1</dim>
					<dim>3</dim>
					<dim>3</dim>
				</port>
			</output>
		</layer>
		<layer id="126" name="encoder_381/fq_weights_1/Copy/out_low3941_const" type="Const" version="opset1">
			<data element_type="f16" offset="880" shape="1" size="2"/>
			<output>
				<port id="1" precision="FP16">
					<dim>1</dim>
				</port>
			</output>
		</layer>
		<layer id="127" name="encoder_381/fq_weights_1/Copy/out_high3942_const" type="Const" version="opset1">
			<data element_type="f16" offset="882" shape="1" size="2"/>
			<output>
				<port id="1" precision="FP16">
					<dim>1</dim>
				</port>
			</output>
		</layer>
		<layer id="128" name="14451449_const" type="Const" version="opset1">
			<data element_type="f16" offset="14960" shape="144,1,1,1" size="288"/>
			<output>
				<port id="1" precision="FP16">
					<dim>144</dim>
					<dim>1</dim>
					<dim>1</dim>
					<dim>1</dim>
				</port>
			</output>
		</layer>
		<layer id="129" name="14461450_const" type="Const" version="opset1">
			<data element_type="f16" offset="15248" shape="144,1,1,1" size="288"/>
			<output>
				<port id="1" precision="FP16">
					<dim>144</dim>
					<dim>1</dim>
					<dim>1</dim>
					<dim>1</dim>
				</port>
			</output>
		</layer>
		<layer id="130" name="381/fq_weights_1" type="FakeQuantize" version="opset1">
			<data levels="255"/>
			<input>
				<port id="0">
					<dim>144</dim>
					<dim>1</dim>
					<dim>3</dim>
					<dim>3</dim>
				</port>
				<port id="1">
					<dim>1</dim>
				</port>
				<port id="2">
					<dim>1</dim>
				</port>
				<port id="3">
					<dim>144</dim>
					<dim>1</dim>
					<dim>1</dim>
					<dim>1</dim>
				</port>
				<port id="4">
					<dim>144</dim>
					<dim>1</dim>
					<dim>1</dim>
					<dim>1</dim>
				</port>
			</input>
			<output>
				<port id="5" precision="FP16">
					<dim>144</dim>
					<dim>1</dim>
					<dim>3</dim>
					<dim>3</dim>
				</port>
			</output>
		</layer>
		<layer id="131" name="5620/value5622_const" type="Const" version="opset1">
			<data element_type="i64" offset="15536" shape="5" size="40"/>
			<output>
				<port id="1" precision="I64">
					<dim>5</dim>
				</port>
			</output>
		</layer>
		<layer id="132" name="5620" type="Reshape" version="opset1">
			<data special_zero="True"/>
			<input>
				<port id="0">
					<dim>144</dim>
					<dim>1</dim>
					<dim>3</dim>
					<dim>3</dim>
				</port>
				<port id="1">
					<dim>5</dim>
				</port>
			</input>
			<output>
				<port id="2" precision="FP16">
					<dim>144</dim>
					<dim>1</dim>
					<dim>1</dim>
					<dim>3</dim>
					<dim>3</dim>
				</port>
			</output>
		</layer>
		<layer id="133" name="381" type="GroupConvolution" version="opset1">
			<data dilations="1,1" output_padding="0,0" pads_begin="1,1" pads_end="1,1" strides="1,1"/>
			<input>
				<port id="0">
					<dim>1</dim>
					<dim>144</dim>
					<dim>56</dim>
					<dim>56</dim>
				</port>
				<port id="1">
					<dim>144</dim>
					<dim>1</dim>
					<dim>1</dim>
					<dim>3</dim>
					<dim>3</dim>
				</port>
			</input>
			<output>
				<port id="2" precision="FP16">
					<dim>1</dim>
					<dim>144</dim>
					<dim>56</dim>
					<dim>56</dim>
				</port>
			</output>
		</layer>
		<layer id="134" name="data_add_88868891/copy_const305_const" type="Const" version="opset1">
			<data element_type="f16" offset="15576" shape="1,144,1,1" size="288"/>
			<output>
				<port id="1" precision="FP16">
					<dim>1</dim>
					<dim>144</dim>
					<dim>1</dim>
					<dim>1</dim>
				</port>
			</output>
		</layer>
		<layer id="135" name="382/variance/Fused_Add_" type="Add" version="opset1">
			<input>
				<port id="0">
					<dim>1</dim>
					<dim>144</dim>
					<dim>56</dim>
					<dim>56</dim>
				</port>
				<port id="1">
					<dim>1</dim>
					<dim>144</dim>
					<dim>1</dim>
					<dim>1</dim>
				</port>
			</input>
			<output>
				<port id="2" precision="FP16">
					<dim>1</dim>
					<dim>144</dim>
					<dim>56</dim>
					<dim>56</dim>
				</port>
			</output>
		</layer>
		<layer id="136" name="383" type="ReLU" version="opset1">
			<input>
				<port id="0">
					<dim>1</dim>
					<dim>144</dim>
					<dim>56</dim>
					<dim>56</dim>
				</port>
			</input>
			<output>
				<port id="1" precision="FP16">
					<dim>1</dim>
					<dim>144</dim>
					<dim>56</dim>
					<dim>56</dim>
				</port>
			</output>
		</layer>
		<layer id="137" name="16531657_const" type="Const" version="opset1">
			<data element_type="f16" offset="880" shape="" size="2"/>
			<output>
				<port id="1" precision="FP16"/>
			</output>
		</layer>
		<layer id="138" name="16541658_const" type="Const" version="opset1">
			<data element_type="f16" offset="15864" shape="" size="2"/>
			<output>
				<port id="1" precision="FP16"/>
			</output>
		</layer>
		<layer id="139" name="16551659_const" type="Const" version="opset1">
			<data element_type="f16" offset="880" shape="" size="2"/>
			<output>
				<port id="1" precision="FP16"/>
			</output>
		</layer>
		<layer id="140" name="16561660_const" type="Const" version="opset1">
			<data element_type="f16" offset="15864" shape="" size="2"/>
			<output>
				<port id="1" precision="FP16"/>
			</output>
		</layer>
		<layer id="141" name="384/fq_input_0" type="FakeQuantize" version="opset1">
			<data levels="256"/>
			<input>
				<port id="0">
					<dim>1</dim>
					<dim>144</dim>
					<dim>56</dim>
					<dim>56</dim>
				</port>
				<port id="1"/>
				<port id="2"/>
				<port id="3"/>
				<port id="4"/>
			</input>
			<output>
				<port id="5" precision="FP16">
					<dim>1</dim>
					<dim>144</dim>
					<dim>56</dim>
					<dim>56</dim>
				</port>
			</output>
		</layer>
		<layer id="142" name="encoder_384/fq_weights_1/Convert_to_float/Cast_04999_const" type="Const" version="opset1">
			<data element_type="u8" offset="15866" shape="24,144,1,1" size="3456"/>
			<output>
				<port id="1" precision="U8">
					<dim>24</dim>
					<dim>144</dim>
					<dim>1</dim>
					<dim>1</dim>
				</port>
			</output>
		</layer>
		<layer id="143" name="384/fq_weights_1/Convert_to_float" type="Convert" version="opset1">
			<data destination_type="f16"/>
			<input>
				<port id="0">
					<dim>24</dim>
					<dim>144</dim>
					<dim>1</dim>
					<dim>1</dim>
				</port>
			</input>
			<output>
				<port id="1" precision="FP16">
					<dim>24</dim>
					<dim>144</dim>
					<dim>1</dim>
					<dim>1</dim>
				</port>
			</output>
		</layer>
		<layer id="144" name="encoder_384/fq_weights_1/Copy/out_low4269_const" type="Const" version="opset1">
			<data element_type="f16" offset="880" shape="1" size="2"/>
			<output>
				<port id="1" precision="FP16">
					<dim>1</dim>
				</port>
			</output>
		</layer>
		<layer id="145" name="encoder_384/fq_weights_1/Copy/out_high4270_const" type="Const" version="opset1">
			<data element_type="f16" offset="882" shape="1" size="2"/>
			<output>
				<port id="1" precision="FP16">
					<dim>1</dim>
				</port>
			</output>
		</layer>
		<layer id="146" name="16651669_const" type="Const" version="opset1">
			<data element_type="f16" offset="19322" shape="24,1,1,1" size="48"/>
			<output>
				<port id="1" precision="FP16">
					<dim>24</dim>
					<dim>1</dim>
					<dim>1</dim>
					<dim>1</dim>
				</port>
			</output>
		</layer>
		<layer id="147" name="16661670_const" type="Const" version="opset1">
			<data element_type="f16" offset="19370" shape="24,1,1,1" size="48"/>
			<output>
				<port id="1" precision="FP16">
					<dim>24</dim>
					<dim>1</dim>
					<dim>1</dim>
					<dim>1</dim>
				</port>
			</output>
		</layer>
		<layer id="148" name="384/fq_weights_1" type="FakeQuantize" version="opset1">
			<data levels="255"/>
			<input>
				<port id="0">
					<dim>24</dim>
					<dim>144</dim>
					<dim>1</dim>
					<dim>1</dim>
				</port>
				<port id="1">
					<dim>1</dim>
				</port>
				<port id="2">
					<dim>1</dim>
				</port>
				<port id="3">
					<dim>24</dim>
					<dim>1</dim>
					<dim>1</dim>
					<dim>1</dim>
				</port>
				<port id="4">
					<dim>24</dim>
					<dim>1</dim>
					<dim>1</dim>
					<dim>1</dim>
				</port>
			</input>
			<output>
				<port id="5" precision="FP16">
					<dim>24</dim>
					<dim>144</dim>
					<dim>1</dim>
					<dim>1</dim>
				</port>
			</output>
		</layer>
		<layer id="149" name="384" type="Convolution" version="opset1">
			<data dilations="1,1" output_padding="0,0" pads_begin="0,0" pads_end="0,0" strides="1,1"/>
			<input>
				<port id="0">
					<dim>1</dim>
					<dim>144</dim>
					<dim>56</dim>
					<dim>56</dim>
				</port>
				<port id="1">
					<dim>24</dim>
					<dim>144</dim>
					<dim>1</dim>
					<dim>1</dim>
				</port>
			</input>
			<output>
				<port id="2" precision="FP16">
					<dim>1</dim>
					<dim>24</dim>
					<dim>56</dim>
					<dim>56</dim>
				</port>
			</output>
		</layer>
		<layer id="150" name="data_add_88948899/copy_const310_const" type="Const" version="opset1">
			<data element_type="f16" offset="19418" shape="1,24,1,1" size="48"/>
			<output>
				<port id="1" precision="FP16">
					<dim>1</dim>
					<dim>24</dim>
					<dim>1</dim>
					<dim>1</dim>
				</port>
			</output>
		</layer>
		<layer id="151" name="385/variance/Fused_Add_" type="Add" version="opset1">
			<input>
				<port id="0">
					<dim>1</dim>
					<dim>24</dim>
					<dim>56</dim>
					<dim>56</dim>
				</port>
				<port id="1">
					<dim>1</dim>
					<dim>24</dim>
					<dim>1</dim>
					<dim>1</dim>
				</port>
			</input>
			<output>
				<port id="2" precision="FP16">
					<dim>1</dim>
					<dim>24</dim>
					<dim>56</dim>
					<dim>56</dim>
				</port>
			</output>
		</layer>
		<layer id="152" name="19931997_const" type="Const" version="opset1">
			<data element_type="f16" offset="19466" shape="" size="2"/>
			<output>
				<port id="1" precision="FP16"/>
			</output>
		</layer>
		<layer id="153" name="19941998_const" type="Const" version="opset1">
			<data element_type="f16" offset="19468" shape="" size="2"/>
			<output>
				<port id="1" precision="FP16"/>
			</output>
		</layer>
		<layer id="154" name="19951999_const" type="Const" version="opset1">
			<data element_type="f16" offset="19466" shape="" size="2"/>
			<output>
				<port id="1" precision="FP16"/>
			</output>
		</layer>
		<layer id="155" name="19962000_const" type="Const" version="opset1">
			<data element_type="f16" offset="19468" shape="" size="2"/>
			<output>
				<port id="1" precision="FP16"/>
			</output>
		</layer>
		<layer id="156" name="386/fq_input_1" type="FakeQuantize" version="opset1">
			<data levels="256"/>
			<input>
				<port id="0">
					<dim>1</dim>
					<dim>24</dim>
					<dim>56</dim>
					<dim>56</dim>
				</port>
				<port id="1"/>
				<port id="2"/>
				<port id="3"/>
				<port id="4"/>
			</input>
			<output>
				<port id="5" precision="FP16">
					<dim>1</dim>
					<dim>24</dim>
					<dim>56</dim>
					<dim>56</dim>
				</port>
			</output>
		</layer>
		<layer id="157" name="386" type="Add" version="opset1">
			<input>
				<port id="0">
					<dim>1</dim>
					<dim>24</dim>
					<dim>56</dim>
					<dim>56</dim>
				</port>
				<port id="1">
					<dim>1</dim>
					<dim>24</dim>
					<dim>56</dim>
					<dim>56</dim>
				</port>
			</input>
			<output>
				<port id="2" precision="FP16">
					<dim>1</dim>
					<dim>24</dim>
					<dim>56</dim>
					<dim>56</dim>
				</port>
			</output>
		</layer>
		<layer id="158" name="11131117_const" type="Const" version="opset1">
			<data element_type="f16" offset="19470" shape="" size="2"/>
			<output>
				<port id="1" precision="FP16"/>
			</output>
		</layer>
		<layer id="159" name="11141118_const" type="Const" version="opset1">
			<data element_type="f16" offset="19472" shape="" size="2"/>
			<output>
				<port id="1" precision="FP16"/>
			</output>
		</layer>
		<layer id="160" name="11151119_const" type="Const" version="opset1">
			<data element_type="f16" offset="19470" shape="" size="2"/>
			<output>
				<port id="1" precision="FP16"/>
			</output>
		</layer>
		<layer id="161" name="11161120_const" type="Const" version="opset1">
			<data element_type="f16" offset="19472" shape="" size="2"/>
			<output>
				<port id="1" precision="FP16"/>
			</output>
		</layer>
		<layer id="162" name="387/fq_input_0" type="FakeQuantize" version="opset1">
			<data levels="256"/>
			<input>
				<port id="0">
					<dim>1</dim>
					<dim>24</dim>
					<dim>56</dim>
					<dim>56</dim>
				</port>
				<port id="1"/>
				<port id="2"/>
				<port id="3"/>
				<port id="4"/>
			</input>
			<output>
				<port id="5" precision="FP16">
					<dim>1</dim>
					<dim>24</dim>
					<dim>56</dim>
					<dim>56</dim>
				</port>
			</output>
		</layer>
		<layer id="163" name="encoder_387/fq_weights_1/Convert_to_float/Cast_04955_const" type="Const" version="opset1">
			<data element_type="u8" offset="19474" shape="144,24,1,1" size="3456"/>
			<output>
				<port id="1" precision="U8">
					<dim>144</dim>
					<dim>24</dim>
					<dim>1</dim>
					<dim>1</dim>
				</port>
			</output>
		</layer>
		<layer id="164" name="387/fq_weights_1/Convert_to_float" type="Convert" version="opset1">
			<data destination_type="f16"/>
			<input>
				<port id="0">
					<dim>144</dim>
					<dim>24</dim>
					<dim>1</dim>
					<dim>1</dim>
				</port>
			</input>
			<output>
				<port id="1" precision="FP16">
					<dim>144</dim>
					<dim>24</dim>
					<dim>1</dim>
					<dim>1</dim>
				</port>
			</output>
		</layer>
		<layer id="165" name="encoder_387/fq_weights_1/Copy/out_low4245_const" type="Const" version="opset1">
			<data element_type="f16" offset="880" shape="1" size="2"/>
			<output>
				<port id="1" precision="FP16">
					<dim>1</dim>
				</port>
			</output>
		</layer>
		<layer id="166" name="encoder_387/fq_weights_1/Copy/out_high4246_const" type="Const" version="opset1">
			<data element_type="f16" offset="882" shape="1" size="2"/>
			<output>
				<port id="1" precision="FP16">
					<dim>1</dim>
				</port>
			</output>
		</layer>
		<layer id="167" name="11251129_const" type="Const" version="opset1">
			<data element_type="f16" offset="22930" shape="144,1,1,1" size="288"/>
			<output>
				<port id="1" precision="FP16">
					<dim>144</dim>
					<dim>1</dim>
					<dim>1</dim>
					<dim>1</dim>
				</port>
			</output>
		</layer>
		<layer id="168" name="11261130_const" type="Const" version="opset1">
			<data element_type="f16" offset="23218" shape="144,1,1,1" size="288"/>
			<output>
				<port id="1" precision="FP16">
					<dim>144</dim>
					<dim>1</dim>
					<dim>1</dim>
					<dim>1</dim>
				</port>
			</output>
		</layer>
		<layer id="169" name="387/fq_weights_1" type="FakeQuantize" version="opset1">
			<data levels="255"/>
			<input>
				<port id="0">
					<dim>144</dim>
					<dim>24</dim>
					<dim>1</dim>
					<dim>1</dim>
				</port>
				<port id="1">
					<dim>1</dim>
				</port>
				<port id="2">
					<dim>1</dim>
				</port>
				<port id="3">
					<dim>144</dim>
					<dim>1</dim>
					<dim>1</dim>
					<dim>1</dim>
				</port>
				<port id="4">
					<dim>144</dim>
					<dim>1</dim>
					<dim>1</dim>
					<dim>1</dim>
				</port>
			</input>
			<output>
				<port id="5" precision="FP16">
					<dim>144</dim>
					<dim>24</dim>
					<dim>1</dim>
					<dim>1</dim>
				</port>
			</output>
		</layer>
		<layer id="170" name="387" type="Convolution" version="opset1">
			<data dilations="1,1" output_padding="0,0" pads_begin="0,0" pads_end="0,0" strides="1,1"/>
			<input>
				<port id="0">
					<dim>1</dim>
					<dim>24</dim>
					<dim>56</dim>
					<dim>56</dim>
				</port>
				<port id="1">
					<dim>144</dim>
					<dim>24</dim>
					<dim>1</dim>
					<dim>1</dim>
				</port>
			</input>
			<output>
				<port id="2" precision="FP16">
					<dim>1</dim>
					<dim>144</dim>
					<dim>56</dim>
					<dim>56</dim>
				</port>
			</output>
		</layer>
		<layer id="171" name="data_add_89028907/copy_const315_const" type="Const" version="opset1">
			<data element_type="f16" offset="23506" shape="1,144,1,1" size="288"/>
			<output>
				<port id="1" precision="FP16">
					<dim>1</dim>
					<dim>144</dim>
					<dim>1</dim>
					<dim>1</dim>
				</port>
			</output>
		</layer>
		<layer id="172" name="388/variance/Fused_Add_" type="Add" version="opset1">
			<input>
				<port id="0">
					<dim>1</dim>
					<dim>144</dim>
					<dim>56</dim>
					<dim>56</dim>
				</port>
				<port id="1">
					<dim>1</dim>
					<dim>144</dim>
					<dim>1</dim>
					<dim>1</dim>
				</port>
			</input>
			<output>
				<port id="2" precision="FP16">
					<dim>1</dim>
					<dim>144</dim>
					<dim>56</dim>
					<dim>56</dim>
				</port>
			</output>
		</layer>
		<layer id="173" name="389" type="ReLU" version="opset1">
			<input>
				<port id="0">
					<dim>1</dim>
					<dim>144</dim>
					<dim>56</dim>
					<dim>56</dim>
				</port>
			</input>
			<output>
				<port id="1" precision="FP16">
					<dim>1</dim>
					<dim>144</dim>
					<dim>56</dim>
					<dim>56</dim>
				</port>
			</output>
		</layer>
		<layer id="174" name="10931097_const" type="Const" version="opset1">
			<data element_type="f16" offset="13088" shape="1,144,1,1" size="288"/>
			<output>
				<port id="1" precision="FP16">
					<dim>1</dim>
					<dim>144</dim>
					<dim>1</dim>
					<dim>1</dim>
				</port>
			</output>
		</layer>
		<layer id="175" name="10941098_const" type="Const" version="opset1">
			<data element_type="f16" offset="23794" shape="1,144,1,1" size="288"/>
			<output>
				<port id="1" precision="FP16">
					<dim>1</dim>
					<dim>144</dim>
					<dim>1</dim>
					<dim>1</dim>
				</port>
			</output>
		</layer>
		<layer id="176" name="10951099_const" type="Const" version="opset1">
			<data element_type="f16" offset="13088" shape="1,144,1,1" size="288"/>
			<output>
				<port id="1" precision="FP16">
					<dim>1</dim>
					<dim>144</dim>
					<dim>1</dim>
					<dim>1</dim>
				</port>
			</output>
		</layer>
		<layer id="177" name="10961100_const" type="Const" version="opset1">
			<data element_type="f16" offset="23794" shape="1,144,1,1" size="288"/>
			<output>
				<port id="1" precision="FP16">
					<dim>1</dim>
					<dim>144</dim>
					<dim>1</dim>
					<dim>1</dim>
				</port>
			</output>
		</layer>
		<layer id="178" name="390/fq_input_0" type="FakeQuantize" version="opset1">
			<data levels="256"/>
			<input>
				<port id="0">
					<dim>1</dim>
					<dim>144</dim>
					<dim>56</dim>
					<dim>56</dim>
				</port>
				<port id="1">
					<dim>1</dim>
					<dim>144</dim>
					<dim>1</dim>
					<dim>1</dim>
				</port>
				<port id="2">
					<dim>1</dim>
					<dim>144</dim>
					<dim>1</dim>
					<dim>1</dim>
				</port>
				<port id="3">
					<dim>1</dim>
					<dim>144</dim>
					<dim>1</dim>
					<dim>1</dim>
				</port>
				<port id="4">
					<dim>1</dim>
					<dim>144</dim>
					<dim>1</dim>
					<dim>1</dim>
				</port>
			</input>
			<output>
				<port id="5" precision="FP16">
					<dim>1</dim>
					<dim>144</dim>
					<dim>56</dim>
					<dim>56</dim>
				</port>
			</output>
		</layer>
		<layer id="179" name="encoder_390/fq_weights_1/Convert_to_float/Cast_04975_const" type="Const" version="opset1">
			<data element_type="u8" offset="24082" shape="144,1,3,3" size="1296"/>
			<output>
				<port id="1" precision="U8">
					<dim>144</dim>
					<dim>1</dim>
					<dim>3</dim>
					<dim>3</dim>
				</port>
			</output>
		</layer>
		<layer id="180" name="390/fq_weights_1/Convert_to_float" type="Convert" version="opset1">
			<data destination_type="f16"/>
			<input>
				<port id="0">
					<dim>144</dim>
					<dim>1</dim>
					<dim>3</dim>
					<dim>3</dim>
				</port>
			</input>
			<output>
				<port id="1" precision="FP16">
					<dim>144</dim>
					<dim>1</dim>
					<dim>3</dim>
					<dim>3</dim>
				</port>
			</output>
		</layer>
		<layer id="181" name="encoder_390/fq_weights_1/Copy/out_low4101_const" type="Const" version="opset1">
			<data element_type="f16" offset="880" shape="1" size="2"/>
			<output>
				<port id="1" precision="FP16">
					<dim>1</dim>
				</port>
			</output>
		</layer>
		<layer id="182" name="encoder_390/fq_weights_1/Copy/out_high4102_const" type="Const" version="opset1">
			<data element_type="f16" offset="882" shape="1" size="2"/>
			<output>
				<port id="1" precision="FP16">
					<dim>1</dim>
				</port>
			</output>
		</layer>
		<layer id="183" name="11051109_const" type="Const" version="opset1">
			<data element_type="f16" offset="25378" shape="144,1,1,1" size="288"/>
			<output>
				<port id="1" precision="FP16">
					<dim>144</dim>
					<dim>1</dim>
					<dim>1</dim>
					<dim>1</dim>
				</port>
			</output>
		</layer>
		<layer id="184" name="11061110_const" type="Const" version="opset1">
			<data element_type="f16" offset="25666" shape="144,1,1,1" size="288"/>
			<output>
				<port id="1" precision="FP16">
					<dim>144</dim>
					<dim>1</dim>
					<dim>1</dim>
					<dim>1</dim>
				</port>
			</output>
		</layer>
		<layer id="185" name="390/fq_weights_1" type="FakeQuantize" version="opset1">
			<data levels="255"/>
			<input>
				<port id="0">
					<dim>144</dim>
					<dim>1</dim>
					<dim>3</dim>
					<dim>3</dim>
				</port>
				<port id="1">
					<dim>1</dim>
				</port>
				<port id="2">
					<dim>1</dim>
				</port>
				<port id="3">
					<dim>144</dim>
					<dim>1</dim>
					<dim>1</dim>
					<dim>1</dim>
				</port>
				<port id="4">
					<dim>144</dim>
					<dim>1</dim>
					<dim>1</dim>
					<dim>1</dim>
				</port>
			</input>
			<output>
				<port id="5" precision="FP16">
					<dim>144</dim>
					<dim>1</dim>
					<dim>3</dim>
					<dim>3</dim>
				</port>
			</output>
		</layer>
		<layer id="186" name="5660/value5662_const" type="Const" version="opset1">
			<data element_type="i64" offset="15536" shape="5" size="40"/>
			<output>
				<port id="1" precision="I64">
					<dim>5</dim>
				</port>
			</output>
		</layer>
		<layer id="187" name="5660" type="Reshape" version="opset1">
			<data special_zero="True"/>
			<input>
				<port id="0">
					<dim>144</dim>
					<dim>1</dim>
					<dim>3</dim>
					<dim>3</dim>
				</port>
				<port id="1">
					<dim>5</dim>
				</port>
			</input>
			<output>
				<port id="2" precision="FP16">
					<dim>144</dim>
					<dim>1</dim>
					<dim>1</dim>
					<dim>3</dim>
					<dim>3</dim>
				</port>
			</output>
		</layer>
		<layer id="188" name="390" type="GroupConvolution" version="opset1">
			<data dilations="1,1" output_padding="0,0" pads_begin="1,1" pads_end="1,1" strides="2,2"/>
			<input>
				<port id="0">
					<dim>1</dim>
					<dim>144</dim>
					<dim>56</dim>
					<dim>56</dim>
				</port>
				<port id="1">
					<dim>144</dim>
					<dim>1</dim>
					<dim>1</dim>
					<dim>3</dim>
					<dim>3</dim>
				</port>
			</input>
			<output>
				<port id="2" precision="FP16">
					<dim>1</dim>
					<dim>144</dim>
					<dim>28</dim>
					<dim>28</dim>
				</port>
			</output>
		</layer>
		<layer id="189" name="data_add_89108915/copy_const320_const" type="Const" version="opset1">
			<data element_type="f16" offset="25954" shape="1,144,1,1" size="288"/>
			<output>
				<port id="1" precision="FP16">
					<dim>1</dim>
					<dim>144</dim>
					<dim>1</dim>
					<dim>1</dim>
				</port>
			</output>
		</layer>
		<layer id="190" name="391/variance/Fused_Add_" type="Add" version="opset1">
			<input>
				<port id="0">
					<dim>1</dim>
					<dim>144</dim>
					<dim>28</dim>
					<dim>28</dim>
				</port>
				<port id="1">
					<dim>1</dim>
					<dim>144</dim>
					<dim>1</dim>
					<dim>1</dim>
				</port>
			</input>
			<output>
				<port id="2" precision="FP16">
					<dim>1</dim>
					<dim>144</dim>
					<dim>28</dim>
					<dim>28</dim>
				</port>
			</output>
		</layer>
		<layer id="191" name="392" type="ReLU" version="opset1">
			<input>
				<port id="0">
					<dim>1</dim>
					<dim>144</dim>
					<dim>28</dim>
					<dim>28</dim>
				</port>
			</input>
			<output>
				<port id="1" precision="FP16">
					<dim>1</dim>
					<dim>144</dim>
					<dim>28</dim>
					<dim>28</dim>
				</port>
			</output>
		</layer>
		<layer id="192" name="13931397_const" type="Const" version="opset1">
			<data element_type="f16" offset="880" shape="" size="2"/>
			<output>
				<port id="1" precision="FP16"/>
			</output>
		</layer>
		<layer id="193" name="13941398_const" type="Const" version="opset1">
			<data element_type="f16" offset="26242" shape="" size="2"/>
			<output>
				<port id="1" precision="FP16"/>
			</output>
		</layer>
		<layer id="194" name="13951399_const" type="Const" version="opset1">
			<data element_type="f16" offset="880" shape="" size="2"/>
			<output>
				<port id="1" precision="FP16"/>
			</output>
		</layer>
		<layer id="195" name="13961400_const" type="Const" version="opset1">
			<data element_type="f16" offset="26242" shape="" size="2"/>
			<output>
				<port id="1" precision="FP16"/>
			</output>
		</layer>
		<layer id="196" name="393/fq_input_0" type="FakeQuantize" version="opset1">
			<data levels="256"/>
			<input>
				<port id="0">
					<dim>1</dim>
					<dim>144</dim>
					<dim>28</dim>
					<dim>28</dim>
				</port>
				<port id="1"/>
				<port id="2"/>
				<port id="3"/>
				<port id="4"/>
			</input>
			<output>
				<port id="5" precision="FP16">
					<dim>1</dim>
					<dim>144</dim>
					<dim>28</dim>
					<dim>28</dim>
				</port>
			</output>
		</layer>
		<layer id="197" name="encoder_393/fq_weights_1/Convert_to_float/Cast_04961_const" type="Const" version="opset1">
			<data element_type="u8" offset="26244" shape="32,144,1,1" size="4608"/>
			<output>
				<port id="1" precision="U8">
					<dim>32</dim>
					<dim>144</dim>
					<dim>1</dim>
					<dim>1</dim>
				</port>
			</output>
		</layer>
		<layer id="198" name="393/fq_weights_1/Convert_to_float" type="Convert" version="opset1">
			<data destination_type="f16"/>
			<input>
				<port id="0">
					<dim>32</dim>
					<dim>144</dim>
					<dim>1</dim>
					<dim>1</dim>
				</port>
			</input>
			<output>
				<port id="1" precision="FP16">
					<dim>32</dim>
					<dim>144</dim>
					<dim>1</dim>
					<dim>1</dim>
				</port>
			</output>
		</layer>
		<layer id="199" name="encoder_393/fq_weights_1/Copy/out_low3957_const" type="Const" version="opset1">
			<data element_type="f16" offset="880" shape="1" size="2"/>
			<output>
				<port id="1" precision="FP16">
					<dim>1</dim>
				</port>
			</output>
		</layer>
		<layer id="200" name="encoder_393/fq_weights_1/Copy/out_high3958_const" type="Const" version="opset1">
			<data element_type="f16" offset="882" shape="1" size="2"/>
			<output>
				<port id="1" precision="FP16">
					<dim>1</dim>
				</port>
			</output>
		</layer>
		<layer id="201" name="14051409_const" type="Const" version="opset1">
			<data element_type="f16" offset="30852" shape="32,1,1,1" size="64"/>
			<output>
				<port id="1" precision="FP16">
					<dim>32</dim>
					<dim>1</dim>
					<dim>1</dim>
					<dim>1</dim>
				</port>
			</output>
		</layer>
		<layer id="202" name="14061410_const" type="Const" version="opset1">
			<data element_type="f16" offset="30916" shape="32,1,1,1" size="64"/>
			<output>
				<port id="1" precision="FP16">
					<dim>32</dim>
					<dim>1</dim>
					<dim>1</dim>
					<dim>1</dim>
				</port>
			</output>
		</layer>
		<layer id="203" name="393/fq_weights_1" type="FakeQuantize" version="opset1">
			<data levels="255"/>
			<input>
				<port id="0">
					<dim>32</dim>
					<dim>144</dim>
					<dim>1</dim>
					<dim>1</dim>
				</port>
				<port id="1">
					<dim>1</dim>
				</port>
				<port id="2">
					<dim>1</dim>
				</port>
				<port id="3">
					<dim>32</dim>
					<dim>1</dim>
					<dim>1</dim>
					<dim>1</dim>
				</port>
				<port id="4">
					<dim>32</dim>
					<dim>1</dim>
					<dim>1</dim>
					<dim>1</dim>
				</port>
			</input>
			<output>
				<port id="5" precision="FP16">
					<dim>32</dim>
					<dim>144</dim>
					<dim>1</dim>
					<dim>1</dim>
				</port>
			</output>
		</layer>
		<layer id="204" name="393" type="Convolution" version="opset1">
			<data dilations="1,1" output_padding="0,0" pads_begin="0,0" pads_end="0,0" strides="1,1"/>
			<input>
				<port id="0">
					<dim>1</dim>
					<dim>144</dim>
					<dim>28</dim>
					<dim>28</dim>
				</port>
				<port id="1">
					<dim>32</dim>
					<dim>144</dim>
					<dim>1</dim>
					<dim>1</dim>
				</port>
			</input>
			<output>
				<port id="2" precision="FP16">
					<dim>1</dim>
					<dim>32</dim>
					<dim>28</dim>
					<dim>28</dim>
				</port>
			</output>
		</layer>
		<layer id="205" name="data_add_89188923/copy_const325_const" type="Const" version="opset1">
			<data element_type="f16" offset="30980" shape="1,32,1,1" size="64"/>
			<output>
				<port id="1" precision="FP16">
					<dim>1</dim>
					<dim>32</dim>
					<dim>1</dim>
					<dim>1</dim>
				</port>
			</output>
		</layer>
		<layer id="206" name="394/variance/Fused_Add_" type="Add" version="opset1">
			<input>
				<port id="0">
					<dim>1</dim>
					<dim>32</dim>
					<dim>28</dim>
					<dim>28</dim>
				</port>
				<port id="1">
					<dim>1</dim>
					<dim>32</dim>
					<dim>1</dim>
					<dim>1</dim>
				</port>
			</input>
			<output>
				<port id="2" precision="FP16">
					<dim>1</dim>
					<dim>32</dim>
					<dim>28</dim>
					<dim>28</dim>
				</port>
			</output>
		</layer>
		<layer id="207" name="15731577_const" type="Const" version="opset1">
			<data element_type="f16" offset="31044" shape="" size="2"/>
			<output>
				<port id="1" precision="FP16"/>
			</output>
		</layer>
		<layer id="208" name="15741578_const" type="Const" version="opset1">
			<data element_type="f16" offset="31046" shape="" size="2"/>
			<output>
				<port id="1" precision="FP16"/>
			</output>
		</layer>
		<layer id="209" name="15751579_const" type="Const" version="opset1">
			<data element_type="f16" offset="31044" shape="" size="2"/>
			<output>
				<port id="1" precision="FP16"/>
			</output>
		</layer>
		<layer id="210" name="15761580_const" type="Const" version="opset1">
			<data element_type="f16" offset="31046" shape="" size="2"/>
			<output>
				<port id="1" precision="FP16"/>
			</output>
		</layer>
		<layer id="211" name="395/fq_input_0" type="FakeQuantize" version="opset1">
			<data levels="256"/>
			<input>
				<port id="0">
					<dim>1</dim>
					<dim>32</dim>
					<dim>28</dim>
					<dim>28</dim>
				</port>
				<port id="1"/>
				<port id="2"/>
				<port id="3"/>
				<port id="4"/>
			</input>
			<output>
				<port id="5" precision="FP16">
					<dim>1</dim>
					<dim>32</dim>
					<dim>28</dim>
					<dim>28</dim>
				</port>
			</output>
		</layer>
		<layer id="212" name="encoder_395/fq_weights_1/Convert_to_float/Cast_04963_const" type="Const" version="opset1">
			<data element_type="u8" offset="31048" shape="192,32,1,1" size="6144"/>
			<output>
				<port id="1" precision="U8">
					<dim>192</dim>
					<dim>32</dim>
					<dim>1</dim>
					<dim>1</dim>
				</port>
			</output>
		</layer>
		<layer id="213" name="395/fq_weights_1/Convert_to_float" type="Convert" version="opset1">
			<data destination_type="f16"/>
			<input>
				<port id="0">
					<dim>192</dim>
					<dim>32</dim>
					<dim>1</dim>
					<dim>1</dim>
				</port>
			</input>
			<output>
				<port id="1" precision="FP16">
					<dim>192</dim>
					<dim>32</dim>
					<dim>1</dim>
					<dim>1</dim>
				</port>
			</output>
		</layer>
		<layer id="214" name="encoder_395/fq_weights_1/Copy/out_low3981_const" type="Const" version="opset1">
			<data element_type="f16" offset="880" shape="1" size="2"/>
			<output>
				<port id="1" precision="FP16">
					<dim>1</dim>
				</port>
			</output>
		</layer>
		<layer id="215" name="encoder_395/fq_weights_1/Copy/out_high3982_const" type="Const" version="opset1">
			<data element_type="f16" offset="882" shape="1" size="2"/>
			<output>
				<port id="1" precision="FP16">
					<dim>1</dim>
				</port>
			</output>
		</layer>
		<layer id="216" name="15851589_const" type="Const" version="opset1">
			<data element_type="f16" offset="37192" shape="192,1,1,1" size="384"/>
			<output>
				<port id="1" precision="FP16">
					<dim>192</dim>
					<dim>1</dim>
					<dim>1</dim>
					<dim>1</dim>
				</port>
			</output>
		</layer>
		<layer id="217" name="15861590_const" type="Const" version="opset1">
			<data element_type="f16" offset="37576" shape="192,1,1,1" size="384"/>
			<output>
				<port id="1" precision="FP16">
					<dim>192</dim>
					<dim>1</dim>
					<dim>1</dim>
					<dim>1</dim>
				</port>
			</output>
		</layer>
		<layer id="218" name="395/fq_weights_1" type="FakeQuantize" version="opset1">
			<data levels="255"/>
			<input>
				<port id="0">
					<dim>192</dim>
					<dim>32</dim>
					<dim>1</dim>
					<dim>1</dim>
				</port>
				<port id="1">
					<dim>1</dim>
				</port>
				<port id="2">
					<dim>1</dim>
				</port>
				<port id="3">
					<dim>192</dim>
					<dim>1</dim>
					<dim>1</dim>
					<dim>1</dim>
				</port>
				<port id="4">
					<dim>192</dim>
					<dim>1</dim>
					<dim>1</dim>
					<dim>1</dim>
				</port>
			</input>
			<output>
				<port id="5" precision="FP16">
					<dim>192</dim>
					<dim>32</dim>
					<dim>1</dim>
					<dim>1</dim>
				</port>
			</output>
		</layer>
		<layer id="219" name="395" type="Convolution" version="opset1">
			<data dilations="1,1" output_padding="0,0" pads_begin="0,0" pads_end="0,0" strides="1,1"/>
			<input>
				<port id="0">
					<dim>1</dim>
					<dim>32</dim>
					<dim>28</dim>
					<dim>28</dim>
				</port>
				<port id="1">
					<dim>192</dim>
					<dim>32</dim>
					<dim>1</dim>
					<dim>1</dim>
				</port>
			</input>
			<output>
				<port id="2" precision="FP16">
					<dim>1</dim>
					<dim>192</dim>
					<dim>28</dim>
					<dim>28</dim>
				</port>
			</output>
		</layer>
		<layer id="220" name="data_add_89268931/copy_const329_const" type="Const" version="opset1">
			<data element_type="f16" offset="37960" shape="1,192,1,1" size="384"/>
			<output>
				<port id="1" precision="FP16">
					<dim>1</dim>
					<dim>192</dim>
					<dim>1</dim>
					<dim>1</dim>
				</port>
			</output>
		</layer>
		<layer id="221" name="396/variance/Fused_Add_" type="Add" version="opset1">
			<input>
				<port id="0">
					<dim>1</dim>
					<dim>192</dim>
					<dim>28</dim>
					<dim>28</dim>
				</port>
				<port id="1">
					<dim>1</dim>
					<dim>192</dim>
					<dim>1</dim>
					<dim>1</dim>
				</port>
			</input>
			<output>
				<port id="2" precision="FP16">
					<dim>1</dim>
					<dim>192</dim>
					<dim>28</dim>
					<dim>28</dim>
				</port>
			</output>
		</layer>
		<layer id="222" name="397" type="ReLU" version="opset1">
			<input>
				<port id="0">
					<dim>1</dim>
					<dim>192</dim>
					<dim>28</dim>
					<dim>28</dim>
				</port>
			</input>
			<output>
				<port id="1" precision="FP16">
					<dim>1</dim>
					<dim>192</dim>
					<dim>28</dim>
					<dim>28</dim>
				</port>
			</output>
		</layer>
		<layer id="223" name="17531757_const" type="Const" version="opset1">
			<data element_type="f16" offset="38344" shape="1,192,1,1" size="384"/>
			<output>
				<port id="1" precision="FP16">
					<dim>1</dim>
					<dim>192</dim>
					<dim>1</dim>
					<dim>1</dim>
				</port>
			</output>
		</layer>
		<layer id="224" name="17541758_const" type="Const" version="opset1">
			<data element_type="f16" offset="38728" shape="1,192,1,1" size="384"/>
			<output>
				<port id="1" precision="FP16">
					<dim>1</dim>
					<dim>192</dim>
					<dim>1</dim>
					<dim>1</dim>
				</port>
			</output>
		</layer>
		<layer id="225" name="17551759_const" type="Const" version="opset1">
			<data element_type="f16" offset="38344" shape="1,192,1,1" size="384"/>
			<output>
				<port id="1" precision="FP16">
					<dim>1</dim>
					<dim>192</dim>
					<dim>1</dim>
					<dim>1</dim>
				</port>
			</output>
		</layer>
		<layer id="226" name="17561760_const" type="Const" version="opset1">
			<data element_type="f16" offset="38728" shape="1,192,1,1" size="384"/>
			<output>
				<port id="1" precision="FP16">
					<dim>1</dim>
					<dim>192</dim>
					<dim>1</dim>
					<dim>1</dim>
				</port>
			</output>
		</layer>
		<layer id="227" name="398/fq_input_0" type="FakeQuantize" version="opset1">
			<data levels="256"/>
			<input>
				<port id="0">
					<dim>1</dim>
					<dim>192</dim>
					<dim>28</dim>
					<dim>28</dim>
				</port>
				<port id="1">
					<dim>1</dim>
					<dim>192</dim>
					<dim>1</dim>
					<dim>1</dim>
				</port>
				<port id="2">
					<dim>1</dim>
					<dim>192</dim>
					<dim>1</dim>
					<dim>1</dim>
				</port>
				<port id="3">
					<dim>1</dim>
					<dim>192</dim>
					<dim>1</dim>
					<dim>1</dim>
				</port>
				<port id="4">
					<dim>1</dim>
					<dim>192</dim>
					<dim>1</dim>
					<dim>1</dim>
				</port>
			</input>
			<output>
				<port id="5" precision="FP16">
					<dim>1</dim>
					<dim>192</dim>
					<dim>28</dim>
					<dim>28</dim>
				</port>
			</output>
		</layer>
		<layer id="228" name="encoder_398/fq_weights_1/Convert_to_float/Cast_04995_const" type="Const" version="opset1">
			<data element_type="u8" offset="39112" shape="192,1,3,3" size="1728"/>
			<output>
				<port id="1" precision="U8">
					<dim>192</dim>
					<dim>1</dim>
					<dim>3</dim>
					<dim>3</dim>
				</port>
			</output>
		</layer>
		<layer id="229" name="398/fq_weights_1/Convert_to_float" type="Convert" version="opset1">
			<data destination_type="f16"/>
			<input>
				<port id="0">
					<dim>192</dim>
					<dim>1</dim>
					<dim>3</dim>
					<dim>3</dim>
				</port>
			</input>
			<output>
				<port id="1" precision="FP16">
					<dim>192</dim>
					<dim>1</dim>
					<dim>3</dim>
					<dim>3</dim>
				</port>
			</output>
		</layer>
		<layer id="230" name="encoder_398/fq_weights_1/Copy/out_low4349_const" type="Const" version="opset1">
			<data element_type="f16" offset="880" shape="1" size="2"/>
			<output>
				<port id="1" precision="FP16">
					<dim>1</dim>
				</port>
			</output>
		</layer>
		<layer id="231" name="encoder_398/fq_weights_1/Copy/out_high4350_const" type="Const" version="opset1">
			<data element_type="f16" offset="882" shape="1" size="2"/>
			<output>
				<port id="1" precision="FP16">
					<dim>1</dim>
				</port>
			</output>
		</layer>
		<layer id="232" name="17651769_const" type="Const" version="opset1">
			<data element_type="f16" offset="40840" shape="192,1,1,1" size="384"/>
			<output>
				<port id="1" precision="FP16">
					<dim>192</dim>
					<dim>1</dim>
					<dim>1</dim>
					<dim>1</dim>
				</port>
			</output>
		</layer>
		<layer id="233" name="17661770_const" type="Const" version="opset1">
			<data element_type="f16" offset="41224" shape="192,1,1,1" size="384"/>
			<output>
				<port id="1" precision="FP16">
					<dim>192</dim>
					<dim>1</dim>
					<dim>1</dim>
					<dim>1</dim>
				</port>
			</output>
		</layer>
		<layer id="234" name="398/fq_weights_1" type="FakeQuantize" version="opset1">
			<data levels="255"/>
			<input>
				<port id="0">
					<dim>192</dim>
					<dim>1</dim>
					<dim>3</dim>
					<dim>3</dim>
				</port>
				<port id="1">
					<dim>1</dim>
				</port>
				<port id="2">
					<dim>1</dim>
				</port>
				<port id="3">
					<dim>192</dim>
					<dim>1</dim>
					<dim>1</dim>
					<dim>1</dim>
				</port>
				<port id="4">
					<dim>192</dim>
					<dim>1</dim>
					<dim>1</dim>
					<dim>1</dim>
				</port>
			</input>
			<output>
				<port id="5" precision="FP16">
					<dim>192</dim>
					<dim>1</dim>
					<dim>3</dim>
					<dim>3</dim>
				</port>
			</output>
		</layer>
		<layer id="235" name="5668/value5670_const" type="Const" version="opset1">
			<data element_type="i64" offset="41608" shape="5" size="40"/>
			<output>
				<port id="1" precision="I64">
					<dim>5</dim>
				</port>
			</output>
		</layer>
		<layer id="236" name="5668" type="Reshape" version="opset1">
			<data special_zero="True"/>
			<input>
				<port id="0">
					<dim>192</dim>
					<dim>1</dim>
					<dim>3</dim>
					<dim>3</dim>
				</port>
				<port id="1">
					<dim>5</dim>
				</port>
			</input>
			<output>
				<port id="2" precision="FP16">
					<dim>192</dim>
					<dim>1</dim>
					<dim>1</dim>
					<dim>3</dim>
					<dim>3</dim>
				</port>
			</output>
		</layer>
		<layer id="237" name="398" type="GroupConvolution" version="opset1">
			<data dilations="1,1" output_padding="0,0" pads_begin="1,1" pads_end="1,1" strides="1,1"/>
			<input>
				<port id="0">
					<dim>1</dim>
					<dim>192</dim>
					<dim>28</dim>
					<dim>28</dim>
				</port>
				<port id="1">
					<dim>192</dim>
					<dim>1</dim>
					<dim>1</dim>
					<dim>3</dim>
					<dim>3</dim>
				</port>
			</input>
			<output>
				<port id="2" precision="FP16">
					<dim>1</dim>
					<dim>192</dim>
					<dim>28</dim>
					<dim>28</dim>
				</port>
			</output>
		</layer>
		<layer id="238" name="data_add_89348939/copy_const334_const" type="Const" version="opset1">
			<data element_type="f16" offset="41648" shape="1,192,1,1" size="384"/>
			<output>
				<port id="1" precision="FP16">
					<dim>1</dim>
					<dim>192</dim>
					<dim>1</dim>
					<dim>1</dim>
				</port>
			</output>
		</layer>
		<layer id="239" name="399/variance/Fused_Add_" type="Add" version="opset1">
			<input>
				<port id="0">
					<dim>1</dim>
					<dim>192</dim>
					<dim>28</dim>
					<dim>28</dim>
				</port>
				<port id="1">
					<dim>1</dim>
					<dim>192</dim>
					<dim>1</dim>
					<dim>1</dim>
				</port>
			</input>
			<output>
				<port id="2" precision="FP16">
					<dim>1</dim>
					<dim>192</dim>
					<dim>28</dim>
					<dim>28</dim>
				</port>
			</output>
		</layer>
		<layer id="240" name="400" type="ReLU" version="opset1">
			<input>
				<port id="0">
					<dim>1</dim>
					<dim>192</dim>
					<dim>28</dim>
					<dim>28</dim>
				</port>
			</input>
			<output>
				<port id="1" precision="FP16">
					<dim>1</dim>
					<dim>192</dim>
					<dim>28</dim>
					<dim>28</dim>
				</port>
			</output>
		</layer>
		<layer id="241" name="20032007_const" type="Const" version="opset1">
			<data element_type="f16" offset="880" shape="" size="2"/>
			<output>
				<port id="1" precision="FP16"/>
			</output>
		</layer>
		<layer id="242" name="20042008_const" type="Const" version="opset1">
			<data element_type="f16" offset="42032" shape="" size="2"/>
			<output>
				<port id="1" precision="FP16"/>
			</output>
		</layer>
		<layer id="243" name="20052009_const" type="Const" version="opset1">
			<data element_type="f16" offset="880" shape="" size="2"/>
			<output>
				<port id="1" precision="FP16"/>
			</output>
		</layer>
		<layer id="244" name="20062010_const" type="Const" version="opset1">
			<data element_type="f16" offset="42032" shape="" size="2"/>
			<output>
				<port id="1" precision="FP16"/>
			</output>
		</layer>
		<layer id="245" name="401/fq_input_0" type="FakeQuantize" version="opset1">
			<data levels="256"/>
			<input>
				<port id="0">
					<dim>1</dim>
					<dim>192</dim>
					<dim>28</dim>
					<dim>28</dim>
				</port>
				<port id="1"/>
				<port id="2"/>
				<port id="3"/>
				<port id="4"/>
			</input>
			<output>
				<port id="5" precision="FP16">
					<dim>1</dim>
					<dim>192</dim>
					<dim>28</dim>
					<dim>28</dim>
				</port>
			</output>
		</layer>
		<layer id="246" name="encoder_401/fq_weights_1/Convert_to_float/Cast_05009_const" type="Const" version="opset1">
			<data element_type="u8" offset="42034" shape="32,192,1,1" size="6144"/>
			<output>
				<port id="1" precision="U8">
					<dim>32</dim>
					<dim>192</dim>
					<dim>1</dim>
					<dim>1</dim>
				</port>
			</output>
		</layer>
		<layer id="247" name="401/fq_weights_1/Convert_to_float" type="Convert" version="opset1">
			<data destination_type="f16"/>
			<input>
				<port id="0">
					<dim>32</dim>
					<dim>192</dim>
					<dim>1</dim>
					<dim>1</dim>
				</port>
			</input>
			<output>
				<port id="1" precision="FP16">
					<dim>32</dim>
					<dim>192</dim>
					<dim>1</dim>
					<dim>1</dim>
				</port>
			</output>
		</layer>
		<layer id="248" name="encoder_401/fq_weights_1/Copy/out_low4197_const" type="Const" version="opset1">
			<data element_type="f16" offset="880" shape="1" size="2"/>
			<output>
				<port id="1" precision="FP16">
					<dim>1</dim>
				</port>
			</output>
		</layer>
		<layer id="249" name="encoder_401/fq_weights_1/Copy/out_high4198_const" type="Const" version="opset1">
			<data element_type="f16" offset="882" shape="1" size="2"/>
			<output>
				<port id="1" precision="FP16">
					<dim>1</dim>
				</port>
			</output>
		</layer>
		<layer id="250" name="20152019_const" type="Const" version="opset1">
			<data element_type="f16" offset="48178" shape="32,1,1,1" size="64"/>
			<output>
				<port id="1" precision="FP16">
					<dim>32</dim>
					<dim>1</dim>
					<dim>1</dim>
					<dim>1</dim>
				</port>
			</output>
		</layer>
		<layer id="251" name="20162020_const" type="Const" version="opset1">
			<data element_type="f16" offset="48242" shape="32,1,1,1" size="64"/>
			<output>
				<port id="1" precision="FP16">
					<dim>32</dim>
					<dim>1</dim>
					<dim>1</dim>
					<dim>1</dim>
				</port>
			</output>
		</layer>
		<layer id="252" name="401/fq_weights_1" type="FakeQuantize" version="opset1">
			<data levels="255"/>
			<input>
				<port id="0">
					<dim>32</dim>
					<dim>192</dim>
					<dim>1</dim>
					<dim>1</dim>
				</port>
				<port id="1">
					<dim>1</dim>
				</port>
				<port id="2">
					<dim>1</dim>
				</port>
				<port id="3">
					<dim>32</dim>
					<dim>1</dim>
					<dim>1</dim>
					<dim>1</dim>
				</port>
				<port id="4">
					<dim>32</dim>
					<dim>1</dim>
					<dim>1</dim>
					<dim>1</dim>
				</port>
			</input>
			<output>
				<port id="5" precision="FP16">
					<dim>32</dim>
					<dim>192</dim>
					<dim>1</dim>
					<dim>1</dim>
				</port>
			</output>
		</layer>
		<layer id="253" name="401" type="Convolution" version="opset1">
			<data dilations="1,1" output_padding="0,0" pads_begin="0,0" pads_end="0,0" strides="1,1"/>
			<input>
				<port id="0">
					<dim>1</dim>
					<dim>192</dim>
					<dim>28</dim>
					<dim>28</dim>
				</port>
				<port id="1">
					<dim>32</dim>
					<dim>192</dim>
					<dim>1</dim>
					<dim>1</dim>
				</port>
			</input>
			<output>
				<port id="2" precision="FP16">
					<dim>1</dim>
					<dim>32</dim>
					<dim>28</dim>
					<dim>28</dim>
				</port>
			</output>
		</layer>
		<layer id="254" name="data_add_89428947/copy_const339_const" type="Const" version="opset1">
			<data element_type="f16" offset="48306" shape="1,32,1,1" size="64"/>
			<output>
				<port id="1" precision="FP16">
					<dim>1</dim>
					<dim>32</dim>
					<dim>1</dim>
					<dim>1</dim>
				</port>
			</output>
		</layer>
		<layer id="255" name="402/variance/Fused_Add_" type="Add" version="opset1">
			<input>
				<port id="0">
					<dim>1</dim>
					<dim>32</dim>
					<dim>28</dim>
					<dim>28</dim>
				</port>
				<port id="1">
					<dim>1</dim>
					<dim>32</dim>
					<dim>1</dim>
					<dim>1</dim>
				</port>
			</input>
			<output>
				<port id="2" precision="FP16">
					<dim>1</dim>
					<dim>32</dim>
					<dim>28</dim>
					<dim>28</dim>
				</port>
			</output>
		</layer>
		<layer id="256" name="10031007_const" type="Const" version="opset1">
			<data element_type="f16" offset="48370" shape="" size="2"/>
			<output>
				<port id="1" precision="FP16"/>
			</output>
		</layer>
		<layer id="257" name="10041008_const" type="Const" version="opset1">
			<data element_type="f16" offset="48372" shape="" size="2"/>
			<output>
				<port id="1" precision="FP16"/>
			</output>
		</layer>
		<layer id="258" name="10051009_const" type="Const" version="opset1">
			<data element_type="f16" offset="48370" shape="" size="2"/>
			<output>
				<port id="1" precision="FP16"/>
			</output>
		</layer>
		<layer id="259" name="10061010_const" type="Const" version="opset1">
			<data element_type="f16" offset="48372" shape="" size="2"/>
			<output>
				<port id="1" precision="FP16"/>
			</output>
		</layer>
		<layer id="260" name="403/fq_input_1" type="FakeQuantize" version="opset1">
			<data levels="256"/>
			<input>
				<port id="0">
					<dim>1</dim>
					<dim>32</dim>
					<dim>28</dim>
					<dim>28</dim>
				</port>
				<port id="1"/>
				<port id="2"/>
				<port id="3"/>
				<port id="4"/>
			</input>
			<output>
				<port id="5" precision="FP16">
					<dim>1</dim>
					<dim>32</dim>
					<dim>28</dim>
					<dim>28</dim>
				</port>
			</output>
		</layer>
		<layer id="261" name="403" type="Add" version="opset1">
			<input>
				<port id="0">
					<dim>1</dim>
					<dim>32</dim>
					<dim>28</dim>
					<dim>28</dim>
				</port>
				<port id="1">
					<dim>1</dim>
					<dim>32</dim>
					<dim>28</dim>
					<dim>28</dim>
				</port>
			</input>
			<output>
				<port id="2" precision="FP16">
					<dim>1</dim>
					<dim>32</dim>
					<dim>28</dim>
					<dim>28</dim>
				</port>
			</output>
		</layer>
		<layer id="262" name="20832087_const" type="Const" version="opset1">
			<data element_type="f16" offset="48374" shape="" size="2"/>
			<output>
				<port id="1" precision="FP16"/>
			</output>
		</layer>
		<layer id="263" name="20842088_const" type="Const" version="opset1">
			<data element_type="f16" offset="48376" shape="" size="2"/>
			<output>
				<port id="1" precision="FP16"/>
			</output>
		</layer>
		<layer id="264" name="20852089_const" type="Const" version="opset1">
			<data element_type="f16" offset="48374" shape="" size="2"/>
			<output>
				<port id="1" precision="FP16"/>
			</output>
		</layer>
		<layer id="265" name="20862090_const" type="Const" version="opset1">
			<data element_type="f16" offset="48376" shape="" size="2"/>
			<output>
				<port id="1" precision="FP16"/>
			</output>
		</layer>
		<layer id="266" name="404/fq_input_0" type="FakeQuantize" version="opset1">
			<data levels="256"/>
			<input>
				<port id="0">
					<dim>1</dim>
					<dim>32</dim>
					<dim>28</dim>
					<dim>28</dim>
				</port>
				<port id="1"/>
				<port id="2"/>
				<port id="3"/>
				<port id="4"/>
			</input>
			<output>
				<port id="5" precision="FP16">
					<dim>1</dim>
					<dim>32</dim>
					<dim>28</dim>
					<dim>28</dim>
				</port>
			</output>
		</layer>
		<layer id="267" name="encoder_404/fq_weights_1/Convert_to_float/Cast_04983_const" type="Const" version="opset1">
			<data element_type="u8" offset="48378" shape="192,32,1,1" size="6144"/>
			<output>
				<port id="1" precision="U8">
					<dim>192</dim>
					<dim>32</dim>
					<dim>1</dim>
					<dim>1</dim>
				</port>
			</output>
		</layer>
		<layer id="268" name="404/fq_weights_1/Convert_to_float" type="Convert" version="opset1">
			<data destination_type="f16"/>
			<input>
				<port id="0">
					<dim>192</dim>
					<dim>32</dim>
					<dim>1</dim>
					<dim>1</dim>
				</port>
			</input>
			<output>
				<port id="1" precision="FP16">
					<dim>192</dim>
					<dim>32</dim>
					<dim>1</dim>
					<dim>1</dim>
				</port>
			</output>
		</layer>
		<layer id="269" name="encoder_404/fq_weights_1/Copy/out_low4157_const" type="Const" version="opset1">
			<data element_type="f16" offset="880" shape="1" size="2"/>
			<output>
				<port id="1" precision="FP16">
					<dim>1</dim>
				</port>
			</output>
		</layer>
		<layer id="270" name="encoder_404/fq_weights_1/Copy/out_high4158_const" type="Const" version="opset1">
			<data element_type="f16" offset="882" shape="1" size="2"/>
			<output>
				<port id="1" precision="FP16">
					<dim>1</dim>
				</port>
			</output>
		</layer>
		<layer id="271" name="20952099_const" type="Const" version="opset1">
			<data element_type="f16" offset="54522" shape="192,1,1,1" size="384"/>
			<output>
				<port id="1" precision="FP16">
					<dim>192</dim>
					<dim>1</dim>
					<dim>1</dim>
					<dim>1</dim>
				</port>
			</output>
		</layer>
		<layer id="272" name="20962100_const" type="Const" version="opset1">
			<data element_type="f16" offset="54906" shape="192,1,1,1" size="384"/>
			<output>
				<port id="1" precision="FP16">
					<dim>192</dim>
					<dim>1</dim>
					<dim>1</dim>
					<dim>1</dim>
				</port>
			</output>
		</layer>
		<layer id="273" name="404/fq_weights_1" type="FakeQuantize" version="opset1">
			<data levels="255"/>
			<input>
				<port id="0">
					<dim>192</dim>
					<dim>32</dim>
					<dim>1</dim>
					<dim>1</dim>
				</port>
				<port id="1">
					<dim>1</dim>
				</port>
				<port id="2">
					<dim>1</dim>
				</port>
				<port id="3">
					<dim>192</dim>
					<dim>1</dim>
					<dim>1</dim>
					<dim>1</dim>
				</port>
				<port id="4">
					<dim>192</dim>
					<dim>1</dim>
					<dim>1</dim>
					<dim>1</dim>
				</port>
			</input>
			<output>
				<port id="5" precision="FP16">
					<dim>192</dim>
					<dim>32</dim>
					<dim>1</dim>
					<dim>1</dim>
				</port>
			</output>
		</layer>
		<layer id="274" name="404" type="Convolution" version="opset1">
			<data dilations="1,1" output_padding="0,0" pads_begin="0,0" pads_end="0,0" strides="1,1"/>
			<input>
				<port id="0">
					<dim>1</dim>
					<dim>32</dim>
					<dim>28</dim>
					<dim>28</dim>
				</port>
				<port id="1">
					<dim>192</dim>
					<dim>32</dim>
					<dim>1</dim>
					<dim>1</dim>
				</port>
			</input>
			<output>
				<port id="2" precision="FP16">
					<dim>1</dim>
					<dim>192</dim>
					<dim>28</dim>
					<dim>28</dim>
				</port>
			</output>
		</layer>
		<layer id="275" name="data_add_89508955/copy_const344_const" type="Const" version="opset1">
			<data element_type="f16" offset="55290" shape="1,192,1,1" size="384"/>
			<output>
				<port id="1" precision="FP16">
					<dim>1</dim>
					<dim>192</dim>
					<dim>1</dim>
					<dim>1</dim>
				</port>
			</output>
		</layer>
		<layer id="276" name="405/variance/Fused_Add_" type="Add" version="opset1">
			<input>
				<port id="0">
					<dim>1</dim>
					<dim>192</dim>
					<dim>28</dim>
					<dim>28</dim>
				</port>
				<port id="1">
					<dim>1</dim>
					<dim>192</dim>
					<dim>1</dim>
					<dim>1</dim>
				</port>
			</input>
			<output>
				<port id="2" precision="FP16">
					<dim>1</dim>
					<dim>192</dim>
					<dim>28</dim>
					<dim>28</dim>
				</port>
			</output>
		</layer>
		<layer id="277" name="406" type="ReLU" version="opset1">
			<input>
				<port id="0">
					<dim>1</dim>
					<dim>192</dim>
					<dim>28</dim>
					<dim>28</dim>
				</port>
			</input>
			<output>
				<port id="1" precision="FP16">
					<dim>1</dim>
					<dim>192</dim>
					<dim>28</dim>
					<dim>28</dim>
				</port>
			</output>
		</layer>
		<layer id="278" name="15131517_const" type="Const" version="opset1">
			<data element_type="f16" offset="38344" shape="1,192,1,1" size="384"/>
			<output>
				<port id="1" precision="FP16">
					<dim>1</dim>
					<dim>192</dim>
					<dim>1</dim>
					<dim>1</dim>
				</port>
			</output>
		</layer>
		<layer id="279" name="15141518_const" type="Const" version="opset1">
			<data element_type="f16" offset="55674" shape="1,192,1,1" size="384"/>
			<output>
				<port id="1" precision="FP16">
					<dim>1</dim>
					<dim>192</dim>
					<dim>1</dim>
					<dim>1</dim>
				</port>
			</output>
		</layer>
		<layer id="280" name="15151519_const" type="Const" version="opset1">
			<data element_type="f16" offset="38344" shape="1,192,1,1" size="384"/>
			<output>
				<port id="1" precision="FP16">
					<dim>1</dim>
					<dim>192</dim>
					<dim>1</dim>
					<dim>1</dim>
				</port>
			</output>
		</layer>
		<layer id="281" name="15161520_const" type="Const" version="opset1">
			<data element_type="f16" offset="55674" shape="1,192,1,1" size="384"/>
			<output>
				<port id="1" precision="FP16">
					<dim>1</dim>
					<dim>192</dim>
					<dim>1</dim>
					<dim>1</dim>
				</port>
			</output>
		</layer>
		<layer id="282" name="407/fq_input_0" type="FakeQuantize" version="opset1">
			<data levels="256"/>
			<input>
				<port id="0">
					<dim>1</dim>
					<dim>192</dim>
					<dim>28</dim>
					<dim>28</dim>
				</port>
				<port id="1">
					<dim>1</dim>
					<dim>192</dim>
					<dim>1</dim>
					<dim>1</dim>
				</port>
				<port id="2">
					<dim>1</dim>
					<dim>192</dim>
					<dim>1</dim>
					<dim>1</dim>
				</port>
				<port id="3">
					<dim>1</dim>
					<dim>192</dim>
					<dim>1</dim>
					<dim>1</dim>
				</port>
				<port id="4">
					<dim>1</dim>
					<dim>192</dim>
					<dim>1</dim>
					<dim>1</dim>
				</port>
			</input>
			<output>
				<port id="5" precision="FP16">
					<dim>1</dim>
					<dim>192</dim>
					<dim>28</dim>
					<dim>28</dim>
				</port>
			</output>
		</layer>
		<layer id="283" name="encoder_407/fq_weights_1/Convert_to_float/Cast_04937_const" type="Const" version="opset1">
			<data element_type="u8" offset="56058" shape="192,1,3,3" size="1728"/>
			<output>
				<port id="1" precision="U8">
					<dim>192</dim>
					<dim>1</dim>
					<dim>3</dim>
					<dim>3</dim>
				</port>
			</output>
		</layer>
		<layer id="284" name="407/fq_weights_1/Convert_to_float" type="Convert" version="opset1">
			<data destination_type="f16"/>
			<input>
				<port id="0">
					<dim>192</dim>
					<dim>1</dim>
					<dim>3</dim>
					<dim>3</dim>
				</port>
			</input>
			<output>
				<port id="1" precision="FP16">
					<dim>192</dim>
					<dim>1</dim>
					<dim>3</dim>
					<dim>3</dim>
				</port>
			</output>
		</layer>
		<layer id="285" name="encoder_407/fq_weights_1/Copy/out_low3997_const" type="Const" version="opset1">
			<data element_type="f16" offset="880" shape="1" size="2"/>
			<output>
				<port id="1" precision="FP16">
					<dim>1</dim>
				</port>
			</output>
		</layer>
		<layer id="286" name="encoder_407/fq_weights_1/Copy/out_high3998_const" type="Const" version="opset1">
			<data element_type="f16" offset="882" shape="1" size="2"/>
			<output>
				<port id="1" precision="FP16">
					<dim>1</dim>
				</port>
			</output>
		</layer>
		<layer id="287" name="15251529_const" type="Const" version="opset1">
			<data element_type="f16" offset="57786" shape="192,1,1,1" size="384"/>
			<output>
				<port id="1" precision="FP16">
					<dim>192</dim>
					<dim>1</dim>
					<dim>1</dim>
					<dim>1</dim>
				</port>
			</output>
		</layer>
		<layer id="288" name="15261530_const" type="Const" version="opset1">
			<data element_type="f16" offset="58170" shape="192,1,1,1" size="384"/>
			<output>
				<port id="1" precision="FP16">
					<dim>192</dim>
					<dim>1</dim>
					<dim>1</dim>
					<dim>1</dim>
				</port>
			</output>
		</layer>
		<layer id="289" name="407/fq_weights_1" type="FakeQuantize" version="opset1">
			<data levels="255"/>
			<input>
				<port id="0">
					<dim>192</dim>
					<dim>1</dim>
					<dim>3</dim>
					<dim>3</dim>
				</port>
				<port id="1">
					<dim>1</dim>
				</port>
				<port id="2">
					<dim>1</dim>
				</port>
				<port id="3">
					<dim>192</dim>
					<dim>1</dim>
					<dim>1</dim>
					<dim>1</dim>
				</port>
				<port id="4">
					<dim>192</dim>
					<dim>1</dim>
					<dim>1</dim>
					<dim>1</dim>
				</port>
			</input>
			<output>
				<port id="5" precision="FP16">
					<dim>192</dim>
					<dim>1</dim>
					<dim>3</dim>
					<dim>3</dim>
				</port>
			</output>
		</layer>
		<layer id="290" name="5628/value5630_const" type="Const" version="opset1">
			<data element_type="i64" offset="41608" shape="5" size="40"/>
			<output>
				<port id="1" precision="I64">
					<dim>5</dim>
				</port>
			</output>
		</layer>
		<layer id="291" name="5628" type="Reshape" version="opset1">
			<data special_zero="True"/>
			<input>
				<port id="0">
					<dim>192</dim>
					<dim>1</dim>
					<dim>3</dim>
					<dim>3</dim>
				</port>
				<port id="1">
					<dim>5</dim>
				</port>
			</input>
			<output>
				<port id="2" precision="FP16">
					<dim>192</dim>
					<dim>1</dim>
					<dim>1</dim>
					<dim>3</dim>
					<dim>3</dim>
				</port>
			</output>
		</layer>
		<layer id="292" name="407" type="GroupConvolution" version="opset1">
			<data dilations="1,1" output_padding="0,0" pads_begin="1,1" pads_end="1,1" strides="1,1"/>
			<input>
				<port id="0">
					<dim>1</dim>
					<dim>192</dim>
					<dim>28</dim>
					<dim>28</dim>
				</port>
				<port id="1">
					<dim>192</dim>
					<dim>1</dim>
					<dim>1</dim>
					<dim>3</dim>
					<dim>3</dim>
				</port>
			</input>
			<output>
				<port id="2" precision="FP16">
					<dim>1</dim>
					<dim>192</dim>
					<dim>28</dim>
					<dim>28</dim>
				</port>
			</output>
		</layer>
		<layer id="293" name="data_add_89588963/copy_const349_const" type="Const" version="opset1">
			<data element_type="f16" offset="58554" shape="1,192,1,1" size="384"/>
			<output>
				<port id="1" precision="FP16">
					<dim>1</dim>
					<dim>192</dim>
					<dim>1</dim>
					<dim>1</dim>
				</port>
			</output>
		</layer>
		<layer id="294" name="408/variance/Fused_Add_" type="Add" version="opset1">
			<input>
				<port id="0">
					<dim>1</dim>
					<dim>192</dim>
					<dim>28</dim>
					<dim>28</dim>
				</port>
				<port id="1">
					<dim>1</dim>
					<dim>192</dim>
					<dim>1</dim>
					<dim>1</dim>
				</port>
			</input>
			<output>
				<port id="2" precision="FP16">
					<dim>1</dim>
					<dim>192</dim>
					<dim>28</dim>
					<dim>28</dim>
				</port>
			</output>
		</layer>
		<layer id="295" name="409" type="ReLU" version="opset1">
			<input>
				<port id="0">
					<dim>1</dim>
					<dim>192</dim>
					<dim>28</dim>
					<dim>28</dim>
				</port>
			</input>
			<output>
				<port id="1" precision="FP16">
					<dim>1</dim>
					<dim>192</dim>
					<dim>28</dim>
					<dim>28</dim>
				</port>
			</output>
		</layer>
		<layer id="296" name="18931897_const" type="Const" version="opset1">
			<data element_type="f16" offset="880" shape="" size="2"/>
			<output>
				<port id="1" precision="FP16"/>
			</output>
		</layer>
		<layer id="297" name="18941898_const" type="Const" version="opset1">
			<data element_type="f16" offset="58938" shape="" size="2"/>
			<output>
				<port id="1" precision="FP16"/>
			</output>
		</layer>
		<layer id="298" name="18951899_const" type="Const" version="opset1">
			<data element_type="f16" offset="880" shape="" size="2"/>
			<output>
				<port id="1" precision="FP16"/>
			</output>
		</layer>
		<layer id="299" name="18961900_const" type="Const" version="opset1">
			<data element_type="f16" offset="58938" shape="" size="2"/>
			<output>
				<port id="1" precision="FP16"/>
			</output>
		</layer>
		<layer id="300" name="410/fq_input_0" type="FakeQuantize" version="opset1">
			<data levels="256"/>
			<input>
				<port id="0">
					<dim>1</dim>
					<dim>192</dim>
					<dim>28</dim>
					<dim>28</dim>
				</port>
				<port id="1"/>
				<port id="2"/>
				<port id="3"/>
				<port id="4"/>
			</input>
			<output>
				<port id="5" precision="FP16">
					<dim>1</dim>
					<dim>192</dim>
					<dim>28</dim>
					<dim>28</dim>
				</port>
			</output>
		</layer>
		<layer id="301" name="encoder_410/fq_weights_1/Convert_to_float/Cast_04981_const" type="Const" version="opset1">
			<data element_type="u8" offset="58940" shape="32,192,1,1" size="6144"/>
			<output>
				<port id="1" precision="U8">
					<dim>32</dim>
					<dim>192</dim>
					<dim>1</dim>
					<dim>1</dim>
				</port>
			</output>
		</layer>
		<layer id="302" name="410/fq_weights_1/Convert_to_float" type="Convert" version="opset1">
			<data destination_type="f16"/>
			<input>
				<port id="0">
					<dim>32</dim>
					<dim>192</dim>
					<dim>1</dim>
					<dim>1</dim>
				</port>
			</input>
			<output>
				<port id="1" precision="FP16">
					<dim>32</dim>
					<dim>192</dim>
					<dim>1</dim>
					<dim>1</dim>
				</port>
			</output>
		</layer>
		<layer id="303" name="encoder_410/fq_weights_1/Copy/out_low4061_const" type="Const" version="opset1">
			<data element_type="f16" offset="880" shape="1" size="2"/>
			<output>
				<port id="1" precision="FP16">
					<dim>1</dim>
				</port>
			</output>
		</layer>
		<layer id="304" name="encoder_410/fq_weights_1/Copy/out_high4062_const" type="Const" version="opset1">
			<data element_type="f16" offset="882" shape="1" size="2"/>
			<output>
				<port id="1" precision="FP16">
					<dim>1</dim>
				</port>
			</output>
		</layer>
		<layer id="305" name="19051909_const" type="Const" version="opset1">
			<data element_type="f16" offset="65084" shape="32,1,1,1" size="64"/>
			<output>
				<port id="1" precision="FP16">
					<dim>32</dim>
					<dim>1</dim>
					<dim>1</dim>
					<dim>1</dim>
				</port>
			</output>
		</layer>
		<layer id="306" name="19061910_const" type="Const" version="opset1">
			<data element_type="f16" offset="65148" shape="32,1,1,1" size="64"/>
			<output>
				<port id="1" precision="FP16">
					<dim>32</dim>
					<dim>1</dim>
					<dim>1</dim>
					<dim>1</dim>
				</port>
			</output>
		</layer>
		<layer id="307" name="410/fq_weights_1" type="FakeQuantize" version="opset1">
			<data levels="255"/>
			<input>
				<port id="0">
					<dim>32</dim>
					<dim>192</dim>
					<dim>1</dim>
					<dim>1</dim>
				</port>
				<port id="1">
					<dim>1</dim>
				</port>
				<port id="2">
					<dim>1</dim>
				</port>
				<port id="3">
					<dim>32</dim>
					<dim>1</dim>
					<dim>1</dim>
					<dim>1</dim>
				</port>
				<port id="4">
					<dim>32</dim>
					<dim>1</dim>
					<dim>1</dim>
					<dim>1</dim>
				</port>
			</input>
			<output>
				<port id="5" precision="FP16">
					<dim>32</dim>
					<dim>192</dim>
					<dim>1</dim>
					<dim>1</dim>
				</port>
			</output>
		</layer>
		<layer id="308" name="410" type="Convolution" version="opset1">
			<data dilations="1,1" output_padding="0,0" pads_begin="0,0" pads_end="0,0" strides="1,1"/>
			<input>
				<port id="0">
					<dim>1</dim>
					<dim>192</dim>
					<dim>28</dim>
					<dim>28</dim>
				</port>
				<port id="1">
					<dim>32</dim>
					<dim>192</dim>
					<dim>1</dim>
					<dim>1</dim>
				</port>
			</input>
			<output>
				<port id="2" precision="FP16">
					<dim>1</dim>
					<dim>32</dim>
					<dim>28</dim>
					<dim>28</dim>
				</port>
			</output>
		</layer>
		<layer id="309" name="data_add_89668971/copy_const354_const" type="Const" version="opset1">
			<data element_type="f16" offset="65212" shape="1,32,1,1" size="64"/>
			<output>
				<port id="1" precision="FP16">
					<dim>1</dim>
					<dim>32</dim>
					<dim>1</dim>
					<dim>1</dim>
				</port>
			</output>
		</layer>
		<layer id="310" name="411/variance/Fused_Add_" type="Add" version="opset1">
			<input>
				<port id="0">
					<dim>1</dim>
					<dim>32</dim>
					<dim>28</dim>
					<dim>28</dim>
				</port>
				<port id="1">
					<dim>1</dim>
					<dim>32</dim>
					<dim>1</dim>
					<dim>1</dim>
				</port>
			</input>
			<output>
				<port id="2" precision="FP16">
					<dim>1</dim>
					<dim>32</dim>
					<dim>28</dim>
					<dim>28</dim>
				</port>
			</output>
		</layer>
		<layer id="311" name="13231327_const" type="Const" version="opset1">
			<data element_type="f16" offset="65276" shape="" size="2"/>
			<output>
				<port id="1" precision="FP16"/>
			</output>
		</layer>
		<layer id="312" name="13241328_const" type="Const" version="opset1">
			<data element_type="f16" offset="65278" shape="" size="2"/>
			<output>
				<port id="1" precision="FP16"/>
			</output>
		</layer>
		<layer id="313" name="13251329_const" type="Const" version="opset1">
			<data element_type="f16" offset="65276" shape="" size="2"/>
			<output>
				<port id="1" precision="FP16"/>
			</output>
		</layer>
		<layer id="314" name="13261330_const" type="Const" version="opset1">
			<data element_type="f16" offset="65278" shape="" size="2"/>
			<output>
				<port id="1" precision="FP16"/>
			</output>
		</layer>
		<layer id="315" name="412/fq_input_1" type="FakeQuantize" version="opset1">
			<data levels="256"/>
			<input>
				<port id="0">
					<dim>1</dim>
					<dim>32</dim>
					<dim>28</dim>
					<dim>28</dim>
				</port>
				<port id="1"/>
				<port id="2"/>
				<port id="3"/>
				<port id="4"/>
			</input>
			<output>
				<port id="5" precision="FP16">
					<dim>1</dim>
					<dim>32</dim>
					<dim>28</dim>
					<dim>28</dim>
				</port>
			</output>
		</layer>
		<layer id="316" name="412" type="Add" version="opset1">
			<input>
				<port id="0">
					<dim>1</dim>
					<dim>32</dim>
					<dim>28</dim>
					<dim>28</dim>
				</port>
				<port id="1">
					<dim>1</dim>
					<dim>32</dim>
					<dim>28</dim>
					<dim>28</dim>
				</port>
			</input>
			<output>
				<port id="2" precision="FP16">
					<dim>1</dim>
					<dim>32</dim>
					<dim>28</dim>
					<dim>28</dim>
				</port>
			</output>
		</layer>
		<layer id="317" name="11931197_const" type="Const" version="opset1">
			<data element_type="f16" offset="65280" shape="" size="2"/>
			<output>
				<port id="1" precision="FP16"/>
			</output>
		</layer>
		<layer id="318" name="11941198_const" type="Const" version="opset1">
			<data element_type="f16" offset="65282" shape="" size="2"/>
			<output>
				<port id="1" precision="FP16"/>
			</output>
		</layer>
		<layer id="319" name="11951199_const" type="Const" version="opset1">
			<data element_type="f16" offset="65280" shape="" size="2"/>
			<output>
				<port id="1" precision="FP16"/>
			</output>
		</layer>
		<layer id="320" name="11961200_const" type="Const" version="opset1">
			<data element_type="f16" offset="65282" shape="" size="2"/>
			<output>
				<port id="1" precision="FP16"/>
			</output>
		</layer>
		<layer id="321" name="413/fq_input_0" type="FakeQuantize" version="opset1">
			<data levels="256"/>
			<input>
				<port id="0">
					<dim>1</dim>
					<dim>32</dim>
					<dim>28</dim>
					<dim>28</dim>
				</port>
				<port id="1"/>
				<port id="2"/>
				<port id="3"/>
				<port id="4"/>
			</input>
			<output>
				<port id="5" precision="FP16">
					<dim>1</dim>
					<dim>32</dim>
					<dim>28</dim>
					<dim>28</dim>
				</port>
			</output>
		</layer>
		<layer id="322" name="encoder_413/fq_weights_1/Convert_to_float/Cast_05003_const" type="Const" version="opset1">
			<data element_type="u8" offset="65284" shape="192,32,1,1" size="6144"/>
			<output>
				<port id="1" precision="U8">
					<dim>192</dim>
					<dim>32</dim>
					<dim>1</dim>
					<dim>1</dim>
				</port>
			</output>
		</layer>
		<layer id="323" name="413/fq_weights_1/Convert_to_float" type="Convert" version="opset1">
			<data destination_type="f16"/>
			<input>
				<port id="0">
					<dim>192</dim>
					<dim>32</dim>
					<dim>1</dim>
					<dim>1</dim>
				</port>
			</input>
			<output>
				<port id="1" precision="FP16">
					<dim>192</dim>
					<dim>32</dim>
					<dim>1</dim>
					<dim>1</dim>
				</port>
			</output>
		</layer>
		<layer id="324" name="encoder_413/fq_weights_1/Copy/out_low4093_const" type="Const" version="opset1">
			<data element_type="f16" offset="880" shape="1" size="2"/>
			<output>
				<port id="1" precision="FP16">
					<dim>1</dim>
				</port>
			</output>
		</layer>
		<layer id="325" name="encoder_413/fq_weights_1/Copy/out_high4094_const" type="Const" version="opset1">
			<data element_type="f16" offset="882" shape="1" size="2"/>
			<output>
				<port id="1" precision="FP16">
					<dim>1</dim>
				</port>
			</output>
		</layer>
		<layer id="326" name="12051209_const" type="Const" version="opset1">
			<data element_type="f16" offset="71428" shape="192,1,1,1" size="384"/>
			<output>
				<port id="1" precision="FP16">
					<dim>192</dim>
					<dim>1</dim>
					<dim>1</dim>
					<dim>1</dim>
				</port>
			</output>
		</layer>
		<layer id="327" name="12061210_const" type="Const" version="opset1">
			<data element_type="f16" offset="71812" shape="192,1,1,1" size="384"/>
			<output>
				<port id="1" precision="FP16">
					<dim>192</dim>
					<dim>1</dim>
					<dim>1</dim>
					<dim>1</dim>
				</port>
			</output>
		</layer>
		<layer id="328" name="413/fq_weights_1" type="FakeQuantize" version="opset1">
			<data levels="255"/>
			<input>
				<port id="0">
					<dim>192</dim>
					<dim>32</dim>
					<dim>1</dim>
					<dim>1</dim>
				</port>
				<port id="1">
					<dim>1</dim>
				</port>
				<port id="2">
					<dim>1</dim>
				</port>
				<port id="3">
					<dim>192</dim>
					<dim>1</dim>
					<dim>1</dim>
					<dim>1</dim>
				</port>
				<port id="4">
					<dim>192</dim>
					<dim>1</dim>
					<dim>1</dim>
					<dim>1</dim>
				</port>
			</input>
			<output>
				<port id="5" precision="FP16">
					<dim>192</dim>
					<dim>32</dim>
					<dim>1</dim>
					<dim>1</dim>
				</port>
			</output>
		</layer>
		<layer id="329" name="413" type="Convolution" version="opset1">
			<data dilations="1,1" output_padding="0,0" pads_begin="0,0" pads_end="0,0" strides="1,1"/>
			<input>
				<port id="0">
					<dim>1</dim>
					<dim>32</dim>
					<dim>28</dim>
					<dim>28</dim>
				</port>
				<port id="1">
					<dim>192</dim>
					<dim>32</dim>
					<dim>1</dim>
					<dim>1</dim>
				</port>
			</input>
			<output>
				<port id="2" precision="FP16">
					<dim>1</dim>
					<dim>192</dim>
					<dim>28</dim>
					<dim>28</dim>
				</port>
			</output>
		</layer>
		<layer id="330" name="data_add_89748979/copy_const359_const" type="Const" version="opset1">
			<data element_type="f16" offset="72196" shape="1,192,1,1" size="384"/>
			<output>
				<port id="1" precision="FP16">
					<dim>1</dim>
					<dim>192</dim>
					<dim>1</dim>
					<dim>1</dim>
				</port>
			</output>
		</layer>
		<layer id="331" name="414/variance/Fused_Add_" type="Add" version="opset1">
			<input>
				<port id="0">
					<dim>1</dim>
					<dim>192</dim>
					<dim>28</dim>
					<dim>28</dim>
				</port>
				<port id="1">
					<dim>1</dim>
					<dim>192</dim>
					<dim>1</dim>
					<dim>1</dim>
				</port>
			</input>
			<output>
				<port id="2" precision="FP16">
					<dim>1</dim>
					<dim>192</dim>
					<dim>28</dim>
					<dim>28</dim>
				</port>
			</output>
		</layer>
		<layer id="332" name="415" type="ReLU" version="opset1">
			<input>
				<port id="0">
					<dim>1</dim>
					<dim>192</dim>
					<dim>28</dim>
					<dim>28</dim>
				</port>
			</input>
			<output>
				<port id="1" precision="FP16">
					<dim>1</dim>
					<dim>192</dim>
					<dim>28</dim>
					<dim>28</dim>
				</port>
			</output>
		</layer>
		<layer id="333" name="10531057_const" type="Const" version="opset1">
			<data element_type="f16" offset="38344" shape="1,192,1,1" size="384"/>
			<output>
				<port id="1" precision="FP16">
					<dim>1</dim>
					<dim>192</dim>
					<dim>1</dim>
					<dim>1</dim>
				</port>
			</output>
		</layer>
		<layer id="334" name="10541058_const" type="Const" version="opset1">
			<data element_type="f16" offset="72580" shape="1,192,1,1" size="384"/>
			<output>
				<port id="1" precision="FP16">
					<dim>1</dim>
					<dim>192</dim>
					<dim>1</dim>
					<dim>1</dim>
				</port>
			</output>
		</layer>
		<layer id="335" name="10551059_const" type="Const" version="opset1">
			<data element_type="f16" offset="38344" shape="1,192,1,1" size="384"/>
			<output>
				<port id="1" precision="FP16">
					<dim>1</dim>
					<dim>192</dim>
					<dim>1</dim>
					<dim>1</dim>
				</port>
			</output>
		</layer>
		<layer id="336" name="10561060_const" type="Const" version="opset1">
			<data element_type="f16" offset="72580" shape="1,192,1,1" size="384"/>
			<output>
				<port id="1" precision="FP16">
					<dim>1</dim>
					<dim>192</dim>
					<dim>1</dim>
					<dim>1</dim>
				</port>
			</output>
		</layer>
		<layer id="337" name="416/fq_input_0" type="FakeQuantize" version="opset1">
			<data levels="256"/>
			<input>
				<port id="0">
					<dim>1</dim>
					<dim>192</dim>
					<dim>28</dim>
					<dim>28</dim>
				</port>
				<port id="1">
					<dim>1</dim>
					<dim>192</dim>
					<dim>1</dim>
					<dim>1</dim>
				</port>
				<port id="2">
					<dim>1</dim>
					<dim>192</dim>
					<dim>1</dim>
					<dim>1</dim>
				</port>
				<port id="3">
					<dim>1</dim>
					<dim>192</dim>
					<dim>1</dim>
					<dim>1</dim>
				</port>
				<port id="4">
					<dim>1</dim>
					<dim>192</dim>
					<dim>1</dim>
					<dim>1</dim>
				</port>
			</input>
			<output>
				<port id="5" precision="FP16">
					<dim>1</dim>
					<dim>192</dim>
					<dim>28</dim>
					<dim>28</dim>
				</port>
			</output>
		</layer>
		<layer id="338" name="encoder_416/fq_weights_1/Convert_to_float/Cast_05015_const" type="Const" version="opset1">
			<data element_type="u8" offset="72964" shape="192,1,3,3" size="1728"/>
			<output>
				<port id="1" precision="U8">
					<dim>192</dim>
					<dim>1</dim>
					<dim>3</dim>
					<dim>3</dim>
				</port>
			</output>
		</layer>
		<layer id="339" name="416/fq_weights_1/Convert_to_float" type="Convert" version="opset1">
			<data destination_type="f16"/>
			<input>
				<port id="0">
					<dim>192</dim>
					<dim>1</dim>
					<dim>3</dim>
					<dim>3</dim>
				</port>
			</input>
			<output>
				<port id="1" precision="FP16">
					<dim>192</dim>
					<dim>1</dim>
					<dim>3</dim>
					<dim>3</dim>
				</port>
			</output>
		</layer>
		<layer id="340" name="encoder_416/fq_weights_1/Copy/out_low4005_const" type="Const" version="opset1">
			<data element_type="f16" offset="880" shape="1" size="2"/>
			<output>
				<port id="1" precision="FP16">
					<dim>1</dim>
				</port>
			</output>
		</layer>
		<layer id="341" name="encoder_416/fq_weights_1/Copy/out_high4006_const" type="Const" version="opset1">
			<data element_type="f16" offset="882" shape="1" size="2"/>
			<output>
				<port id="1" precision="FP16">
					<dim>1</dim>
				</port>
			</output>
		</layer>
		<layer id="342" name="10651069_const" type="Const" version="opset1">
			<data element_type="f16" offset="74692" shape="192,1,1,1" size="384"/>
			<output>
				<port id="1" precision="FP16">
					<dim>192</dim>
					<dim>1</dim>
					<dim>1</dim>
					<dim>1</dim>
				</port>
			</output>
		</layer>
		<layer id="343" name="10661070_const" type="Const" version="opset1">
			<data element_type="f16" offset="75076" shape="192,1,1,1" size="384"/>
			<output>
				<port id="1" precision="FP16">
					<dim>192</dim>
					<dim>1</dim>
					<dim>1</dim>
					<dim>1</dim>
				</port>
			</output>
		</layer>
		<layer id="344" name="416/fq_weights_1" type="FakeQuantize" version="opset1">
			<data levels="255"/>
			<input>
				<port id="0">
					<dim>192</dim>
					<dim>1</dim>
					<dim>3</dim>
					<dim>3</dim>
				</port>
				<port id="1">
					<dim>1</dim>
				</port>
				<port id="2">
					<dim>1</dim>
				</port>
				<port id="3">
					<dim>192</dim>
					<dim>1</dim>
					<dim>1</dim>
					<dim>1</dim>
				</port>
				<port id="4">
					<dim>192</dim>
					<dim>1</dim>
					<dim>1</dim>
					<dim>1</dim>
				</port>
			</input>
			<output>
				<port id="5" precision="FP16">
					<dim>192</dim>
					<dim>1</dim>
					<dim>3</dim>
					<dim>3</dim>
				</port>
			</output>
		</layer>
		<layer id="345" name="5656/value5658_const" type="Const" version="opset1">
			<data element_type="i64" offset="41608" shape="5" size="40"/>
			<output>
				<port id="1" precision="I64">
					<dim>5</dim>
				</port>
			</output>
		</layer>
		<layer id="346" name="5656" type="Reshape" version="opset1">
			<data special_zero="True"/>
			<input>
				<port id="0">
					<dim>192</dim>
					<dim>1</dim>
					<dim>3</dim>
					<dim>3</dim>
				</port>
				<port id="1">
					<dim>5</dim>
				</port>
			</input>
			<output>
				<port id="2" precision="FP16">
					<dim>192</dim>
					<dim>1</dim>
					<dim>1</dim>
					<dim>3</dim>
					<dim>3</dim>
				</port>
			</output>
		</layer>
		<layer id="347" name="416" type="GroupConvolution" version="opset1">
			<data dilations="1,1" output_padding="0,0" pads_begin="1,1" pads_end="1,1" strides="2,2"/>
			<input>
				<port id="0">
					<dim>1</dim>
					<dim>192</dim>
					<dim>28</dim>
					<dim>28</dim>
				</port>
				<port id="1">
					<dim>192</dim>
					<dim>1</dim>
					<dim>1</dim>
					<dim>3</dim>
					<dim>3</dim>
				</port>
			</input>
			<output>
				<port id="2" precision="FP16">
					<dim>1</dim>
					<dim>192</dim>
					<dim>14</dim>
					<dim>14</dim>
				</port>
			</output>
		</layer>
		<layer id="348" name="data_add_89828987/copy_const364_const" type="Const" version="opset1">
			<data element_type="f16" offset="75460" shape="1,192,1,1" size="384"/>
			<output>
				<port id="1" precision="FP16">
					<dim>1</dim>
					<dim>192</dim>
					<dim>1</dim>
					<dim>1</dim>
				</port>
			</output>
		</layer>
		<layer id="349" name="417/variance/Fused_Add_" type="Add" version="opset1">
			<input>
				<port id="0">
					<dim>1</dim>
					<dim>192</dim>
					<dim>14</dim>
					<dim>14</dim>
				</port>
				<port id="1">
					<dim>1</dim>
					<dim>192</dim>
					<dim>1</dim>
					<dim>1</dim>
				</port>
			</input>
			<output>
				<port id="2" precision="FP16">
					<dim>1</dim>
					<dim>192</dim>
					<dim>14</dim>
					<dim>14</dim>
				</port>
			</output>
		</layer>
		<layer id="350" name="418" type="ReLU" version="opset1">
			<input>
				<port id="0">
					<dim>1</dim>
					<dim>192</dim>
					<dim>14</dim>
					<dim>14</dim>
				</port>
			</input>
			<output>
				<port id="1" precision="FP16">
					<dim>1</dim>
					<dim>192</dim>
					<dim>14</dim>
					<dim>14</dim>
				</port>
			</output>
		</layer>
		<layer id="351" name="11531157_const" type="Const" version="opset1">
			<data element_type="f16" offset="880" shape="" size="2"/>
			<output>
				<port id="1" precision="FP16"/>
			</output>
		</layer>
		<layer id="352" name="11541158_const" type="Const" version="opset1">
			<data element_type="f16" offset="75844" shape="" size="2"/>
			<output>
				<port id="1" precision="FP16"/>
			</output>
		</layer>
		<layer id="353" name="11551159_const" type="Const" version="opset1">
			<data element_type="f16" offset="880" shape="" size="2"/>
			<output>
				<port id="1" precision="FP16"/>
			</output>
		</layer>
		<layer id="354" name="11561160_const" type="Const" version="opset1">
			<data element_type="f16" offset="75844" shape="" size="2"/>
			<output>
				<port id="1" precision="FP16"/>
			</output>
		</layer>
		<layer id="355" name="419/fq_input_0" type="FakeQuantize" version="opset1">
			<data levels="256"/>
			<input>
				<port id="0">
					<dim>1</dim>
					<dim>192</dim>
					<dim>14</dim>
					<dim>14</dim>
				</port>
				<port id="1"/>
				<port id="2"/>
				<port id="3"/>
				<port id="4"/>
			</input>
			<output>
				<port id="5" precision="FP16">
					<dim>1</dim>
					<dim>192</dim>
					<dim>14</dim>
					<dim>14</dim>
				</port>
			</output>
		</layer>
		<layer id="356" name="encoder_419/fq_weights_1/Convert_to_float/Cast_04965_const" type="Const" version="opset1">
			<data element_type="u8" offset="75846" shape="64,192,1,1" size="12288"/>
			<output>
				<port id="1" precision="U8">
					<dim>64</dim>
					<dim>192</dim>
					<dim>1</dim>
					<dim>1</dim>
				</port>
			</output>
		</layer>
		<layer id="357" name="419/fq_weights_1/Convert_to_float" type="Convert" version="opset1">
			<data destination_type="f16"/>
			<input>
				<port id="0">
					<dim>64</dim>
					<dim>192</dim>
					<dim>1</dim>
					<dim>1</dim>
				</port>
			</input>
			<output>
				<port id="1" precision="FP16">
					<dim>64</dim>
					<dim>192</dim>
					<dim>1</dim>
					<dim>1</dim>
				</port>
			</output>
		</layer>
		<layer id="358" name="encoder_419/fq_weights_1/Copy/out_low4285_const" type="Const" version="opset1">
			<data element_type="f16" offset="880" shape="1" size="2"/>
			<output>
				<port id="1" precision="FP16">
					<dim>1</dim>
				</port>
			</output>
		</layer>
		<layer id="359" name="encoder_419/fq_weights_1/Copy/out_high4286_const" type="Const" version="opset1">
			<data element_type="f16" offset="882" shape="1" size="2"/>
			<output>
				<port id="1" precision="FP16">
					<dim>1</dim>
				</port>
			</output>
		</layer>
		<layer id="360" name="11651169_const" type="Const" version="opset1">
			<data element_type="f16" offset="88134" shape="64,1,1,1" size="128"/>
			<output>
				<port id="1" precision="FP16">
					<dim>64</dim>
					<dim>1</dim>
					<dim>1</dim>
					<dim>1</dim>
				</port>
			</output>
		</layer>
		<layer id="361" name="11661170_const" type="Const" version="opset1">
			<data element_type="f16" offset="88262" shape="64,1,1,1" size="128"/>
			<output>
				<port id="1" precision="FP16">
					<dim>64</dim>
					<dim>1</dim>
					<dim>1</dim>
					<dim>1</dim>
				</port>
			</output>
		</layer>
		<layer id="362" name="419/fq_weights_1" type="FakeQuantize" version="opset1">
			<data levels="255"/>
			<input>
				<port id="0">
					<dim>64</dim>
					<dim>192</dim>
					<dim>1</dim>
					<dim>1</dim>
				</port>
				<port id="1">
					<dim>1</dim>
				</port>
				<port id="2">
					<dim>1</dim>
				</port>
				<port id="3">
					<dim>64</dim>
					<dim>1</dim>
					<dim>1</dim>
					<dim>1</dim>
				</port>
				<port id="4">
					<dim>64</dim>
					<dim>1</dim>
					<dim>1</dim>
					<dim>1</dim>
				</port>
			</input>
			<output>
				<port id="5" precision="FP16">
					<dim>64</dim>
					<dim>192</dim>
					<dim>1</dim>
					<dim>1</dim>
				</port>
			</output>
		</layer>
		<layer id="363" name="419" type="Convolution" version="opset1">
			<data dilations="1,1" output_padding="0,0" pads_begin="0,0" pads_end="0,0" strides="1,1"/>
			<input>
				<port id="0">
					<dim>1</dim>
					<dim>192</dim>
					<dim>14</dim>
					<dim>14</dim>
				</port>
				<port id="1">
					<dim>64</dim>
					<dim>192</dim>
					<dim>1</dim>
					<dim>1</dim>
				</port>
			</input>
			<output>
				<port id="2" precision="FP16">
					<dim>1</dim>
					<dim>64</dim>
					<dim>14</dim>
					<dim>14</dim>
				</port>
			</output>
		</layer>
		<layer id="364" name="data_add_89908995/copy_const369_const" type="Const" version="opset1">
			<data element_type="f16" offset="88390" shape="1,64,1,1" size="128"/>
			<output>
				<port id="1" precision="FP16">
					<dim>1</dim>
					<dim>64</dim>
					<dim>1</dim>
					<dim>1</dim>
				</port>
			</output>
		</layer>
		<layer id="365" name="420/variance/Fused_Add_" type="Add" version="opset1">
			<input>
				<port id="0">
					<dim>1</dim>
					<dim>64</dim>
					<dim>14</dim>
					<dim>14</dim>
				</port>
				<port id="1">
					<dim>1</dim>
					<dim>64</dim>
					<dim>1</dim>
					<dim>1</dim>
				</port>
			</input>
			<output>
				<port id="2" precision="FP16">
					<dim>1</dim>
					<dim>64</dim>
					<dim>14</dim>
					<dim>14</dim>
				</port>
			</output>
		</layer>
		<layer id="366" name="18131817_const" type="Const" version="opset1">
			<data element_type="f16" offset="88518" shape="" size="2"/>
			<output>
				<port id="1" precision="FP16"/>
			</output>
		</layer>
		<layer id="367" name="18141818_const" type="Const" version="opset1">
			<data element_type="f16" offset="88520" shape="" size="2"/>
			<output>
				<port id="1" precision="FP16"/>
			</output>
		</layer>
		<layer id="368" name="18151819_const" type="Const" version="opset1">
			<data element_type="f16" offset="88518" shape="" size="2"/>
			<output>
				<port id="1" precision="FP16"/>
			</output>
		</layer>
		<layer id="369" name="18161820_const" type="Const" version="opset1">
			<data element_type="f16" offset="88520" shape="" size="2"/>
			<output>
				<port id="1" precision="FP16"/>
			</output>
		</layer>
		<layer id="370" name="421/fq_input_0" type="FakeQuantize" version="opset1">
			<data levels="256"/>
			<input>
				<port id="0">
					<dim>1</dim>
					<dim>64</dim>
					<dim>14</dim>
					<dim>14</dim>
				</port>
				<port id="1"/>
				<port id="2"/>
				<port id="3"/>
				<port id="4"/>
			</input>
			<output>
				<port id="5" precision="FP16">
					<dim>1</dim>
					<dim>64</dim>
					<dim>14</dim>
					<dim>14</dim>
				</port>
			</output>
		</layer>
		<layer id="371" name="encoder_421/fq_weights_1/Convert_to_float/Cast_04935_const" type="Const" version="opset1">
			<data element_type="u8" offset="88522" shape="384,64,1,1" size="24576"/>
			<output>
				<port id="1" precision="U8">
					<dim>384</dim>
					<dim>64</dim>
					<dim>1</dim>
					<dim>1</dim>
				</port>
			</output>
		</layer>
		<layer id="372" name="421/fq_weights_1/Convert_to_float" type="Convert" version="opset1">
			<data destination_type="f16"/>
			<input>
				<port id="0">
					<dim>384</dim>
					<dim>64</dim>
					<dim>1</dim>
					<dim>1</dim>
				</port>
			</input>
			<output>
				<port id="1" precision="FP16">
					<dim>384</dim>
					<dim>64</dim>
					<dim>1</dim>
					<dim>1</dim>
				</port>
			</output>
		</layer>
		<layer id="373" name="encoder_421/fq_weights_1/Copy/out_low4221_const" type="Const" version="opset1">
			<data element_type="f16" offset="880" shape="1" size="2"/>
			<output>
				<port id="1" precision="FP16">
					<dim>1</dim>
				</port>
			</output>
		</layer>
		<layer id="374" name="encoder_421/fq_weights_1/Copy/out_high4222_const" type="Const" version="opset1">
			<data element_type="f16" offset="882" shape="1" size="2"/>
			<output>
				<port id="1" precision="FP16">
					<dim>1</dim>
				</port>
			</output>
		</layer>
		<layer id="375" name="18251829_const" type="Const" version="opset1">
			<data element_type="f16" offset="113098" shape="384,1,1,1" size="768"/>
			<output>
				<port id="1" precision="FP16">
					<dim>384</dim>
					<dim>1</dim>
					<dim>1</dim>
					<dim>1</dim>
				</port>
			</output>
		</layer>
		<layer id="376" name="18261830_const" type="Const" version="opset1">
			<data element_type="f16" offset="113866" shape="384,1,1,1" size="768"/>
			<output>
				<port id="1" precision="FP16">
					<dim>384</dim>
					<dim>1</dim>
					<dim>1</dim>
					<dim>1</dim>
				</port>
			</output>
		</layer>
		<layer id="377" name="421/fq_weights_1" type="FakeQuantize" version="opset1">
			<data levels="255"/>
			<input>
				<port id="0">
					<dim>384</dim>
					<dim>64</dim>
					<dim>1</dim>
					<dim>1</dim>
				</port>
				<port id="1">
					<dim>1</dim>
				</port>
				<port id="2">
					<dim>1</dim>
				</port>
				<port id="3">
					<dim>384</dim>
					<dim>1</dim>
					<dim>1</dim>
					<dim>1</dim>
				</port>
				<port id="4">
					<dim>384</dim>
					<dim>1</dim>
					<dim>1</dim>
					<dim>1</dim>
				</port>
			</input>
			<output>
				<port id="5" precision="FP16">
					<dim>384</dim>
					<dim>64</dim>
					<dim>1</dim>
					<dim>1</dim>
				</port>
			</output>
		</layer>
		<layer id="378" name="421" type="Convolution" version="opset1">
			<data dilations="1,1" output_padding="0,0" pads_begin="0,0" pads_end="0,0" strides="1,1"/>
			<input>
				<port id="0">
					<dim>1</dim>
					<dim>64</dim>
					<dim>14</dim>
					<dim>14</dim>
				</port>
				<port id="1">
					<dim>384</dim>
					<dim>64</dim>
					<dim>1</dim>
					<dim>1</dim>
				</port>
			</input>
			<output>
				<port id="2" precision="FP16">
					<dim>1</dim>
					<dim>384</dim>
					<dim>14</dim>
					<dim>14</dim>
				</port>
			</output>
		</layer>
		<layer id="379" name="data_add_89989003/copy_const373_const" type="Const" version="opset1">
			<data element_type="f16" offset="114634" shape="1,384,1,1" size="768"/>
			<output>
				<port id="1" precision="FP16">
					<dim>1</dim>
					<dim>384</dim>
					<dim>1</dim>
					<dim>1</dim>
				</port>
			</output>
		</layer>
		<layer id="380" name="422/variance/Fused_Add_" type="Add" version="opset1">
			<input>
				<port id="0">
					<dim>1</dim>
					<dim>384</dim>
					<dim>14</dim>
					<dim>14</dim>
				</port>
				<port id="1">
					<dim>1</dim>
					<dim>384</dim>
					<dim>1</dim>
					<dim>1</dim>
				</port>
			</input>
			<output>
				<port id="2" precision="FP16">
					<dim>1</dim>
					<dim>384</dim>
					<dim>14</dim>
					<dim>14</dim>
				</port>
			</output>
		</layer>
		<layer id="381" name="423" type="ReLU" version="opset1">
			<input>
				<port id="0">
					<dim>1</dim>
					<dim>384</dim>
					<dim>14</dim>
					<dim>14</dim>
				</port>
			</input>
			<output>
				<port id="1" precision="FP16">
					<dim>1</dim>
					<dim>384</dim>
					<dim>14</dim>
					<dim>14</dim>
				</port>
			</output>
		</layer>
		<layer id="382" name="13331337_const" type="Const" version="opset1">
			<data element_type="f16" offset="115402" shape="1,384,1,1" size="768"/>
			<output>
				<port id="1" precision="FP16">
					<dim>1</dim>
					<dim>384</dim>
					<dim>1</dim>
					<dim>1</dim>
				</port>
			</output>
		</layer>
		<layer id="383" name="13341338_const" type="Const" version="opset1">
			<data element_type="f16" offset="116170" shape="1,384,1,1" size="768"/>
			<output>
				<port id="1" precision="FP16">
					<dim>1</dim>
					<dim>384</dim>
					<dim>1</dim>
					<dim>1</dim>
				</port>
			</output>
		</layer>
		<layer id="384" name="13351339_const" type="Const" version="opset1">
			<data element_type="f16" offset="115402" shape="1,384,1,1" size="768"/>
			<output>
				<port id="1" precision="FP16">
					<dim>1</dim>
					<dim>384</dim>
					<dim>1</dim>
					<dim>1</dim>
				</port>
			</output>
		</layer>
		<layer id="385" name="13361340_const" type="Const" version="opset1">
			<data element_type="f16" offset="116170" shape="1,384,1,1" size="768"/>
			<output>
				<port id="1" precision="FP16">
					<dim>1</dim>
					<dim>384</dim>
					<dim>1</dim>
					<dim>1</dim>
				</port>
			</output>
		</layer>
		<layer id="386" name="424/fq_input_0" type="FakeQuantize" version="opset1">
			<data levels="256"/>
			<input>
				<port id="0">
					<dim>1</dim>
					<dim>384</dim>
					<dim>14</dim>
					<dim>14</dim>
				</port>
				<port id="1">
					<dim>1</dim>
					<dim>384</dim>
					<dim>1</dim>
					<dim>1</dim>
				</port>
				<port id="2">
					<dim>1</dim>
					<dim>384</dim>
					<dim>1</dim>
					<dim>1</dim>
				</port>
				<port id="3">
					<dim>1</dim>
					<dim>384</dim>
					<dim>1</dim>
					<dim>1</dim>
				</port>
				<port id="4">
					<dim>1</dim>
					<dim>384</dim>
					<dim>1</dim>
					<dim>1</dim>
				</port>
			</input>
			<output>
				<port id="5" precision="FP16">
					<dim>1</dim>
					<dim>384</dim>
					<dim>14</dim>
					<dim>14</dim>
				</port>
			</output>
		</layer>
		<layer id="387" name="encoder_424/fq_weights_1/Convert_to_float/Cast_04933_const" type="Const" version="opset1">
			<data element_type="u8" offset="116938" shape="384,1,3,3" size="3456"/>
			<output>
				<port id="1" precision="U8">
					<dim>384</dim>
					<dim>1</dim>
					<dim>3</dim>
					<dim>3</dim>
				</port>
			</output>
		</layer>
		<layer id="388" name="424/fq_weights_1/Convert_to_float" type="Convert" version="opset1">
			<data destination_type="f16"/>
			<input>
				<port id="0">
					<dim>384</dim>
					<dim>1</dim>
					<dim>3</dim>
					<dim>3</dim>
				</port>
			</input>
			<output>
				<port id="1" precision="FP16">
					<dim>384</dim>
					<dim>1</dim>
					<dim>3</dim>
					<dim>3</dim>
				</port>
			</output>
		</layer>
		<layer id="389" name="encoder_424/fq_weights_1/Copy/out_low4213_const" type="Const" version="opset1">
			<data element_type="f16" offset="880" shape="1" size="2"/>
			<output>
				<port id="1" precision="FP16">
					<dim>1</dim>
				</port>
			</output>
		</layer>
		<layer id="390" name="encoder_424/fq_weights_1/Copy/out_high4214_const" type="Const" version="opset1">
			<data element_type="f16" offset="882" shape="1" size="2"/>
			<output>
				<port id="1" precision="FP16">
					<dim>1</dim>
				</port>
			</output>
		</layer>
		<layer id="391" name="13451349_const" type="Const" version="opset1">
			<data element_type="f16" offset="120394" shape="384,1,1,1" size="768"/>
			<output>
				<port id="1" precision="FP16">
					<dim>384</dim>
					<dim>1</dim>
					<dim>1</dim>
					<dim>1</dim>
				</port>
			</output>
		</layer>
		<layer id="392" name="13461350_const" type="Const" version="opset1">
			<data element_type="f16" offset="121162" shape="384,1,1,1" size="768"/>
			<output>
				<port id="1" precision="FP16">
					<dim>384</dim>
					<dim>1</dim>
					<dim>1</dim>
					<dim>1</dim>
				</port>
			</output>
		</layer>
		<layer id="393" name="424/fq_weights_1" type="FakeQuantize" version="opset1">
			<data levels="255"/>
			<input>
				<port id="0">
					<dim>384</dim>
					<dim>1</dim>
					<dim>3</dim>
					<dim>3</dim>
				</port>
				<port id="1">
					<dim>1</dim>
				</port>
				<port id="2">
					<dim>1</dim>
				</port>
				<port id="3">
					<dim>384</dim>
					<dim>1</dim>
					<dim>1</dim>
					<dim>1</dim>
				</port>
				<port id="4">
					<dim>384</dim>
					<dim>1</dim>
					<dim>1</dim>
					<dim>1</dim>
				</port>
			</input>
			<output>
				<port id="5" precision="FP16">
					<dim>384</dim>
					<dim>1</dim>
					<dim>3</dim>
					<dim>3</dim>
				</port>
			</output>
		</layer>
		<layer id="394" name="5676/value5678_const" type="Const" version="opset1">
			<data element_type="i64" offset="121930" shape="5" size="40"/>
			<output>
				<port id="1" precision="I64">
					<dim>5</dim>
				</port>
			</output>
		</layer>
		<layer id="395" name="5676" type="Reshape" version="opset1">
			<data special_zero="True"/>
			<input>
				<port id="0">
					<dim>384</dim>
					<dim>1</dim>
					<dim>3</dim>
					<dim>3</dim>
				</port>
				<port id="1">
					<dim>5</dim>
				</port>
			</input>
			<output>
				<port id="2" precision="FP16">
					<dim>384</dim>
					<dim>1</dim>
					<dim>1</dim>
					<dim>3</dim>
					<dim>3</dim>
				</port>
			</output>
		</layer>
		<layer id="396" name="424" type="GroupConvolution" version="opset1">
			<data dilations="1,1" output_padding="0,0" pads_begin="1,1" pads_end="1,1" strides="1,1"/>
			<input>
				<port id="0">
					<dim>1</dim>
					<dim>384</dim>
					<dim>14</dim>
					<dim>14</dim>
				</port>
				<port id="1">
					<dim>384</dim>
					<dim>1</dim>
					<dim>1</dim>
					<dim>3</dim>
					<dim>3</dim>
				</port>
			</input>
			<output>
				<port id="2" precision="FP16">
					<dim>1</dim>
					<dim>384</dim>
					<dim>14</dim>
					<dim>14</dim>
				</port>
			</output>
		</layer>
		<layer id="397" name="data_add_90069011/copy_const378_const" type="Const" version="opset1">
			<data element_type="f16" offset="121970" shape="1,384,1,1" size="768"/>
			<output>
				<port id="1" precision="FP16">
					<dim>1</dim>
					<dim>384</dim>
					<dim>1</dim>
					<dim>1</dim>
				</port>
			</output>
		</layer>
		<layer id="398" name="425/variance/Fused_Add_" type="Add" version="opset1">
			<input>
				<port id="0">
					<dim>1</dim>
					<dim>384</dim>
					<dim>14</dim>
					<dim>14</dim>
				</port>
				<port id="1">
					<dim>1</dim>
					<dim>384</dim>
					<dim>1</dim>
					<dim>1</dim>
				</port>
			</input>
			<output>
				<port id="2" precision="FP16">
					<dim>1</dim>
					<dim>384</dim>
					<dim>14</dim>
					<dim>14</dim>
				</port>
			</output>
		</layer>
		<layer id="399" name="426" type="ReLU" version="opset1">
			<input>
				<port id="0">
					<dim>1</dim>
					<dim>384</dim>
					<dim>14</dim>
					<dim>14</dim>
				</port>
			</input>
			<output>
				<port id="1" precision="FP16">
					<dim>1</dim>
					<dim>384</dim>
					<dim>14</dim>
					<dim>14</dim>
				</port>
			</output>
		</layer>
		<layer id="400" name="10731077_const" type="Const" version="opset1">
			<data element_type="f16" offset="880" shape="" size="2"/>
			<output>
				<port id="1" precision="FP16"/>
			</output>
		</layer>
		<layer id="401" name="10741078_const" type="Const" version="opset1">
			<data element_type="f16" offset="122738" shape="" size="2"/>
			<output>
				<port id="1" precision="FP16"/>
			</output>
		</layer>
		<layer id="402" name="10751079_const" type="Const" version="opset1">
			<data element_type="f16" offset="880" shape="" size="2"/>
			<output>
				<port id="1" precision="FP16"/>
			</output>
		</layer>
		<layer id="403" name="10761080_const" type="Const" version="opset1">
			<data element_type="f16" offset="122738" shape="" size="2"/>
			<output>
				<port id="1" precision="FP16"/>
			</output>
		</layer>
		<layer id="404" name="427/fq_input_0" type="FakeQuantize" version="opset1">
			<data levels="256"/>
			<input>
				<port id="0">
					<dim>1</dim>
					<dim>384</dim>
					<dim>14</dim>
					<dim>14</dim>
				</port>
				<port id="1"/>
				<port id="2"/>
				<port id="3"/>
				<port id="4"/>
			</input>
			<output>
				<port id="5" precision="FP16">
					<dim>1</dim>
					<dim>384</dim>
					<dim>14</dim>
					<dim>14</dim>
				</port>
			</output>
		</layer>
		<layer id="405" name="encoder_427/fq_weights_1/Convert_to_float/Cast_05027_const" type="Const" version="opset1">
			<data element_type="u8" offset="122740" shape="64,384,1,1" size="24576"/>
			<output>
				<port id="1" precision="U8">
					<dim>64</dim>
					<dim>384</dim>
					<dim>1</dim>
					<dim>1</dim>
				</port>
			</output>
		</layer>
		<layer id="406" name="427/fq_weights_1/Convert_to_float" type="Convert" version="opset1">
			<data destination_type="f16"/>
			<input>
				<port id="0">
					<dim>64</dim>
					<dim>384</dim>
					<dim>1</dim>
					<dim>1</dim>
				</port>
			</input>
			<output>
				<port id="1" precision="FP16">
					<dim>64</dim>
					<dim>384</dim>
					<dim>1</dim>
					<dim>1</dim>
				</port>
			</output>
		</layer>
		<layer id="407" name="encoder_427/fq_weights_1/Copy/out_low3965_const" type="Const" version="opset1">
			<data element_type="f16" offset="880" shape="1" size="2"/>
			<output>
				<port id="1" precision="FP16">
					<dim>1</dim>
				</port>
			</output>
		</layer>
		<layer id="408" name="encoder_427/fq_weights_1/Copy/out_high3966_const" type="Const" version="opset1">
			<data element_type="f16" offset="882" shape="1" size="2"/>
			<output>
				<port id="1" precision="FP16">
					<dim>1</dim>
				</port>
			</output>
		</layer>
		<layer id="409" name="10851089_const" type="Const" version="opset1">
			<data element_type="f16" offset="147316" shape="64,1,1,1" size="128"/>
			<output>
				<port id="1" precision="FP16">
					<dim>64</dim>
					<dim>1</dim>
					<dim>1</dim>
					<dim>1</dim>
				</port>
			</output>
		</layer>
		<layer id="410" name="10861090_const" type="Const" version="opset1">
			<data element_type="f16" offset="147444" shape="64,1,1,1" size="128"/>
			<output>
				<port id="1" precision="FP16">
					<dim>64</dim>
					<dim>1</dim>
					<dim>1</dim>
					<dim>1</dim>
				</port>
			</output>
		</layer>
		<layer id="411" name="427/fq_weights_1" type="FakeQuantize" version="opset1">
			<data levels="255"/>
			<input>
				<port id="0">
					<dim>64</dim>
					<dim>384</dim>
					<dim>1</dim>
					<dim>1</dim>
				</port>
				<port id="1">
					<dim>1</dim>
				</port>
				<port id="2">
					<dim>1</dim>
				</port>
				<port id="3">
					<dim>64</dim>
					<dim>1</dim>
					<dim>1</dim>
					<dim>1</dim>
				</port>
				<port id="4">
					<dim>64</dim>
					<dim>1</dim>
					<dim>1</dim>
					<dim>1</dim>
				</port>
			</input>
			<output>
				<port id="5" precision="FP16">
					<dim>64</dim>
					<dim>384</dim>
					<dim>1</dim>
					<dim>1</dim>
				</port>
			</output>
		</layer>
		<layer id="412" name="427" type="Convolution" version="opset1">
			<data dilations="1,1" output_padding="0,0" pads_begin="0,0" pads_end="0,0" strides="1,1"/>
			<input>
				<port id="0">
					<dim>1</dim>
					<dim>384</dim>
					<dim>14</dim>
					<dim>14</dim>
				</port>
				<port id="1">
					<dim>64</dim>
					<dim>384</dim>
					<dim>1</dim>
					<dim>1</dim>
				</port>
			</input>
			<output>
				<port id="2" precision="FP16">
					<dim>1</dim>
					<dim>64</dim>
					<dim>14</dim>
					<dim>14</dim>
				</port>
			</output>
		</layer>
		<layer id="413" name="data_add_90149019/copy_const383_const" type="Const" version="opset1">
			<data element_type="f16" offset="147572" shape="1,64,1,1" size="128"/>
			<output>
				<port id="1" precision="FP16">
					<dim>1</dim>
					<dim>64</dim>
					<dim>1</dim>
					<dim>1</dim>
				</port>
			</output>
		</layer>
		<layer id="414" name="428/variance/Fused_Add_" type="Add" version="opset1">
			<input>
				<port id="0">
					<dim>1</dim>
					<dim>64</dim>
					<dim>14</dim>
					<dim>14</dim>
				</port>
				<port id="1">
					<dim>1</dim>
					<dim>64</dim>
					<dim>1</dim>
					<dim>1</dim>
				</port>
			</input>
			<output>
				<port id="2" precision="FP16">
					<dim>1</dim>
					<dim>64</dim>
					<dim>14</dim>
					<dim>14</dim>
				</port>
			</output>
		</layer>
		<layer id="415" name="12631267_const" type="Const" version="opset1">
			<data element_type="f16" offset="147700" shape="" size="2"/>
			<output>
				<port id="1" precision="FP16"/>
			</output>
		</layer>
		<layer id="416" name="12641268_const" type="Const" version="opset1">
			<data element_type="f16" offset="147702" shape="" size="2"/>
			<output>
				<port id="1" precision="FP16"/>
			</output>
		</layer>
		<layer id="417" name="12651269_const" type="Const" version="opset1">
			<data element_type="f16" offset="147700" shape="" size="2"/>
			<output>
				<port id="1" precision="FP16"/>
			</output>
		</layer>
		<layer id="418" name="12661270_const" type="Const" version="opset1">
			<data element_type="f16" offset="147702" shape="" size="2"/>
			<output>
…
		<edge from-layer="308" from-port="2" to-layer="310" to-port="0"/>
		<edge from-layer="309" from-port="1" to-layer="310" to-port="1"/>
		<edge from-layer="310" from-port="2" to-layer="315" to-port="0"/>
		<edge from-layer="311" from-port="1" to-layer="315" to-port="1"/>
		<edge from-layer="312" from-port="1" to-layer="315" to-port="2"/>
		<edge from-layer="313" from-port="1" to-layer="315" to-port="3"/>
		<edge from-layer="314" from-port="1" to-layer="315" to-port="4"/>
		<edge from-layer="266" from-port="5" to-layer="316" to-port="0"/>
		<edge from-layer="315" from-port="5" to-layer="316" to-port="1"/>
		<edge from-layer="316" from-port="2" to-layer="321" to-port="0"/>
		<edge from-layer="317" from-port="1" to-layer="321" to-port="1"/>
		<edge from-layer="318" from-port="1" to-layer="321" to-port="2"/>
		<edge from-layer="319" from-port="1" to-layer="321" to-port="3"/>
		<edge from-layer="320" from-port="1" to-layer="321" to-port="4"/>
		<edge from-layer="322" from-port="1" to-layer="323" to-port="0"/>
		<edge from-layer="323" from-port="1" to-layer="328" to-port="0"/>
		<edge from-layer="324" from-port="1" to-layer="328" to-port="1"/>
		<edge from-layer="325" from-port="1" to-layer="328" to-port="2"/>
		<edge from-layer="326" from-port="1" to-layer="328" to-port="3"/>
		<edge from-layer="327" from-port="1" to-layer="328" to-port="4"/>
		<edge from-layer="321" from-port="5" to-layer="329" to-port="0"/>
		<edge from-layer="328" from-port="5" to-layer="329" to-port="1"/>
		<edge from-layer="329" from-port="2" to-layer="331" to-port="0"/>
		<edge from-layer="330" from-port="1" to-layer="331" to-port="1"/>
		<edge from-layer="331" from-port="2" to-layer="332" to-port="0"/>
		<edge from-layer="332" from-port="1" to-layer="337" to-port="0"/>
		<edge from-layer="333" from-port="1" to-layer="337" to-port="1"/>
		<edge from-layer="334" from-port="1" to-layer="337" to-port="2"/>
		<edge from-layer="335" from-port="1" to-layer="337" to-port="3"/>
		<edge from-layer="336" from-port="1" to-layer="337" to-port="4"/>
		<edge from-layer="338" from-port="1" to-layer="339" to-port="0"/>
		<edge from-layer="339" from-port="1" to-layer="344" to-port="0"/>
		<edge from-layer="340" from-port="1" to-layer="344" to-port="1"/>
		<edge from-layer="341" from-port="1" to-layer="344" to-port="2"/>
		<edge from-layer="342" from-port="1" to-layer="344" to-port="3"/>
		<edge from-layer="343" from-port="1" to-layer="344" to-port="4"/>
		<edge from-layer="344" from-port="5" to-layer="346" to-port="0"/>
		<edge from-layer="345" from-port="1" to-layer="346" to-port="1"/>
		<edge from-layer="337" from-port="5" to-layer="347" to-port="0"/>
		<edge from-layer="346" from-port="2" to-layer="347" to-port="1"/>
		<edge from-layer="347" from-port="2" to-layer="349" to-port="0"/>
		<edge from-layer="348" from-port="1" to-layer="349" to-port="1"/>
		<edge from-layer="349" from-port="2" to-layer="350" to-port="0"/>
		<edge from-layer="350" from-port="1" to-layer="355" to-port="0"/>
		<edge from-layer="351" from-port="1" to-layer="355" to-port="1"/>
		<edge from-layer="352" from-port="1" to-layer="355" to-port="2"/>
		<edge from-layer="353" from-port="1" to-layer="355" to-port="3"/>
		<edge from-layer="354" from-port="1" to-layer="355" to-port="4"/>
		<edge from-layer="356" from-port="1" to-layer="357" to-port="0"/>
		<edge from-layer="357" from-port="1" to-layer="362" to-port="0"/>
		<edge from-layer="358" from-port="1" to-layer="362" to-port="1"/>
		<edge from-layer="359" from-port="1" to-layer="362" to-port="2"/>
		<edge from-layer="360" from-port="1" to-layer="362" to-port="3"/>
		<edge from-layer="361" from-port="1" to-layer="362" to-port="4"/>
		<edge from-layer="355" from-port="5" to-layer="363" to-port="0"/>
		<edge from-layer="362" from-port="5" to-layer="363" to-port="1"/>
		<edge from-layer="363" from-port="2" to-layer="365" to-port="0"/>
		<edge from-layer="364" from-port="1" to-layer="365" to-port="1"/>
		<edge from-layer="365" from-port="2" to-layer="370" to-port="0"/>
		<edge from-layer="366" from-port="1" to-layer="370" to-port="1"/>
		<edge from-layer="367" from-port="1" to-layer="370" to-port="2"/>
		<edge from-layer="368" from-port="1" to-layer="370" to-port="3"/>
		<edge from-layer="369" from-port="1" to-layer="370" to-port="4"/>
		<edge from-layer="371" from-port="1" to-layer="372" to-port="0"/>
		<edge from-layer="372" from-port="1" to-layer="377" to-port="0"/>
		<edge from-layer="373" from-port="1" to-layer="377" to-port="1"/>
		<edge from-layer="374" from-port="1" to-layer="377" to-port="2"/>
		<edge from-layer="375" from-port="1" to-layer="377" to-port="3"/>
		<edge from-layer="376" from-port="1" to-layer="377" to-port="4"/>
		<edge from-layer="370" from-port="5" to-layer="378" to-port="0"/>
		<edge from-layer="377" from-port="5" to-layer="378" to-port="1"/>
		<edge from-layer="378" from-port="2" to-layer="380" to-port="0"/>
		<edge from-layer="379" from-port="1" to-layer="380" to-port="1"/>
		<edge from-layer="380" from-port="2" to-layer="381" to-port="0"/>
		<edge from-layer="381" from-port="1" to-layer="386" to-port="0"/>
		<edge from-layer="382" from-port="1" to-layer="386" to-port="1"/>
		<edge from-layer="383" from-port="1" to-layer="386" to-port="2"/>
		<edge from-layer="384" from-port="1" to-layer="386" to-port="3"/>
		<edge from-layer="385" from-port="1" to-layer="386" to-port="4"/>
		<edge from-layer="387" from-port="1" to-layer="388" to-port="0"/>
		<edge from-layer="388" from-port="1" to-layer="393" to-port="0"/>
		<edge from-layer="389" from-port="1" to-layer="393" to-port="1"/>
		<edge from-layer="390" from-port="1" to-layer="393" to-port="2"/>
		<edge from-layer="391" from-port="1" to-layer="393" to-port="3"/>
		<edge from-layer="392" from-port="1" to-layer="393" to-port="4"/>
		<edge from-layer="393" from-port="5" to-layer="395" to-port="0"/>
		<edge from-layer="394" from-port="1" to-layer="395" to-port="1"/>
		<edge from-layer="386" from-port="5" to-layer="396" to-port="0"/>
		<edge from-layer="395" from-port="2" to-layer="396" to-port="1"/>
		<edge from-layer="396" from-port="2" to-layer="398" to-port="0"/>
		<edge from-layer="397" from-port="1" to-layer="398" to-port="1"/>
		<edge from-layer="398" from-port="2" to-layer="399" to-port="0"/>
		<edge from-layer="399" from-port="1" to-layer="404" to-port="0"/>
		<edge from-layer="400" from-port="1" to-layer="404" to-port="1"/>
		<edge from-layer="401" from-port="1" to-layer="404" to-port="2"/>
		<edge from-layer="402" from-port="1" to-layer="404" to-port="3"/>
		<edge from-layer="403" from-port="1" to-layer="404" to-port="4"/>
		<edge from-layer="405" from-port="1" to-layer="406" to-port="0"/>
		<edge from-layer="406" from-port="1" to-layer="411" to-port="0"/>
		<edge from-layer="407" from-port="1" to-layer="411" to-port="1"/>
		<edge from-layer="408" from-port="1" to-layer="411" to-port="2"/>
		<edge from-layer="409" from-port="1" to-layer="411" to-port="3"/>
		<edge from-layer="410" from-port="1" to-layer="411" to-port="4"/>
		<edge from-layer="404" from-port="5" to-layer="412" to-port="0"/>
		<edge from-layer="411" from-port="5" to-layer="412" to-port="1"/>
		<edge from-layer="412" from-port="2" to-layer="414" to-port="0"/>
		<edge from-layer="413" from-port="1" to-layer="414" to-port="1"/>
		<edge from-layer="414" from-port="2" to-layer="419" to-port="0"/>
		<edge from-layer="415" from-port="1" to-layer="419" to-port="1"/>
		<edge from-layer="416" from-port="1" to-layer="419" to-port="2"/>
		<edge from-layer="417" from-port="1" to-layer="419" to-port="3"/>
		<edge from-layer="418" from-port="1" to-layer="419" to-port="4"/>
		<edge from-layer="370" from-port="5" to-layer="420" to-port="0"/>
		<edge from-layer="419" from-port="5" to-layer="420" to-port="1"/>
		<edge from-layer="420" from-port="2" to-layer="425" to-port="0"/>
		<edge from-layer="421" from-port="1" to-layer="425" to-port="1"/>
		<edge from-layer="422" from-port="1" to-layer="425" to-port="2"/>
		<edge from-layer="423" from-port="1" to-layer="425" to-port="3"/>
		<edge from-layer="424" from-port="1" to-layer="425" to-port="4"/>
		<edge from-layer="426" from-port="1" to-layer="427" to-port="0"/>
		<edge from-layer="427" from-port="1" to-layer="432" to-port="0"/>
		<edge from-layer="428" from-port="1" to-layer="432" to-port="1"/>
		<edge from-layer="429" from-port="1" to-layer="432" to-port="2"/>
		<edge from-layer="430" from-port="1" to-layer="432" to-port="3"/>
		<edge from-layer="431" from-port="1" to-layer="432" to-port="4"/>
		<edge from-layer="425" from-port="5" to-layer="433" to-port="0"/>
		<edge from-layer="432" from-port="5" to-layer="433" to-port="1"/>
		<edge from-layer="433" from-port="2" to-layer="435" to-port="0"/>
		<edge from-layer="434" from-port="1" to-layer="435" to-port="1"/>
		<edge from-layer="435" from-port="2" to-layer="436" to-port="0"/>
		<edge from-layer="436" from-port="1" to-layer="441" to-port="0"/>
		<edge from-layer="437" from-port="1" to-layer="441" to-port="1"/>
		<edge from-layer="438" from-port="1" to-layer="441" to-port="2"/>
		<edge from-layer="439" from-port="1" to-layer="441" to-port="3"/>
		<edge from-layer="440" from-port="1" to-layer="441" to-port="4"/>
		<edge from-layer="442" from-port="1" to-layer="443" to-port="0"/>
		<edge from-layer="443" from-port="1" to-layer="448" to-port="0"/>
		<edge from-layer="444" from-port="1" to-layer="448" to-port="1"/>
		<edge from-layer="445" from-port="1" to-layer="448" to-port="2"/>
		<edge from-layer="446" from-port="1" to-layer="448" to-port="3"/>
		<edge from-layer="447" from-port="1" to-layer="448" to-port="4"/>
		<edge from-layer="448" from-port="5" to-layer="450" to-port="0"/>
		<edge from-layer="449" from-port="1" to-layer="450" to-port="1"/>
		<edge from-layer="441" from-port="5" to-layer="451" to-port="0"/>
		<edge from-layer="450" from-port="2" to-layer="451" to-port="1"/>
		<edge from-layer="451" from-port="2" to-layer="453" to-port="0"/>
		<edge from-layer="452" from-port="1" to-layer="453" to-port="1"/>
		<edge from-layer="453" from-port="2" to-layer="454" to-port="0"/>
		<edge from-layer="454" from-port="1" to-layer="459" to-port="0"/>
		<edge from-layer="455" from-port="1" to-layer="459" to-port="1"/>
		<edge from-layer="456" from-port="1" to-layer="459" to-port="2"/>
		<edge from-layer="457" from-port="1" to-layer="459" to-port="3"/>
		<edge from-layer="458" from-port="1" to-layer="459" to-port="4"/>
		<edge from-layer="460" from-port="1" to-layer="461" to-port="0"/>
		<edge from-layer="461" from-port="1" to-layer="466" to-port="0"/>
		<edge from-layer="462" from-port="1" to-layer="466" to-port="1"/>
		<edge from-layer="463" from-port="1" to-layer="466" to-port="2"/>
		<edge from-layer="464" from-port="1" to-layer="466" to-port="3"/>
		<edge from-layer="465" from-port="1" to-layer="466" to-port="4"/>
		<edge from-layer="459" from-port="5" to-layer="467" to-port="0"/>
		<edge from-layer="466" from-port="5" to-layer="467" to-port="1"/>
		<edge from-layer="467" from-port="2" to-layer="469" to-port="0"/>
		<edge from-layer="468" from-port="1" to-layer="469" to-port="1"/>
		<edge from-layer="469" from-port="2" to-layer="474" to-port="0"/>
		<edge from-layer="470" from-port="1" to-layer="474" to-port="1"/>
		<edge from-layer="471" from-port="1" to-layer="474" to-port="2"/>
		<edge from-layer="472" from-port="1" to-layer="474" to-port="3"/>
		<edge from-layer="473" from-port="1" to-layer="474" to-port="4"/>
		<edge from-layer="425" from-port="5" to-layer="475" to-port="0"/>
		<edge from-layer="474" from-port="5" to-layer="475" to-port="1"/>
		<edge from-layer="475" from-port="2" to-layer="480" to-port="0"/>
		<edge from-layer="476" from-port="1" to-layer="480" to-port="1"/>
		<edge from-layer="477" from-port="1" to-layer="480" to-port="2"/>
		<edge from-layer="478" from-port="1" to-layer="480" to-port="3"/>
		<edge from-layer="479" from-port="1" to-layer="480" to-port="4"/>
		<edge from-layer="481" from-port="1" to-layer="482" to-port="0"/>
		<edge from-layer="482" from-port="1" to-layer="487" to-port="0"/>
		<edge from-layer="483" from-port="1" to-layer="487" to-port="1"/>
		<edge from-layer="484" from-port="1" to-layer="487" to-port="2"/>
		<edge from-layer="485" from-port="1" to-layer="487" to-port="3"/>
		<edge from-layer="486" from-port="1" to-layer="487" to-port="4"/>
		<edge from-layer="480" from-port="5" to-layer="488" to-port="0"/>
		<edge from-layer="487" from-port="5" to-layer="488" to-port="1"/>
		<edge from-layer="488" from-port="2" to-layer="490" to-port="0"/>
		<edge from-layer="489" from-port="1" to-layer="490" to-port="1"/>
		<edge from-layer="490" from-port="2" to-layer="491" to-port="0"/>
		<edge from-layer="491" from-port="1" to-layer="496" to-port="0"/>
		<edge from-layer="492" from-port="1" to-layer="496" to-port="1"/>
		<edge from-layer="493" from-port="1" to-layer="496" to-port="2"/>
		<edge from-layer="494" from-port="1" to-layer="496" to-port="3"/>
		<edge from-layer="495" from-port="1" to-layer="496" to-port="4"/>
		<edge from-layer="497" from-port="1" to-layer="498" to-port="0"/>
		<edge from-layer="498" from-port="1" to-layer="503" to-port="0"/>
		<edge from-layer="499" from-port="1" to-layer="503" to-port="1"/>
		<edge from-layer="500" from-port="1" to-layer="503" to-port="2"/>
		<edge from-layer="501" from-port="1" to-layer="503" to-port="3"/>
		<edge from-layer="502" from-port="1" to-layer="503" to-port="4"/>
		<edge from-layer="503" from-port="5" to-layer="505" to-port="0"/>
		<edge from-layer="504" from-port="1" to-layer="505" to-port="1"/>
		<edge from-layer="496" from-port="5" to-layer="506" to-port="0"/>
		<edge from-layer="505" from-port="2" to-layer="506" to-port="1"/>
		<edge from-layer="506" from-port="2" to-layer="508" to-port="0"/>
		<edge from-layer="507" from-port="1" to-layer="508" to-port="1"/>
		<edge from-layer="508" from-port="2" to-layer="509" to-port="0"/>
		<edge from-layer="509" from-port="1" to-layer="514" to-port="0"/>
		<edge from-layer="510" from-port="1" to-layer="514" to-port="1"/>
		<edge from-layer="511" from-port="1" to-layer="514" to-port="2"/>
		<edge from-layer="512" from-port="1" to-layer="514" to-port="3"/>
		<edge from-layer="513" from-port="1" to-layer="514" to-port="4"/>
		<edge from-layer="515" from-port="1" to-layer="516" to-port="0"/>
		<edge from-layer="516" from-port="1" to-layer="521" to-port="0"/>
		<edge from-layer="517" from-port="1" to-layer="521" to-port="1"/>
		<edge from-layer="518" from-port="1" to-layer="521" to-port="2"/>
		<edge from-layer="519" from-port="1" to-layer="521" to-port="3"/>
		<edge from-layer="520" from-port="1" to-layer="521" to-port="4"/>
		<edge from-layer="514" from-port="5" to-layer="522" to-port="0"/>
		<edge from-layer="521" from-port="5" to-layer="522" to-port="1"/>
		<edge from-layer="522" from-port="2" to-layer="524" to-port="0"/>
		<edge from-layer="523" from-port="1" to-layer="524" to-port="1"/>
		<edge from-layer="524" from-port="2" to-layer="529" to-port="0"/>
		<edge from-layer="525" from-port="1" to-layer="529" to-port="1"/>
		<edge from-layer="526" from-port="1" to-layer="529" to-port="2"/>
		<edge from-layer="527" from-port="1" to-layer="529" to-port="3"/>
		<edge from-layer="528" from-port="1" to-layer="529" to-port="4"/>
		<edge from-layer="480" from-port="5" to-layer="530" to-port="0"/>
		<edge from-layer="529" from-port="5" to-layer="530" to-port="1"/>
		<edge from-layer="530" from-port="2" to-layer="535" to-port="0"/>
		<edge from-layer="531" from-port="1" to-layer="535" to-port="1"/>
		<edge from-layer="532" from-port="1" to-layer="535" to-port="2"/>
		<edge from-layer="533" from-port="1" to-layer="535" to-port="3"/>
		<edge from-layer="534" from-port="1" to-layer="535" to-port="4"/>
		<edge from-layer="536" from-port="1" to-layer="537" to-port="0"/>
		<edge from-layer="537" from-port="1" to-layer="542" to-port="0"/>
		<edge from-layer="538" from-port="1" to-layer="542" to-port="1"/>
		<edge from-layer="539" from-port="1" to-layer="542" to-port="2"/>
		<edge from-layer="540" from-port="1" to-layer="542" to-port="3"/>
		<edge from-layer="541" from-port="1" to-layer="542" to-port="4"/>
		<edge from-layer="535" from-port="5" to-layer="543" to-port="0"/>
		<edge from-layer="542" from-port="5" to-layer="543" to-port="1"/>
		<edge from-layer="543" from-port="2" to-layer="545" to-port="0"/>
		<edge from-layer="544" from-port="1" to-layer="545" to-port="1"/>
		<edge from-layer="545" from-port="2" to-layer="546" to-port="0"/>
		<edge from-layer="546" from-port="1" to-layer="551" to-port="0"/>
		<edge from-layer="547" from-port="1" to-layer="551" to-port="1"/>
		<edge from-layer="548" from-port="1" to-layer="551" to-port="2"/>
		<edge from-layer="549" from-port="1" to-layer="551" to-port="3"/>
		<edge from-layer="550" from-port="1" to-layer="551" to-port="4"/>
		<edge from-layer="552" from-port="1" to-layer="553" to-port="0"/>
		<edge from-layer="553" from-port="1" to-layer="558" to-port="0"/>
		<edge from-layer="554" from-port="1" to-layer="558" to-port="1"/>
		<edge from-layer="555" from-port="1" to-layer="558" to-port="2"/>
		<edge from-layer="556" from-port="1" to-layer="558" to-port="3"/>
		<edge from-layer="557" from-port="1" to-layer="558" to-port="4"/>
		<edge from-layer="558" from-port="5" to-layer="560" to-port="0"/>
		<edge from-layer="559" from-port="1" to-layer="560" to-port="1"/>
		<edge from-layer="551" from-port="5" to-layer="561" to-port="0"/>
		<edge from-layer="560" from-port="2" to-layer="561" to-port="1"/>
		<edge from-layer="561" from-port="2" to-layer="563" to-port="0"/>
		<edge from-layer="562" from-port="1" to-layer="563" to-port="1"/>
		<edge from-layer="563" from-port="2" to-layer="564" to-port="0"/>
		<edge from-layer="564" from-port="1" to-layer="569" to-port="0"/>
		<edge from-layer="565" from-port="1" to-layer="569" to-port="1"/>
		<edge from-layer="566" from-port="1" to-layer="569" to-port="2"/>
		<edge from-layer="567" from-port="1" to-layer="569" to-port="3"/>
		<edge from-layer="568" from-port="1" to-layer="569" to-port="4"/>
		<edge from-layer="570" from-port="1" to-layer="571" to-port="0"/>
		<edge from-layer="571" from-port="1" to-layer="576" to-port="0"/>
		<edge from-layer="572" from-port="1" to-layer="576" to-port="1"/>
		<edge from-layer="573" from-port="1" to-layer="576" to-port="2"/>
		<edge from-layer="574" from-port="1" to-layer="576" to-port="3"/>
		<edge from-layer="575" from-port="1" to-layer="576" to-port="4"/>
		<edge from-layer="569" from-port="5" to-layer="577" to-port="0"/>
		<edge from-layer="576" from-port="5" to-layer="577" to-port="1"/>
		<edge from-layer="577" from-port="2" to-layer="579" to-port="0"/>
		<edge from-layer="578" from-port="1" to-layer="579" to-port="1"/>
		<edge from-layer="579" from-port="2" to-layer="584" to-port="0"/>
		<edge from-layer="580" from-port="1" to-layer="584" to-port="1"/>
		<edge from-layer="581" from-port="1" to-layer="584" to-port="2"/>
		<edge from-layer="582" from-port="1" to-layer="584" to-port="3"/>
		<edge from-layer="583" from-port="1" to-layer="584" to-port="4"/>
		<edge from-layer="585" from-port="1" to-layer="586" to-port="0"/>
		<edge from-layer="586" from-port="1" to-layer="591" to-port="0"/>
		<edge from-layer="587" from-port="1" to-layer="591" to-port="1"/>
		<edge from-layer="588" from-port="1" to-layer="591" to-port="2"/>
		<edge from-layer="589" from-port="1" to-layer="591" to-port="3"/>
		<edge from-layer="590" from-port="1" to-layer="591" to-port="4"/>
		<edge from-layer="584" from-port="5" to-layer="592" to-port="0"/>
		<edge from-layer="591" from-port="5" to-layer="592" to-port="1"/>
		<edge from-layer="592" from-port="2" to-layer="594" to-port="0"/>
		<edge from-layer="593" from-port="1" to-layer="594" to-port="1"/>
		<edge from-layer="594" from-port="2" to-layer="595" to-port="0"/>
		<edge from-layer="595" from-port="1" to-layer="600" to-port="0"/>
		<edge from-layer="596" from-port="1" to-layer="600" to-port="1"/>
		<edge from-layer="597" from-port="1" to-layer="600" to-port="2"/>
		<edge from-layer="598" from-port="1" to-layer="600" to-port="3"/>
		<edge from-layer="599" from-port="1" to-layer="600" to-port="4"/>
		<edge from-layer="601" from-port="1" to-layer="602" to-port="0"/>
		<edge from-layer="602" from-port="1" to-layer="607" to-port="0"/>
		<edge from-layer="603" from-port="1" to-layer="607" to-port="1"/>
		<edge from-layer="604" from-port="1" to-layer="607" to-port="2"/>
		<edge from-layer="605" from-port="1" to-layer="607" to-port="3"/>
		<edge from-layer="606" from-port="1" to-layer="607" to-port="4"/>
		<edge from-layer="607" from-port="5" to-layer="609" to-port="0"/>
		<edge from-layer="608" from-port="1" to-layer="609" to-port="1"/>
		<edge from-layer="600" from-port="5" to-layer="610" to-port="0"/>
		<edge from-layer="609" from-port="2" to-layer="610" to-port="1"/>
		<edge from-layer="610" from-port="2" to-layer="612" to-port="0"/>
		<edge from-layer="611" from-port="1" to-layer="612" to-port="1"/>
		<edge from-layer="612" from-port="2" to-layer="613" to-port="0"/>
		<edge from-layer="613" from-port="1" to-layer="618" to-port="0"/>
		<edge from-layer="614" from-port="1" to-layer="618" to-port="1"/>
		<edge from-layer="615" from-port="1" to-layer="618" to-port="2"/>
		<edge from-layer="616" from-port="1" to-layer="618" to-port="3"/>
		<edge from-layer="617" from-port="1" to-layer="618" to-port="4"/>
		<edge from-layer="619" from-port="1" to-layer="620" to-port="0"/>
		<edge from-layer="620" from-port="1" to-layer="625" to-port="0"/>
		<edge from-layer="621" from-port="1" to-layer="625" to-port="1"/>
		<edge from-layer="622" from-port="1" to-layer="625" to-port="2"/>
		<edge from-layer="623" from-port="1" to-layer="625" to-port="3"/>
		<edge from-layer="624" from-port="1" to-layer="625" to-port="4"/>
		<edge from-layer="618" from-port="5" to-layer="626" to-port="0"/>
		<edge from-layer="625" from-port="5" to-layer="626" to-port="1"/>
		<edge from-layer="626" from-port="2" to-layer="628" to-port="0"/>
		<edge from-layer="627" from-port="1" to-layer="628" to-port="1"/>
		<edge from-layer="628" from-port="2" to-layer="633" to-port="0"/>
		<edge from-layer="629" from-port="1" to-layer="633" to-port="1"/>
		<edge from-layer="630" from-port="1" to-layer="633" to-port="2"/>
		<edge from-layer="631" from-port="1" to-layer="633" to-port="3"/>
		<edge from-layer="632" from-port="1" to-layer="633" to-port="4"/>
		<edge from-layer="584" from-port="5" to-layer="634" to-port="0"/>
		<edge from-layer="633" from-port="5" to-layer="634" to-port="1"/>
		<edge from-layer="634" from-port="2" to-layer="639" to-port="0"/>
		<edge from-layer="635" from-port="1" to-layer="639" to-port="1"/>
		<edge from-layer="636" from-port="1" to-layer="639" to-port="2"/>
		<edge from-layer="637" from-port="1" to-layer="639" to-port="3"/>
		<edge from-layer="638" from-port="1" to-layer="639" to-port="4"/>
		<edge from-layer="640" from-port="1" to-layer="641" to-port="0"/>
		<edge from-layer="641" from-port="1" to-layer="646" to-port="0"/>
		<edge from-layer="642" from-port="1" to-layer="646" to-port="1"/>
		<edge from-layer="643" from-port="1" to-layer="646" to-port="2"/>
		<edge from-layer="644" from-port="1" to-layer="646" to-port="3"/>
		<edge from-layer="645" from-port="1" to-layer="646" to-port="4"/>
		<edge from-layer="639" from-port="5" to-layer="647" to-port="0"/>
		<edge from-layer="646" from-port="5" to-layer="647" to-port="1"/>
		<edge from-layer="647" from-port="2" to-layer="649" to-port="0"/>
		<edge from-layer="648" from-port="1" to-layer="649" to-port="1"/>
		<edge from-layer="649" from-port="2" to-layer="650" to-port="0"/>
		<edge from-layer="650" from-port="1" to-layer="655" to-port="0"/>
		<edge from-layer="651" from-port="1" to-layer="655" to-port="1"/>
		<edge from-layer="652" from-port="1" to-layer="655" to-port="2"/>
		<edge from-layer="653" from-port="1" to-layer="655" to-port="3"/>
		<edge from-layer="654" from-port="1" to-layer="655" to-port="4"/>
		<edge from-layer="656" from-port="1" to-layer="657" to-port="0"/>
		<edge from-layer="657" from-port="1" to-layer="662" to-port="0"/>
		<edge from-layer="658" from-port="1" to-layer="662" to-port="1"/>
		<edge from-layer="659" from-port="1" to-layer="662" to-port="2"/>
		<edge from-layer="660" from-port="1" to-layer="662" to-port="3"/>
		<edge from-layer="661" from-port="1" to-layer="662" to-port="4"/>
		<edge from-layer="662" from-port="5" to-layer="664" to-port="0"/>
		<edge from-layer="663" from-port="1" to-layer="664" to-port="1"/>
		<edge from-layer="655" from-port="5" to-layer="665" to-port="0"/>
		<edge from-layer="664" from-port="2" to-layer="665" to-port="1"/>
		<edge from-layer="665" from-port="2" to-layer="667" to-port="0"/>
		<edge from-layer="666" from-port="1" to-layer="667" to-port="1"/>
		<edge from-layer="667" from-port="2" to-layer="668" to-port="0"/>
		<edge from-layer="668" from-port="1" to-layer="673" to-port="0"/>
		<edge from-layer="669" from-port="1" to-layer="673" to-port="1"/>
		<edge from-layer="670" from-port="1" to-layer="673" to-port="2"/>
		<edge from-layer="671" from-port="1" to-layer="673" to-port="3"/>
		<edge from-layer="672" from-port="1" to-layer="673" to-port="4"/>
		<edge from-layer="674" from-port="1" to-layer="675" to-port="0"/>
		<edge from-layer="675" from-port="1" to-layer="680" to-port="0"/>
		<edge from-layer="676" from-port="1" to-layer="680" to-port="1"/>
		<edge from-layer="677" from-port="1" to-layer="680" to-port="2"/>
		<edge from-layer="678" from-port="1" to-layer="680" to-port="3"/>
		<edge from-layer="679" from-port="1" to-layer="680" to-port="4"/>
		<edge from-layer="673" from-port="5" to-layer="681" to-port="0"/>
		<edge from-layer="680" from-port="5" to-layer="681" to-port="1"/>
		<edge from-layer="681" from-port="2" to-layer="683" to-port="0"/>
		<edge from-layer="682" from-port="1" to-layer="683" to-port="1"/>
		<edge from-layer="683" from-port="2" to-layer="688" to-port="0"/>
		<edge from-layer="684" from-port="1" to-layer="688" to-port="1"/>
		<edge from-layer="685" from-port="1" to-layer="688" to-port="2"/>
		<edge from-layer="686" from-port="1" to-layer="688" to-port="3"/>
		<edge from-layer="687" from-port="1" to-layer="688" to-port="4"/>
		<edge from-layer="639" from-port="5" to-layer="689" to-port="0"/>
		<edge from-layer="688" from-port="5" to-layer="689" to-port="1"/>
		<edge from-layer="689" from-port="2" to-layer="694" to-port="0"/>
		<edge from-layer="690" from-port="1" to-layer="694" to-port="1"/>
		<edge from-layer="691" from-port="1" to-layer="694" to-port="2"/>
		<edge from-layer="692" from-port="1" to-layer="694" to-port="3"/>
		<edge from-layer="693" from-port="1" to-layer="694" to-port="4"/>
		<edge from-layer="695" from-port="1" to-layer="696" to-port="0"/>
		<edge from-layer="696" from-port="1" to-layer="701" to-port="0"/>
		<edge from-layer="697" from-port="1" to-layer="701" to-port="1"/>
		<edge from-layer="698" from-port="1" to-layer="701" to-port="2"/>
		<edge from-layer="699" from-port="1" to-layer="701" to-port="3"/>
		<edge from-layer="700" from-port="1" to-layer="701" to-port="4"/>
		<edge from-layer="694" from-port="5" to-layer="702" to-port="0"/>
		<edge from-layer="701" from-port="5" to-layer="702" to-port="1"/>
		<edge from-layer="702" from-port="2" to-layer="704" to-port="0"/>
		<edge from-layer="703" from-port="1" to-layer="704" to-port="1"/>
		<edge from-layer="704" from-port="2" to-layer="705" to-port="0"/>
		<edge from-layer="705" from-port="1" to-layer="710" to-port="0"/>
		<edge from-layer="706" from-port="1" to-layer="710" to-port="1"/>
		<edge from-layer="707" from-port="1" to-layer="710" to-port="2"/>
		<edge from-layer="708" from-port="1" to-layer="710" to-port="3"/>
		<edge from-layer="709" from-port="1" to-layer="710" to-port="4"/>
		<edge from-layer="711" from-port="1" to-layer="712" to-port="0"/>
		<edge from-layer="712" from-port="1" to-layer="717" to-port="0"/>
		<edge from-layer="713" from-port="1" to-layer="717" to-port="1"/>
		<edge from-layer="714" from-port="1" to-layer="717" to-port="2"/>
		<edge from-layer="715" from-port="1" to-layer="717" to-port="3"/>
		<edge from-layer="716" from-port="1" to-layer="717" to-port="4"/>
		<edge from-layer="717" from-port="5" to-layer="719" to-port="0"/>
		<edge from-layer="718" from-port="1" to-layer="719" to-port="1"/>
		<edge from-layer="710" from-port="5" to-layer="720" to-port="0"/>
		<edge from-layer="719" from-port="2" to-layer="720" to-port="1"/>
		<edge from-layer="720" from-port="2" to-layer="722" to-port="0"/>
		<edge from-layer="721" from-port="1" to-layer="722" to-port="1"/>
		<edge from-layer="722" from-port="2" to-layer="723" to-port="0"/>
		<edge from-layer="723" from-port="1" to-layer="728" to-port="0"/>
		<edge from-layer="724" from-port="1" to-layer="728" to-port="1"/>
		<edge from-layer="725" from-port="1" to-layer="728" to-port="2"/>
		<edge from-layer="726" from-port="1" to-layer="728" to-port="3"/>
		<edge from-layer="727" from-port="1" to-layer="728" to-port="4"/>
		<edge from-layer="729" from-port="1" to-layer="730" to-port="0"/>
		<edge from-layer="730" from-port="1" to-layer="735" to-port="0"/>
		<edge from-layer="731" from-port="1" to-layer="735" to-port="1"/>
		<edge from-layer="732" from-port="1" to-layer="735" to-port="2"/>
		<edge from-layer="733" from-port="1" to-layer="735" to-port="3"/>
		<edge from-layer="734" from-port="1" to-layer="735" to-port="4"/>
		<edge from-layer="728" from-port="5" to-layer="736" to-port="0"/>
		<edge from-layer="735" from-port="5" to-layer="736" to-port="1"/>
		<edge from-layer="736" from-port="2" to-layer="738" to-port="0"/>
		<edge from-layer="737" from-port="1" to-layer="738" to-port="1"/>
		<edge from-layer="738" from-port="2" to-layer="743" to-port="0"/>
		<edge from-layer="739" from-port="1" to-layer="743" to-port="1"/>
		<edge from-layer="740" from-port="1" to-layer="743" to-port="2"/>
		<edge from-layer="741" from-port="1" to-layer="743" to-port="3"/>
		<edge from-layer="742" from-port="1" to-layer="743" to-port="4"/>
		<edge from-layer="744" from-port="1" to-layer="745" to-port="0"/>
		<edge from-layer="745" from-port="1" to-layer="750" to-port="0"/>
		<edge from-layer="746" from-port="1" to-layer="750" to-port="1"/>
		<edge from-layer="747" from-port="1" to-layer="750" to-port="2"/>
		<edge from-layer="748" from-port="1" to-layer="750" to-port="3"/>
		<edge from-layer="749" from-port="1" to-layer="750" to-port="4"/>
		<edge from-layer="743" from-port="5" to-layer="751" to-port="0"/>
		<edge from-layer="750" from-port="5" to-layer="751" to-port="1"/>
		<edge from-layer="751" from-port="2" to-layer="753" to-port="0"/>
		<edge from-layer="752" from-port="1" to-layer="753" to-port="1"/>
		<edge from-layer="753" from-port="2" to-layer="754" to-port="0"/>
		<edge from-layer="754" from-port="1" to-layer="759" to-port="0"/>
		<edge from-layer="755" from-port="1" to-layer="759" to-port="1"/>
		<edge from-layer="756" from-port="1" to-layer="759" to-port="2"/>
		<edge from-layer="757" from-port="1" to-layer="759" to-port="3"/>
		<edge from-layer="758" from-port="1" to-layer="759" to-port="4"/>
		<edge from-layer="760" from-port="1" to-layer="761" to-port="0"/>
		<edge from-layer="761" from-port="1" to-layer="766" to-port="0"/>
		<edge from-layer="762" from-port="1" to-layer="766" to-port="1"/>
		<edge from-layer="763" from-port="1" to-layer="766" to-port="2"/>
		<edge from-layer="764" from-port="1" to-layer="766" to-port="3"/>
		<edge from-layer="765" from-port="1" to-layer="766" to-port="4"/>
		<edge from-layer="766" from-port="5" to-layer="768" to-port="0"/>
		<edge from-layer="767" from-port="1" to-layer="768" to-port="1"/>
		<edge from-layer="759" from-port="5" to-layer="769" to-port="0"/>
		<edge from-layer="768" from-port="2" to-layer="769" to-port="1"/>
		<edge from-layer="769" from-port="2" to-layer="771" to-port="0"/>
		<edge from-layer="770" from-port="1" to-layer="771" to-port="1"/>
		<edge from-layer="771" from-port="2" to-layer="772" to-port="0"/>
		<edge from-layer="772" from-port="1" to-layer="777" to-port="0"/>
		<edge from-layer="773" from-port="1" to-layer="777" to-port="1"/>
		<edge from-layer="774" from-port="1" to-layer="777" to-port="2"/>
		<edge from-layer="775" from-port="1" to-layer="777" to-port="3"/>
		<edge from-layer="776" from-port="1" to-layer="777" to-port="4"/>
		<edge from-layer="778" from-port="1" to-layer="779" to-port="0"/>
		<edge from-layer="779" from-port="1" to-layer="784" to-port="0"/>
		<edge from-layer="780" from-port="1" to-layer="784" to-port="1"/>
		<edge from-layer="781" from-port="1" to-layer="784" to-port="2"/>
		<edge from-layer="782" from-port="1" to-layer="784" to-port="3"/>
		<edge from-layer="783" from-port="1" to-layer="784" to-port="4"/>
		<edge from-layer="777" from-port="5" to-layer="785" to-port="0"/>
		<edge from-layer="784" from-port="5" to-layer="785" to-port="1"/>
		<edge from-layer="785" from-port="2" to-layer="787" to-port="0"/>
		<edge from-layer="786" from-port="1" to-layer="787" to-port="1"/>
		<edge from-layer="787" from-port="2" to-layer="792" to-port="0"/>
		<edge from-layer="788" from-port="1" to-layer="792" to-port="1"/>
		<edge from-layer="789" from-port="1" to-layer="792" to-port="2"/>
		<edge from-layer="790" from-port="1" to-layer="792" to-port="3"/>
		<edge from-layer="791" from-port="1" to-layer="792" to-port="4"/>
		<edge from-layer="743" from-port="5" to-layer="793" to-port="0"/>
		<edge from-layer="792" from-port="5" to-layer="793" to-port="1"/>
		<edge from-layer="793" from-port="2" to-layer="798" to-port="0"/>
		<edge from-layer="794" from-port="1" to-layer="798" to-port="1"/>
		<edge from-layer="795" from-port="1" to-layer="798" to-port="2"/>
		<edge from-layer="796" from-port="1" to-layer="798" to-port="3"/>
		<edge from-layer="797" from-port="1" to-layer="798" to-port="4"/>
		<edge from-layer="799" from-port="1" to-layer="800" to-port="0"/>
		<edge from-layer="800" from-port="1" to-layer="805" to-port="0"/>
		<edge from-layer="801" from-port="1" to-layer="805" to-port="1"/>
		<edge from-layer="802" from-port="1" to-layer="805" to-port="2"/>
		<edge from-layer="803" from-port="1" to-layer="805" to-port="3"/>
		<edge from-layer="804" from-port="1" to-layer="805" to-port="4"/>
		<edge from-layer="798" from-port="5" to-layer="806" to-port="0"/>
		<edge from-layer="805" from-port="5" to-layer="806" to-port="1"/>
		<edge from-layer="806" from-port="2" to-layer="808" to-port="0"/>
		<edge from-layer="807" from-port="1" to-layer="808" to-port="1"/>
		<edge from-layer="808" from-port="2" to-layer="809" to-port="0"/>
		<edge from-layer="809" from-port="1" to-layer="814" to-port="0"/>
		<edge from-layer="810" from-port="1" to-layer="814" to-port="1"/>
		<edge from-layer="811" from-port="1" to-layer="814" to-port="2"/>
		<edge from-layer="812" from-port="1" to-layer="814" to-port="3"/>
		<edge from-layer="813" from-port="1" to-layer="814" to-port="4"/>
		<edge from-layer="815" from-port="1" to-layer="816" to-port="0"/>
		<edge from-layer="816" from-port="1" to-layer="821" to-port="0"/>
		<edge from-layer="817" from-port="1" to-layer="821" to-port="1"/>
		<edge from-layer="818" from-port="1" to-layer="821" to-port="2"/>
		<edge from-layer="819" from-port="1" to-layer="821" to-port="3"/>
		<edge from-layer="820" from-port="1" to-layer="821" to-port="4"/>
		<edge from-layer="821" from-port="5" to-layer="823" to-port="0"/>
		<edge from-layer="822" from-port="1" to-layer="823" to-port="1"/>
		<edge from-layer="814" from-port="5" to-layer="824" to-port="0"/>
		<edge from-layer="823" from-port="2" to-layer="824" to-port="1"/>
		<edge from-layer="824" from-port="2" to-layer="826" to-port="0"/>
		<edge from-layer="825" from-port="1" to-layer="826" to-port="1"/>
		<edge from-layer="826" from-port="2" to-layer="827" to-port="0"/>
		<edge from-layer="827" from-port="1" to-layer="832" to-port="0"/>
		<edge from-layer="828" from-port="1" to-layer="832" to-port="1"/>
		<edge from-layer="829" from-port="1" to-layer="832" to-port="2"/>
		<edge from-layer="830" from-port="1" to-layer="832" to-port="3"/>
		<edge from-layer="831" from-port="1" to-layer="832" to-port="4"/>
		<edge from-layer="833" from-port="1" to-layer="834" to-port="0"/>
		<edge from-layer="834" from-port="1" to-layer="839" to-port="0"/>
		<edge from-layer="835" from-port="1" to-layer="839" to-port="1"/>
		<edge from-layer="836" from-port="1" to-layer="839" to-port="2"/>
		<edge from-layer="837" from-port="1" to-layer="839" to-port="3"/>
		<edge from-layer="838" from-port="1" to-layer="839" to-port="4"/>
		<edge from-layer="832" from-port="5" to-layer="840" to-port="0"/>
		<edge from-layer="839" from-port="5" to-layer="840" to-port="1"/>
		<edge from-layer="840" from-port="2" to-layer="842" to-port="0"/>
		<edge from-layer="841" from-port="1" to-layer="842" to-port="1"/>
		<edge from-layer="842" from-port="2" to-layer="847" to-port="0"/>
		<edge from-layer="843" from-port="1" to-layer="847" to-port="1"/>
		<edge from-layer="844" from-port="1" to-layer="847" to-port="2"/>
		<edge from-layer="845" from-port="1" to-layer="847" to-port="3"/>
		<edge from-layer="846" from-port="1" to-layer="847" to-port="4"/>
		<edge from-layer="798" from-port="5" to-layer="848" to-port="0"/>
		<edge from-layer="847" from-port="5" to-layer="848" to-port="1"/>
		<edge from-layer="848" from-port="2" to-layer="853" to-port="0"/>
		<edge from-layer="849" from-port="1" to-layer="853" to-port="1"/>
		<edge from-layer="850" from-port="1" to-layer="853" to-port="2"/>
		<edge from-layer="851" from-port="1" to-layer="853" to-port="3"/>
		<edge from-layer="852" from-port="1" to-layer="853" to-port="4"/>
		<edge from-layer="854" from-port="1" to-layer="855" to-port="0"/>
		<edge from-layer="855" from-port="1" to-layer="860" to-port="0"/>
		<edge from-layer="856" from-port="1" to-layer="860" to-port="1"/>
		<edge from-layer="857" from-port="1" to-layer="860" to-port="2"/>
		<edge from-layer="858" from-port="1" to-layer="860" to-port="3"/>
		<edge from-layer="859" from-port="1" to-layer="860" to-port="4"/>
		<edge from-layer="853" from-port="5" to-layer="861" to-port="0"/>
		<edge from-layer="860" from-port="5" to-layer="861" to-port="1"/>
		<edge from-layer="861" from-port="2" to-layer="863" to-port="0"/>
		<edge from-layer="862" from-port="1" to-layer="863" to-port="1"/>
		<edge from-layer="863" from-port="2" to-layer="864" to-port="0"/>
		<edge from-layer="864" from-port="1" to-layer="869" to-port="0"/>
		<edge from-layer="865" from-port="1" to-layer="869" to-port="1"/>
		<edge from-layer="866" from-port="1" to-layer="869" to-port="2"/>
		<edge from-layer="867" from-port="1" to-layer="869" to-port="3"/>
		<edge from-layer="868" from-port="1" to-layer="869" to-port="4"/>
		<edge from-layer="870" from-port="1" to-layer="871" to-port="0"/>
		<edge from-layer="871" from-port="1" to-layer="876" to-port="0"/>
		<edge from-layer="872" from-port="1" to-layer="876" to-port="1"/>
		<edge from-layer="873" from-port="1" to-layer="876" to-port="2"/>
		<edge from-layer="874" from-port="1" to-layer="876" to-port="3"/>
		<edge from-layer="875" from-port="1" to-layer="876" to-port="4"/>
		<edge from-layer="876" from-port="5" to-layer="878" to-port="0"/>
		<edge from-layer="877" from-port="1" to-layer="878" to-port="1"/>
		<edge from-layer="869" from-port="5" to-layer="879" to-port="0"/>
		<edge from-layer="878" from-port="2" to-layer="879" to-port="1"/>
		<edge from-layer="879" from-port="2" to-layer="881" to-port="0"/>
		<edge from-layer="880" from-port="1" to-layer="881" to-port="1"/>
		<edge from-layer="881" from-port="2" to-layer="882" to-port="0"/>
		<edge from-layer="882" from-port="1" to-layer="887" to-port="0"/>
		<edge from-layer="883" from-port="1" to-layer="887" to-port="1"/>
		<edge from-layer="884" from-port="1" to-layer="887" to-port="2"/>
		<edge from-layer="885" from-port="1" to-layer="887" to-port="3"/>
		<edge from-layer="886" from-port="1" to-layer="887" to-port="4"/>
		<edge from-layer="888" from-port="1" to-layer="889" to-port="0"/>
		<edge from-layer="889" from-port="1" to-layer="894" to-port="0"/>
		<edge from-layer="890" from-port="1" to-layer="894" to-port="1"/>
		<edge from-layer="891" from-port="1" to-layer="894" to-port="2"/>
		<edge from-layer="892" from-port="1" to-layer="894" to-port="3"/>
		<edge from-layer="893" from-port="1" to-layer="894" to-port="4"/>
		<edge from-layer="887" from-port="5" to-layer="895" to-port="0"/>
		<edge from-layer="894" from-port="5" to-layer="895" to-port="1"/>
		<edge from-layer="895" from-port="2" to-layer="897" to-port="0"/>
		<edge from-layer="896" from-port="1" to-layer="897" to-port="1"/>
		<edge from-layer="897" from-port="2" to-layer="902" to-port="0"/>
		<edge from-layer="898" from-port="1" to-layer="902" to-port="1"/>
		<edge from-layer="899" from-port="1" to-layer="902" to-port="2"/>
		<edge from-layer="900" from-port="1" to-layer="902" to-port="3"/>
		<edge from-layer="901" from-port="1" to-layer="902" to-port="4"/>
		<edge from-layer="903" from-port="1" to-layer="904" to-port="0"/>
		<edge from-layer="904" from-port="1" to-layer="909" to-port="0"/>
		<edge from-layer="905" from-port="1" to-layer="909" to-port="1"/>
		<edge from-layer="906" from-port="1" to-layer="909" to-port="2"/>
		<edge from-layer="907" from-port="1" to-layer="909" to-port="3"/>
		<edge from-layer="908" from-port="1" to-layer="909" to-port="4"/>
		<edge from-layer="902" from-port="5" to-layer="910" to-port="0"/>
		<edge from-layer="909" from-port="5" to-layer="910" to-port="1"/>
		<edge from-layer="910" from-port="2" to-layer="912" to-port="0"/>
		<edge from-layer="911" from-port="1" to-layer="912" to-port="1"/>
		<edge from-layer="912" from-port="2" to-layer="913" to-port="0"/>
		<edge from-layer="913" from-port="1" to-layer="918" to-port="0"/>
		<edge from-layer="914" from-port="1" to-layer="918" to-port="1"/>
		<edge from-layer="915" from-port="1" to-layer="918" to-port="2"/>
		<edge from-layer="916" from-port="1" to-layer="918" to-port="3"/>
		<edge from-layer="917" from-port="1" to-layer="918" to-port="4"/>
		<edge from-layer="919" from-port="1" to-layer="920" to-port="0"/>
		<edge from-layer="920" from-port="1" to-layer="925" to-port="0"/>
		<edge from-layer="921" from-port="1" to-layer="925" to-port="1"/>
		<edge from-layer="922" from-port="1" to-layer="925" to-port="2"/>
		<edge from-layer="923" from-port="1" to-layer="925" to-port="3"/>
		<edge from-layer="924" from-port="1" to-layer="925" to-port="4"/>
		<edge from-layer="918" from-port="5" to-layer="926" to-port="0"/>
		<edge from-layer="925" from-port="5" to-layer="926" to-port="1"/>
		<edge from-layer="926" from-port="2" to-layer="928" to-port="0"/>
		<edge from-layer="927" from-port="1" to-layer="928" to-port="1"/>
		<edge from-layer="928" from-port="2" to-layer="933" to-port="0"/>
		<edge from-layer="929" from-port="1" to-layer="933" to-port="1"/>
		<edge from-layer="930" from-port="1" to-layer="933" to-port="2"/>
		<edge from-layer="931" from-port="1" to-layer="933" to-port="3"/>
		<edge from-layer="932" from-port="1" to-layer="933" to-port="4"/>
		<edge from-layer="933" from-port="5" to-layer="934" to-port="0"/>
		<edge from-layer="934" from-port="1" to-layer="935" to-port="0"/>
	</edges>
	<meta_data>
		<MO_version value="unknown version"/>
		<cli_parameters>
			<blobs_as_inputs value="True"/>
			<caffe_parser_path value="DIR"/>
			<data_type value="FP16"/>
			<disable_nhwc_to_nchw value="False"/>
			<disable_omitting_optional value="False"/>
			<disable_resnet_optimization value="False"/>
			<disable_weights_compression value="False"/>
			<enable_concat_optimization value="False"/>
			<enable_flattening_nested_params value="False"/>
			<enable_ssd_gluoncv value="False"/>
			<extensions value="DIR"/>
			<framework value="onnx"/>
			<freeze_placeholder_with_value value="{}"/>
			<generate_deprecated_IR_V2 value="False"/>
			<generate_deprecated_IR_V7 value="False"/>
			<generate_experimental_IR_V10 value="True"/>
			<input value="0"/>
			<input_model value="DIR/driver_action_recognition_adas_0002_encoder.onnx"/>
			<input_model_is_text value="False"/>
			<input_shape value="[1,3,224,224]"/>
			<k value="DIR/CustomLayersMapping.xml"/>
			<keep_quantize_ops_in_IR value="True"/>
			<keep_shape_ops value="False"/>
			<legacy_mxnet_model value="False"/>
			<log_level value="ERROR"/>
			<mean_scale_values value="{'0': {'mean': array([123.675, 116.28 , 103.53 ]), 'scale': array([58.395, 57.12 , 57.375])}}"/>
			<mean_values value="0[123.675,116.28,103.53]"/>
			<model_name value="driver-action-recognition-adas-0002-encoder"/>
			<move_to_preprocess value="False"/>
			<output value="['513']"/>
			<output_dir value="DIR"/>
			<placeholder_data_types value="{}"/>
			<placeholder_shapes value="{'0': array([  1,   3, 224, 224])}"/>
			<progress value="False"/>
			<remove_memory value="False"/>
			<remove_output_softmax value="False"/>
			<reverse_input_channels value="True"/>
			<save_params_from_nd value="False"/>
			<scale_values value="0[58.395,57.12,57.375]"/>
			<silent value="False"/>
			<stream_output value="False"/>
			<unset unset_cli_parameters="batch, counts, disable_fusing, disable_gfusing, finegrain_fusing, input_checkpoint, input_meta_graph, input_proto, input_symbol, mean_file, mean_file_offsets, nd_prefix_name, pretrained_model_name, saved_model_dir, saved_model_tags, scale, tensorboard_logdir, tensorflow_custom_layer_libraries, tensorflow_custom_operations_config_update, tensorflow_object_detection_api_pipeline_config, tensorflow_use_custom_operations_config, transformations_config"/>
		</cli_parameters>
	</meta_data>
	<quantization_parameters>
		<config>{
		'compression': {
			'algorithms': [
				{
					'name': 'DefaultQuantization',
					'params': {
						'preset': 'performance',
						'stat_subset_size': 300
					}
				}
			],
			'target_device': 'CPU'
		},
		'engine': {
			'evaluations': [
				{
					'name': 'driver-action-recognition-adas-0002-encoder',
					'module': 'custom_evaluators.sequential_action_recognition_evaluator.SequentialActionRecognitionEvaluator',
					'module_config': {
						'network_info': {
							'encoder': {
								'model': 'intel/driver-action-recognition-adas-0002/driver-action-recognition-adas-0002-encoder/FP32/driver-action-recognition-adas-0002-encoder.xml',
								'weights': 'intel/driver-action-recognition-adas-0002/driver-action-recognition-adas-0002-encoder/FP32/driver-action-recognition-adas-0002-encoder.bin'
							},
							'decoder': {
								'model': 'intel/driver-action-recognition-adas-0002/driver-action-recognition-adas-0002-decoder/FP32/driver-action-recognition-adas-0002-decoder.xml',
								'weights': 'intel/driver-action-recognition-adas-0002/driver-action-recognition-adas-0002-decoder/FP32/driver-action-recognition-adas-0002-decoder.bin',
								'num_processing_frames': 16,
								'adapter': 'classification'
							}
						},
						'launchers': [
							{
								'framework': 'dlsdk',
								'tags': [
									'FP32'
								],
								'device': 'CPU'
							}
						],
						'datasets': [
							{
								'name': 'driver_action_recognition_dataset',
								'data_source': 'PATH',
								'annotation_conversion': {
									'converter': 'driver_action_recognition',
									'annotation_file': 'PATH',
									'data_dir': 'PATH'
								},
								'annotation': 'driver_action_recognition.pickle',
								'dataset_meta': 'driver_action_recognition.json',
								'preprocessing': [
									{
										'type': 'resize',
										'size': 224,
										'aspect_ratio_scale': 'fit_to_window'
									},
									{
										'type': 'crop',
										'size': 224
									}
								],
								'metrics': [
									{
										'type': 'clip_accuracy'
									}
								]
							}
						]
					}
				},
				{
					'name': 'driver-action-recognition-adas-0002-encoder',
					'module': 'custom_evaluators.sequential_action_recognition_evaluator.SequentialActionRecognitionEvaluator',
					'module_config': {
						'network_info': {
							'encoder': {
								'model': 'intel/driver-action-recognition-adas-0002/driver-action-recognition-adas-0002-encoder/FP16/driver-action-recognition-adas-0002-encoder.xml',
								'weights': 'intel/driver-action-recognition-adas-0002/driver-action-recognition-adas-0002-encoder/FP16/driver-action-recognition-adas-0002-encoder.bin'
							},
							'decoder': {
								'model': 'intel/driver-action-recognition-adas-0002/driver-action-recognition-adas-0002-decoder/FP16/driver-action-recognition-adas-0002-decoder.xml',
								'weights': 'intel/driver-action-recognition-adas-0002/driver-action-recognition-adas-0002-decoder/FP16/driver-action-recognition-adas-0002-decoder.bin',
								'num_processing_frames': 16,
								'adapter': 'classification'
							}
						},
						'launchers': [
							{
								'framework': 'dlsdk',
								'tags': [
									'FP16'
								],
								'device': 'CPU'
							}
						],
						'datasets': [
							{
								'name': 'driver_action_recognition_dataset',
								'data_source': 'PATH',
								'annotation_conversion': {
									'converter': 'driver_action_recognition',
									'annotation_file': 'PATH',
									'data_dir': 'PATH'
								},
								'annotation': 'driver_action_recognition.pickle',
								'dataset_meta': 'driver_action_recognition.json',
								'preprocessing': [
									{
										'type': 'resize',
										'size': 224,
										'aspect_ratio_scale': 'fit_to_window'
									},
									{
										'type': 'crop',
										'size': 224
									}
								],
								'metrics': [
									{
										'type': 'clip_accuracy',
										'presenter': 'print_vector'
									}
								]
							}
						]
					}
				}
			],
			'global_definitions': '../dataset_definitions.yml',
			'stat_requests_number': null,
			'eval_requests_number': null,
			'type': 'accuracy_checker'
		}
	}</config>
		<version value="1.0"/>
		<cli_params value="{'evaluate': False, 'output_dir': 'PATH', 'direct_dump': True, 'log_level': 'INFO', 'pbar': False, 'keep_uncompressed_weights': False}"/>
	</quantization_parameters>
</net>