<?xml version="1.0" encoding="UTF-8"?>
<net name="driver-action-recognition-adas-0002-decoder" version="10">
	<layers>
		<layer id="0" name="0" type="Parameter" version="opset1">
			<data element_type="f16" shape="1,16,512"/>
			<output>
				<port id="0" precision="FP16">
					<dim>1</dim>
					<dim>16</dim>
					<dim>512</dim>
				</port>
			</output>
		</layer>
		<layer id="1" name="3631387/Output_0/Data_/copy_const284_const" type="Const" version="opset1">
			<data element_type="f16" offset="0" shape="1,16,512" size="16384"/>
			<output>
				<port id="1" precision="FP16">
					<dim>1</dim>
					<dim>16</dim>
					<dim>512</dim>
				</port>
			</output>
		</layer>
		<layer id="2" name="364" type="Add" version="opset1">
			<input>
				<port id="0">
					<dim>1</dim>
					<dim>16</dim>
					<dim>512</dim>
				</port>
				<port id="1">
					<dim>1</dim>
					<dim>16</dim>
					<dim>512</dim>
				</port>
			</input>
			<output>
				<port id="2" precision="FP16">
					<dim>1</dim>
					<dim>16</dim>
					<dim>512</dim>
				</port>
			</output>
		</layer>
		<layer id="3" name="22972301_const" type="Const" version="opset1">
			<data element_type="f16" offset="16384" shape="" size="2"/>
			<output>
				<port id="1" precision="FP16"/>
			</output>
		</layer>
		<layer id="4" name="22982302_const" type="Const" version="opset1">
			<data element_type="f16" offset="16386" shape="" size="2"/>
			<output>
				<port id="1" precision="FP16"/>
			</output>
		</layer>
		<layer id="5" name="22992303_const" type="Const" version="opset1">
			<data element_type="f16" offset="16384" shape="" size="2"/>
			<output>
				<port id="1" precision="FP16"/>
			</output>
		</layer>
		<layer id="6" name="23002304_const" type="Const" version="opset1">
			<data element_type="f16" offset="16386" shape="" size="2"/>
			<output>
				<port id="1" precision="FP16"/>
			</output>
		</layer>
		<layer id="7" name="378/3D_Tile_Unsqueeze/fq_input_0" type="FakeQuantize" version="opset1">
			<data levels="256"/>
			<input>
				<port id="0">
					<dim>1</dim>
					<dim>16</dim>
					<dim>512</dim>
				</port>
				<port id="1"/>
				<port id="2"/>
				<port id="3"/>
				<port id="4"/>
			</input>
			<output>
				<port id="5" precision="FP16">
					<dim>1</dim>
					<dim>16</dim>
					<dim>512</dim>
				</port>
			</output>
		</layer>
		<layer id="8" name="378/3D_Tile_Unsqueeze_dim6642_const286_const" type="Const" version="opset1">
			<data element_type="i64" offset="16388" shape="1" size="8"/>
			<output>
				<port id="1" precision="I64">
					<dim>1</dim>
				</port>
			</output>
		</layer>
		<layer id="9" name="378/3D_Tile_Unsqueeze" type="Unsqueeze" version="opset1">
			<input>
				<port id="0">
					<dim>1</dim>
					<dim>16</dim>
					<dim>512</dim>
				</port>
				<port id="1">
					<dim>1</dim>
				</port>
			</input>
			<output>
				<port id="2" precision="FP16">
					<dim>1</dim>
					<dim>16</dim>
					<dim>512</dim>
					<dim>1</dim>
				</port>
			</output>
		</layer>
		<layer id="10" name="66446646_const288_const" type="Const" version="opset1">
			<data element_type="i64" offset="16396" shape="4" size="32"/>
			<output>
				<port id="1" precision="I64">
					<dim>4</dim>
				</port>
			</output>
		</layer>
		<layer id="11" name="378" type="Tile" version="opset1">
			<input>
				<port id="0">
					<dim>1</dim>
					<dim>16</dim>
					<dim>512</dim>
					<dim>1</dim>
				</port>
				<port id="1">
					<dim>4</dim>
				</port>
			</input>
			<output>
				<port id="2" precision="FP16">
					<dim>8</dim>
					<dim>16</dim>
					<dim>512</dim>
					<dim>1</dim>
				</port>
			</output>
		</layer>
		<layer id="12" name="378/3D_Tile_Squeeze_dim6649_const290_const" type="Const" version="opset1">
			<data element_type="i64" offset="16388" shape="1" size="8"/>
			<output>
				<port id="1" precision="I64">
					<dim>1</dim>
				</port>
			</output>
		</layer>
		<layer id="13" name="378/3D_Tile_Squeeze" type="Squeeze" version="opset1">
			<input>
				<port id="0">
					<dim>8</dim>
					<dim>16</dim>
					<dim>512</dim>
					<dim>1</dim>
				</port>
				<port id="1">
					<dim>1</dim>
				</port>
			</input>
			<output>
				<port id="2" precision="FP16">
					<dim>8</dim>
					<dim>16</dim>
					<dim>512</dim>
				</port>
			</output>
		</layer>
		<layer id="14" name="385/Cast_19879_const292_const" type="Const" version="opset1">
			<data element_type="i64" offset="16428" shape="3" size="24"/>
			<output>
				<port id="1" precision="I64">
					<dim>3</dim>
				</port>
			</output>
		</layer>
		<layer id="15" name="385" type="Reshape" version="opset1">
			<data special_zero="True"/>
			<input>
				<port id="0">
					<dim>8</dim>
					<dim>16</dim>
					<dim>512</dim>
				</port>
				<port id="1">
					<dim>3</dim>
				</port>
			</input>
			<output>
				<port id="2" precision="FP16">
					<dim>8</dim>
					<dim>16</dim>
					<dim>512</dim>
				</port>
			</output>
		</layer>
		<layer id="16" name="decoder_404/fq_weights_1/Convert_to_float/Cast_05139_const" type="Const" version="opset1">
			<data element_type="u8" offset="16452" shape="8,64,512" size="262144"/>
			<output>
				<port id="1" precision="U8">
					<dim>8</dim>
					<dim>64</dim>
					<dim>512</dim>
				</port>
			</output>
		</layer>
		<layer id="17" name="404/fq_weights_1/Convert_to_float" type="Convert" version="opset1">
			<data destination_type="f16"/>
			<input>
				<port id="0">
					<dim>8</dim>
					<dim>64</dim>
					<dim>512</dim>
				</port>
			</input>
			<output>
				<port id="1" precision="FP16">
					<dim>8</dim>
					<dim>64</dim>
					<dim>512</dim>
				</port>
			</output>
		</layer>
		<layer id="18" name="decoder_404/fq_weights_1/Copy/out_low4565_const" type="Const" version="opset1">
			<data element_type="f16" offset="278596" shape="1" size="2"/>
			<output>
				<port id="1" precision="FP16">
					<dim>1</dim>
				</port>
			</output>
		</layer>
		<layer id="19" name="decoder_404/fq_weights_1/Copy/out_high4566_const" type="Const" version="opset1">
			<data element_type="f16" offset="278598" shape="1" size="2"/>
			<output>
				<port id="1" precision="FP16">
					<dim>1</dim>
				</port>
			</output>
		</layer>
		<layer id="20" name="17991803_const" type="Const" version="opset1">
			<data element_type="f16" offset="278600" shape="8,1,1" size="16"/>
			<output>
				<port id="1" precision="FP16">
					<dim>8</dim>
					<dim>1</dim>
					<dim>1</dim>
				</port>
			</output>
		</layer>
		<layer id="21" name="18001804_const" type="Const" version="opset1">
			<data element_type="f16" offset="278616" shape="8,1,1" size="16"/>
			<output>
				<port id="1" precision="FP16">
					<dim>8</dim>
					<dim>1</dim>
					<dim>1</dim>
				</port>
			</output>
		</layer>
		<layer id="22" name="404/fq_weights_1" type="FakeQuantize" version="opset1">
			<data levels="255"/>
			<input>
				<port id="0">
					<dim>8</dim>
					<dim>64</dim>
					<dim>512</dim>
				</port>
				<port id="1">
					<dim>1</dim>
				</port>
				<port id="2">
					<dim>1</dim>
				</port>
				<port id="3">
					<dim>8</dim>
					<dim>1</dim>
					<dim>1</dim>
				</port>
				<port id="4">
					<dim>8</dim>
					<dim>1</dim>
					<dim>1</dim>
				</port>
			</input>
			<output>
				<port id="5" precision="FP16">
					<dim>8</dim>
					<dim>64</dim>
					<dim>512</dim>
				</port>
			</output>
		</layer>
		<layer id="23" name="404" type="MatMul" version="opset1">
			<data transpose_a="False" transpose_b="True"/>
			<input>
				<port id="0">
					<dim>8</dim>
					<dim>16</dim>
					<dim>512</dim>
				</port>
				<port id="1">
					<dim>8</dim>
					<dim>64</dim>
					<dim>512</dim>
				</port>
			</input>
			<output>
				<port id="2" precision="FP16">
					<dim>8</dim>
					<dim>16</dim>
					<dim>64</dim>
				</port>
			</output>
		</layer>
		<layer id="24" name="23872391_const" type="Const" version="opset1">
			<data element_type="f16" offset="278632" shape="" size="2"/>
			<output>
				<port id="1" precision="FP16"/>
			</output>
		</layer>
		<layer id="25" name="23882392_const" type="Const" version="opset1">
			<data element_type="f16" offset="278634" shape="" size="2"/>
			<output>
				<port id="1" precision="FP16"/>
			</output>
		</layer>
		<layer id="26" name="23892393_const" type="Const" version="opset1">
			<data element_type="f16" offset="278632" shape="" size="2"/>
			<output>
				<port id="1" precision="FP16"/>
			</output>
		</layer>
		<layer id="27" name="23902394_const" type="Const" version="opset1">
			<data element_type="f16" offset="278634" shape="" size="2"/>
			<output>
				<port id="1" precision="FP16"/>
			</output>
		</layer>
		<layer id="28" name="411/fq_input_0" type="FakeQuantize" version="opset1">
			<data levels="256"/>
			<input>
				<port id="0">
					<dim>8</dim>
					<dim>16</dim>
					<dim>64</dim>
				</port>
				<port id="1"/>
				<port id="2"/>
				<port id="3"/>
				<port id="4"/>
			</input>
			<output>
				<port id="5" precision="FP16">
					<dim>8</dim>
					<dim>16</dim>
					<dim>64</dim>
				</port>
			</output>
		</layer>
		<layer id="29" name="411/Cast_19911_const296_const" type="Const" version="opset1">
			<data element_type="i64" offset="278636" shape="3" size="24"/>
			<output>
				<port id="1" precision="I64">
					<dim>3</dim>
				</port>
			</output>
		</layer>
		<layer id="30" name="411" type="Reshape" version="opset1">
			<data special_zero="True"/>
			<input>
				<port id="0">
					<dim>8</dim>
					<dim>16</dim>
					<dim>64</dim>
				</port>
				<port id="1">
					<dim>3</dim>
				</port>
			</input>
			<output>
				<port id="2" precision="FP16">
					<dim>8</dim>
					<dim>16</dim>
					<dim>64</dim>
				</port>
			</output>
		</layer>
		<layer id="31" name="387/3D_Tile_Unsqueeze_dim6678_const298_const" type="Const" version="opset1">
			<data element_type="i64" offset="16388" shape="1" size="8"/>
			<output>
				<port id="1" precision="I64">
					<dim>1</dim>
				</port>
			</output>
		</layer>
		<layer id="32" name="387/3D_Tile_Unsqueeze" type="Unsqueeze" version="opset1">
			<input>
				<port id="0">
					<dim>1</dim>
					<dim>16</dim>
					<dim>512</dim>
				</port>
				<port id="1">
					<dim>1</dim>
				</port>
			</input>
			<output>
				<port id="2" precision="FP16">
					<dim>1</dim>
					<dim>16</dim>
					<dim>512</dim>
					<dim>1</dim>
				</port>
			</output>
		</layer>
		<layer id="33" name="66806682_const300_const" type="Const" version="opset1">
			<data element_type="i64" offset="16396" shape="4" size="32"/>
			<output>
				<port id="1" precision="I64">
					<dim>4</dim>
				</port>
			</output>
		</layer>
		<layer id="34" name="387" type="Tile" version="opset1">
			<input>
				<port id="0">
					<dim>1</dim>
					<dim>16</dim>
					<dim>512</dim>
					<dim>1</dim>
				</port>
				<port id="1">
					<dim>4</dim>
				</port>
			</input>
			<output>
				<port id="2" precision="FP16">
					<dim>8</dim>
					<dim>16</dim>
					<dim>512</dim>
					<dim>1</dim>
				</port>
			</output>
		</layer>
		<layer id="35" name="387/3D_Tile_Squeeze_dim6685_const302_const" type="Const" version="opset1">
			<data element_type="i64" offset="16388" shape="1" size="8"/>
			<output>
				<port id="1" precision="I64">
					<dim>1</dim>
				</port>
			</output>
		</layer>
		<layer id="36" name="387/3D_Tile_Squeeze" type="Squeeze" version="opset1">
			<input>
				<port id="0">
					<dim>8</dim>
					<dim>16</dim>
					<dim>512</dim>
					<dim>1</dim>
				</port>
				<port id="1">
					<dim>1</dim>
				</port>
			</input>
			<output>
				<port id="2" precision="FP16">
					<dim>8</dim>
					<dim>16</dim>
					<dim>512</dim>
				</port>
			</output>
		</layer>
		<layer id="37" name="394/Cast_19899_const304_const" type="Const" version="opset1">
			<data element_type="i64" offset="16428" shape="3" size="24"/>
			<output>
				<port id="1" precision="I64">
					<dim>3</dim>
				</port>
			</output>
		</layer>
		<layer id="38" name="394" type="Reshape" version="opset1">
			<data special_zero="True"/>
			<input>
				<port id="0">
					<dim>8</dim>
					<dim>16</dim>
					<dim>512</dim>
				</port>
				<port id="1">
					<dim>3</dim>
				</port>
			</input>
			<output>
				<port id="2" precision="FP16">
					<dim>8</dim>
					<dim>16</dim>
					<dim>512</dim>
				</port>
			</output>
		</layer>
		<layer id="39" name="decoder_412/fq_weights_1/Convert_to_float/Cast_05171_const" type="Const" version="opset1">
			<data element_type="u8" offset="278660" shape="8,64,512" size="262144"/>
			<output>
				<port id="1" precision="U8">
					<dim>8</dim>
					<dim>64</dim>
					<dim>512</dim>
				</port>
			</output>
		</layer>
		<layer id="40" name="412/fq_weights_1/Convert_to_float" type="Convert" version="opset1">
			<data destination_type="f16"/>
			<input>
				<port id="0">
					<dim>8</dim>
					<dim>64</dim>
					<dim>512</dim>
				</port>
			</input>
			<output>
				<port id="1" precision="FP16">
					<dim>8</dim>
					<dim>64</dim>
					<dim>512</dim>
				</port>
			</output>
		</layer>
		<layer id="41" name="decoder_412/fq_weights_1/Copy/out_low4533_const" type="Const" version="opset1">
			<data element_type="f16" offset="278596" shape="1" size="2"/>
			<output>
				<port id="1" precision="FP16">
					<dim>1</dim>
				</port>
			</output>
		</layer>
		<layer id="42" name="decoder_412/fq_weights_1/Copy/out_high4534_const" type="Const" version="opset1">
			<data element_type="f16" offset="278598" shape="1" size="2"/>
			<output>
				<port id="1" precision="FP16">
					<dim>1</dim>
				</port>
			</output>
		</layer>
		<layer id="43" name="11991203_const" type="Const" version="opset1">
			<data element_type="f16" offset="540804" shape="8,1,1" size="16"/>
			<output>
				<port id="1" precision="FP16">
					<dim>8</dim>
					<dim>1</dim>
					<dim>1</dim>
				</port>
			</output>
		</layer>
		<layer id="44" name="12001204_const" type="Const" version="opset1">
			<data element_type="f16" offset="540820" shape="8,1,1" size="16"/>
			<output>
				<port id="1" precision="FP16">
					<dim>8</dim>
					<dim>1</dim>
					<dim>1</dim>
				</port>
			</output>
		</layer>
		<layer id="45" name="412/fq_weights_1" type="FakeQuantize" version="opset1">
			<data levels="255"/>
			<input>
				<port id="0">
					<dim>8</dim>
					<dim>64</dim>
					<dim>512</dim>
				</port>
				<port id="1">
					<dim>1</dim>
				</port>
				<port id="2">
					<dim>1</dim>
				</port>
				<port id="3">
					<dim>8</dim>
					<dim>1</dim>
					<dim>1</dim>
				</port>
				<port id="4">
					<dim>8</dim>
					<dim>1</dim>
					<dim>1</dim>
				</port>
			</input>
			<output>
				<port id="5" precision="FP16">
					<dim>8</dim>
					<dim>64</dim>
					<dim>512</dim>
				</port>
			</output>
		</layer>
		<layer id="46" name="412" type="MatMul" version="opset1">
			<data transpose_a="False" transpose_b="True"/>
			<input>
				<port id="0">
					<dim>8</dim>
					<dim>16</dim>
					<dim>512</dim>
				</port>
				<port id="1">
					<dim>8</dim>
					<dim>64</dim>
					<dim>512</dim>
				</port>
			</input>
			<output>
				<port id="2" precision="FP16">
					<dim>8</dim>
					<dim>16</dim>
					<dim>64</dim>
				</port>
			</output>
		</layer>
		<layer id="47" name="24072411_const" type="Const" version="opset1">
			<data element_type="f16" offset="540836" shape="" size="2"/>
			<output>
				<port id="1" precision="FP16"/>
			</output>
		</layer>
		<layer id="48" name="24082412_const" type="Const" version="opset1">
			<data element_type="f16" offset="540838" shape="" size="2"/>
			<output>
				<port id="1" precision="FP16"/>
			</output>
		</layer>
		<layer id="49" name="24092413_const" type="Const" version="opset1">
			<data element_type="f16" offset="540836" shape="" size="2"/>
			<output>
				<port id="1" precision="FP16"/>
			</output>
		</layer>
		<layer id="50" name="24102414_const" type="Const" version="opset1">
			<data element_type="f16" offset="540838" shape="" size="2"/>
			<output>
				<port id="1" precision="FP16"/>
			</output>
		</layer>
		<layer id="51" name="419/fq_input_0" type="FakeQuantize" version="opset1">
			<data levels="256"/>
			<input>
				<port id="0">
					<dim>8</dim>
					<dim>16</dim>
					<dim>64</dim>
				</port>
				<port id="1"/>
				<port id="2"/>
				<port id="3"/>
				<port id="4"/>
			</input>
			<output>
				<port id="5" precision="FP16">
					<dim>8</dim>
					<dim>16</dim>
					<dim>64</dim>
				</port>
			</output>
		</layer>
		<layer id="52" name="419/Cast_19923_const308_const" type="Const" version="opset1">
			<data element_type="i64" offset="278636" shape="3" size="24"/>
			<output>
				<port id="1" precision="I64">
					<dim>3</dim>
				</port>
			</output>
		</layer>
		<layer id="53" name="419" type="Reshape" version="opset1">
			<data special_zero="True"/>
			<input>
				<port id="0">
					<dim>8</dim>
					<dim>16</dim>
					<dim>64</dim>
				</port>
				<port id="1">
					<dim>3</dim>
				</port>
			</input>
			<output>
				<port id="2" precision="FP16">
					<dim>8</dim>
					<dim>16</dim>
					<dim>64</dim>
				</port>
			</output>
		</layer>
		<layer id="54" name="decoder_428/Cast_15165_const" type="Const" version="opset1">
			<data element_type="i64" offset="540840" shape="3" size="24"/>
			<output>
				<port id="1" precision="I64">
					<dim>3</dim>
				</port>
			</output>
		</layer>
		<layer id="55" name="428" type="Transpose" version="opset1">
			<input>
				<port id="0">
					<dim>8</dim>
					<dim>16</dim>
					<dim>64</dim>
				</port>
				<port id="1">
					<dim>3</dim>
				</port>
			</input>
			<output>
				<port id="2" precision="FP16">
					<dim>8</dim>
					<dim>64</dim>
					<dim>16</dim>
				</port>
			</output>
		</layer>
		<layer id="56" name="decoder_431/fq_input_1/Convert_to_float/Cast_05197_const" type="Const" version="opset1">
			<data element_type="u8" offset="540864" shape="1,64,1" size="64"/>
			<output>
				<port id="1" precision="U8">
					<dim>1</dim>
					<dim>64</dim>
					<dim>1</dim>
				</port>
			</output>
		</layer>
		<layer id="57" name="431/fq_input_1/Convert_to_float" type="Convert" version="opset1">
			<data destination_type="f16"/>
			<input>
				<port id="0">
					<dim>1</dim>
					<dim>64</dim>
					<dim>1</dim>
				</port>
			</input>
			<output>
				<port id="1" precision="FP16">
					<dim>1</dim>
					<dim>64</dim>
					<dim>1</dim>
				</port>
			</output>
		</layer>
		<layer id="58" name="decoder_431/fq_input_1/Copy/out_low4509_const" type="Const" version="opset1">
			<data element_type="f16" offset="278596" shape="1" size="2"/>
			<output>
				<port id="1" precision="FP16">
					<dim>1</dim>
				</port>
			</output>
		</layer>
		<layer id="59" name="decoder_431/fq_input_1/Copy/out_high4510_const" type="Const" version="opset1">
			<data element_type="f16" offset="278598" shape="1" size="2"/>
			<output>
				<port id="1" precision="FP16">
					<dim>1</dim>
				</port>
			</output>
		</layer>
		<layer id="60" name="12391243_const" type="Const" version="opset1">
			<data element_type="f16" offset="540928" shape="1,1,1" size="2"/>
			<output>
				<port id="1" precision="FP16">
					<dim>1</dim>
					<dim>1</dim>
					<dim>1</dim>
				</port>
			</output>
		</layer>
		<layer id="61" name="12401244_const" type="Const" version="opset1">
			<data element_type="f16" offset="540930" shape="1,1,1" size="2"/>
			<output>
				<port id="1" precision="FP16">
					<dim>1</dim>
					<dim>1</dim>
					<dim>1</dim>
				</port>
			</output>
		</layer>
		<layer id="62" name="431/fq_input_1" type="FakeQuantize" version="opset1">
			<data levels="255"/>
			<input>
				<port id="0">
					<dim>1</dim>
					<dim>64</dim>
					<dim>1</dim>
				</port>
				<port id="1">
					<dim>1</dim>
				</port>
				<port id="2">
					<dim>1</dim>
				</port>
				<port id="3">
					<dim>1</dim>
					<dim>1</dim>
					<dim>1</dim>
				</port>
				<port id="4">
					<dim>1</dim>
					<dim>1</dim>
					<dim>1</dim>
				</port>
			</input>
			<output>
				<port id="5" precision="FP16">
					<dim>1</dim>
					<dim>64</dim>
					<dim>1</dim>
				</port>
			</output>
		</layer>
		<layer id="63" name="431" type="Multiply" version="opset1">
			<input>
				<port id="0">
					<dim>8</dim>
					<dim>64</dim>
					<dim>16</dim>
				</port>
				<port id="1">
					<dim>1</dim>
					<dim>64</dim>
					<dim>1</dim>
				</port>
			</input>
			<output>
				<port id="2" precision="FP16">
					<dim>8</dim>
					<dim>64</dim>
					<dim>16</dim>
				</port>
			</output>
		</layer>
		<layer id="64" name="11271131_const" type="Const" version="opset1">
			<data element_type="f16" offset="540932" shape="" size="2"/>
			<output>
				<port id="1" precision="FP16"/>
			</output>
		</layer>
		<layer id="65" name="11281132_const" type="Const" version="opset1">
			<data element_type="f16" offset="540934" shape="" size="2"/>
			<output>
				<port id="1" precision="FP16"/>
			</output>
		</layer>
		<layer id="66" name="11291133_const" type="Const" version="opset1">
			<data element_type="f16" offset="540932" shape="" size="2"/>
			<output>
				<port id="1" precision="FP16"/>
			</output>
		</layer>
		<layer id="67" name="11301134_const" type="Const" version="opset1">
			<data element_type="f16" offset="540934" shape="" size="2"/>
			<output>
				<port id="1" precision="FP16"/>
			</output>
		</layer>
		<layer id="68" name="429/fq_weights_1" type="FakeQuantize" version="opset1">
			<data levels="256"/>
			<input>
				<port id="0">
					<dim>8</dim>
					<dim>64</dim>
					<dim>16</dim>
				</port>
				<port id="1"/>
				<port id="2"/>
				<port id="3"/>
				<port id="4"/>
			</input>
			<output>
				<port id="5" precision="FP16">
					<dim>8</dim>
					<dim>64</dim>
					<dim>16</dim>
				</port>
			</output>
		</layer>
		<layer id="69" name="429" type="MatMul" version="opset1">
			<data transpose_a="False" transpose_b="False"/>
			<input>
				<port id="0">
					<dim>8</dim>
					<dim>16</dim>
					<dim>64</dim>
				</port>
				<port id="1">
					<dim>8</dim>
					<dim>64</dim>
					<dim>16</dim>
				</port>
			</input>
			<output>
				<port id="2" precision="FP16">
					<dim>8</dim>
					<dim>16</dim>
					<dim>16</dim>
				</port>
			</output>
		</layer>
		<layer id="70" name="443/Cast_19945_const315_const" type="Const" version="opset1">
			<data element_type="i64" offset="540936" shape="2" size="16"/>
			<output>
				<port id="1" precision="I64">
					<dim>2</dim>
				</port>
			</output>
		</layer>
		<layer id="71" name="443" type="Reshape" version="opset1">
			<data special_zero="True"/>
			<input>
				<port id="0">
					<dim>8</dim>
					<dim>16</dim>
					<dim>16</dim>
				</port>
				<port id="1">
					<dim>2</dim>
				</port>
			</input>
			<output>
				<port id="2" precision="FP16">
					<dim>128</dim>
					<dim>16</dim>
				</port>
			</output>
		</layer>
		<layer id="72" name="444/FlattenONNX_/Reshape/Cast_19929_const317_const" type="Const" version="opset1">
			<data element_type="i64" offset="540952" shape="2" size="16"/>
			<output>
				<port id="1" precision="I64">
					<dim>2</dim>
				</port>
			</output>
		</layer>
		<layer id="73" name="444/FlattenONNX_/Reshape" type="Reshape" version="opset1">
			<data special_zero="True"/>
			<input>
				<port id="0">
					<dim>128</dim>
					<dim>16</dim>
				</port>
				<port id="1">
					<dim>2</dim>
				</port>
			</input>
			<output>
				<port id="2" precision="FP16">
					<dim>128</dim>
					<dim>16</dim>
				</port>
			</output>
		</layer>
		<layer id="74" name="444" type="SoftMax" version="opset1">
			<data axis="1"/>
			<input>
				<port id="0">
					<dim>128</dim>
					<dim>16</dim>
				</port>
			</input>
			<output>
				<port id="1" precision="FP16">
					<dim>128</dim>
					<dim>16</dim>
				</port>
			</output>
		</layer>
		<layer id="75" name="24172421_const" type="Const" version="opset1">
			<data element_type="f16" offset="278596" shape="" size="2"/>
			<output>
				<port id="1" precision="FP16"/>
			</output>
		</layer>
		<layer id="76" name="24182422_const" type="Const" version="opset1">
			<data element_type="f16" offset="540968" shape="" size="2"/>
			<output>
				<port id="1" precision="FP16"/>
			</output>
		</layer>
		<layer id="77" name="24192423_const" type="Const" version="opset1">
			<data element_type="f16" offset="278596" shape="" size="2"/>
			<output>
				<port id="1" precision="FP16"/>
			</output>
		</layer>
		<layer id="78" name="24202424_const" type="Const" version="opset1">
			<data element_type="f16" offset="540968" shape="" size="2"/>
			<output>
				<port id="1" precision="FP16"/>
			</output>
		</layer>
		<layer id="79" name="450/fq_input_0" type="FakeQuantize" version="opset1">
			<data levels="256"/>
			<input>
				<port id="0">
					<dim>128</dim>
					<dim>16</dim>
				</port>
				<port id="1"/>
				<port id="2"/>
				<port id="3"/>
				<port id="4"/>
			</input>
			<output>
				<port id="5" precision="FP16">
					<dim>128</dim>
					<dim>16</dim>
				</port>
			</output>
		</layer>
		<layer id="80" name="450/Cast_19893_const320_const" type="Const" version="opset1">
			<data element_type="i64" offset="540970" shape="3" size="24"/>
			<output>
				<port id="1" precision="I64">
					<dim>3</dim>
				</port>
			</output>
		</layer>
		<layer id="81" name="450" type="Reshape" version="opset1">
			<data special_zero="True"/>
			<input>
				<port id="0">
					<dim>128</dim>
					<dim>16</dim>
				</port>
				<port id="1">
					<dim>3</dim>
				</port>
			</input>
			<output>
				<port id="2" precision="FP16">
					<dim>8</dim>
					<dim>16</dim>
					<dim>16</dim>
				</port>
			</output>
		</layer>
		<layer id="82" name="396/3D_Tile_Unsqueeze_dim6762_const322_const" type="Const" version="opset1">
			<data element_type="i64" offset="16388" shape="1" size="8"/>
			<output>
				<port id="1" precision="I64">
					<dim>1</dim>
				</port>
			</output>
		</layer>
		<layer id="83" name="396/3D_Tile_Unsqueeze" type="Unsqueeze" version="opset1">
			<input>
				<port id="0">
					<dim>1</dim>
					<dim>16</dim>
					<dim>512</dim>
				</port>
				<port id="1">
					<dim>1</dim>
				</port>
			</input>
			<output>
				<port id="2" precision="FP16">
					<dim>1</dim>
					<dim>16</dim>
					<dim>512</dim>
					<dim>1</dim>
				</port>
			</output>
		</layer>
		<layer id="84" name="67646766_const324_const" type="Const" version="opset1">
			<data element_type="i64" offset="16396" shape="4" size="32"/>
			<output>
				<port id="1" precision="I64">
					<dim>4</dim>
				</port>
			</output>
		</layer>
		<layer id="85" name="396" type="Tile" version="opset1">
			<input>
				<port id="0">
					<dim>1</dim>
					<dim>16</dim>
					<dim>512</dim>
					<dim>1</dim>
				</port>
				<port id="1">
					<dim>4</dim>
				</port>
			</input>
			<output>
				<port id="2" precision="FP16">
					<dim>8</dim>
					<dim>16</dim>
					<dim>512</dim>
					<dim>1</dim>
				</port>
			</output>
		</layer>
		<layer id="86" name="396/3D_Tile_Squeeze_dim6769_const326_const" type="Const" version="opset1">
			<data element_type="i64" offset="16388" shape="1" size="8"/>
			<output>
				<port id="1" precision="I64">
					<dim>1</dim>
				</port>
			</output>
		</layer>
		<layer id="87" name="396/3D_Tile_Squeeze" type="Squeeze" version="opset1">
			<input>
				<port id="0">
					<dim>8</dim>
					<dim>16</dim>
					<dim>512</dim>
					<dim>1</dim>
				</port>
				<port id="1">
					<dim>1</dim>
				</port>
			</input>
			<output>
				<port id="2" precision="FP16">
					<dim>8</dim>
					<dim>16</dim>
					<dim>512</dim>
				</port>
			</output>
		</layer>
		<layer id="88" name="403/Cast_19951_const328_const" type="Const" version="opset1">
			<data element_type="i64" offset="16428" shape="3" size="24"/>
			<output>
				<port id="1" precision="I64">
					<dim>3</dim>
				</port>
			</output>
		</layer>
		<layer id="89" name="403" type="Reshape" version="opset1">
			<data special_zero="True"/>
			<input>
				<port id="0">
					<dim>8</dim>
					<dim>16</dim>
					<dim>512</dim>
				</port>
				<port id="1">
					<dim>3</dim>
				</port>
			</input>
			<output>
				<port id="2" precision="FP16">
					<dim>8</dim>
					<dim>16</dim>
					<dim>512</dim>
				</port>
			</output>
		</layer>
		<layer id="90" name="decoder_420/fq_weights_1/Convert_to_float/Cast_05201_const" type="Const" version="opset1">
			<data element_type="u8" offset="540994" shape="8,64,512" size="262144"/>
			<output>
				<port id="1" precision="U8">
					<dim>8</dim>
					<dim>64</dim>
					<dim>512</dim>
				</port>
			</output>
		</layer>
		<layer id="91" name="420/fq_weights_1/Convert_to_float" type="Convert" version="opset1">
			<data destination_type="f16"/>
			<input>
				<port id="0">
					<dim>8</dim>
					<dim>64</dim>
					<dim>512</dim>
				</port>
			</input>
			<output>
				<port id="1" precision="FP16">
					<dim>8</dim>
					<dim>64</dim>
					<dim>512</dim>
				</port>
			</output>
		</layer>
		<layer id="92" name="decoder_420/fq_weights_1/Copy/out_low4613_const" type="Const" version="opset1">
			<data element_type="f16" offset="278596" shape="1" size="2"/>
			<output>
				<port id="1" precision="FP16">
					<dim>1</dim>
				</port>
			</output>
		</layer>
		<layer id="93" name="decoder_420/fq_weights_1/Copy/out_high4614_const" type="Const" version="opset1">
			<data element_type="f16" offset="278598" shape="1" size="2"/>
			<output>
				<port id="1" precision="FP16">
					<dim>1</dim>
				</port>
			</output>
		</layer>
		<layer id="94" name="17791783_const" type="Const" version="opset1">
			<data element_type="f16" offset="803138" shape="8,1,1" size="16"/>
			<output>
				<port id="1" precision="FP16">
					<dim>8</dim>
					<dim>1</dim>
					<dim>1</dim>
				</port>
			</output>
		</layer>
		<layer id="95" name="17801784_const" type="Const" version="opset1">
			<data element_type="f16" offset="803154" shape="8,1,1" size="16"/>
			<output>
				<port id="1" precision="FP16">
					<dim>8</dim>
					<dim>1</dim>
					<dim>1</dim>
				</port>
			</output>
		</layer>
		<layer id="96" name="420/fq_weights_1" type="FakeQuantize" version="opset1">
			<data levels="255"/>
			<input>
				<port id="0">
					<dim>8</dim>
					<dim>64</dim>
					<dim>512</dim>
				</port>
				<port id="1">
					<dim>1</dim>
				</port>
				<port id="2">
					<dim>1</dim>
				</port>
				<port id="3">
					<dim>8</dim>
					<dim>1</dim>
					<dim>1</dim>
				</port>
				<port id="4">
					<dim>8</dim>
					<dim>1</dim>
					<dim>1</dim>
				</port>
			</input>
			<output>
				<port id="5" precision="FP16">
					<dim>8</dim>
					<dim>64</dim>
					<dim>512</dim>
				</port>
			</output>
		</layer>
		<layer id="97" name="420" type="MatMul" version="opset1">
			<data transpose_a="False" transpose_b="True"/>
			<input>
				<port id="0">
					<dim>8</dim>
					<dim>16</dim>
					<dim>512</dim>
				</port>
				<port id="1">
					<dim>8</dim>
					<dim>64</dim>
					<dim>512</dim>
				</port>
			</input>
			<output>
				<port id="2" precision="FP16">
					<dim>8</dim>
					<dim>16</dim>
					<dim>64</dim>
				</port>
			</output>
		</layer>
		<layer id="98" name="24272431_const" type="Const" version="opset1">
			<data element_type="f16" offset="803170" shape="" size="2"/>
			<output>
				<port id="1" precision="FP16"/>
			</output>
		</layer>
		<layer id="99" name="24282432_const" type="Const" version="opset1">
			<data element_type="f16" offset="803172" shape="" size="2"/>
			<output>
				<port id="1" precision="FP16"/>
			</output>
		</layer>
		<layer id="100" name="24292433_const" type="Const" version="opset1">
			<data element_type="f16" offset="803170" shape="" size="2"/>
			<output>
				<port id="1" precision="FP16"/>
			</output>
		</layer>
		<layer id="101" name="24302434_const" type="Const" version="opset1">
			<data element_type="f16" offset="803172" shape="" size="2"/>
			<output>
				<port id="1" precision="FP16"/>
			</output>
		</layer>
		<layer id="102" name="427/fq_input_0" type="FakeQuantize" version="opset1">
			<data levels="256"/>
			<input>
				<port id="0">
					<dim>8</dim>
					<dim>16</dim>
					<dim>64</dim>
				</port>
				<port id="1"/>
				<port id="2"/>
				<port id="3"/>
				<port id="4"/>
			</input>
			<output>
				<port id="5" precision="FP16">
					<dim>8</dim>
					<dim>16</dim>
					<dim>64</dim>
				</port>
			</output>
		</layer>
		<layer id="103" name="427/Cast_19921_const332_const" type="Const" version="opset1">
			<data element_type="i64" offset="278636" shape="3" size="24"/>
			<output>
				<port id="1" precision="I64">
					<dim>3</dim>
				</port>
			</output>
		</layer>
		<layer id="104" name="427" type="Reshape" version="opset1">
			<data special_zero="True"/>
			<input>
				<port id="0">
					<dim>8</dim>
					<dim>16</dim>
					<dim>64</dim>
				</port>
				<port id="1">
					<dim>3</dim>
				</port>
			</input>
			<output>
				<port id="2" precision="FP16">
					<dim>8</dim>
					<dim>16</dim>
					<dim>64</dim>
				</port>
			</output>
		</layer>
		<layer id="105" name="453" type="MatMul" version="opset1">
			<data transpose_a="False" transpose_b="False"/>
			<input>
				<port id="0">
					<dim>8</dim>
					<dim>16</dim>
					<dim>16</dim>
				</port>
				<port id="1">
					<dim>8</dim>
					<dim>16</dim>
					<dim>64</dim>
				</port>
			</input>
			<output>
				<port id="2" precision="FP16">
					<dim>8</dim>
					<dim>16</dim>
					<dim>64</dim>
				</port>
			</output>
		</layer>
		<layer id="106" name="454/VariadicSplit_input_port_1/value/Output_0/Data__const335_const" type="Const" version="opset1">
			<data element_type="i64" offset="803174" shape="" size="8"/>
			<output>
				<port id="1" precision="I64"/>
			</output>
		</layer>
		<layer id="107" name="454/VariadicSplit_input_port_2/value/Output_0/Data__const336_const" type="Const" version="opset1">
			<data element_type="i64" offset="803182" shape="8" size="64"/>
			<output>
				<port id="1" precision="I64">
					<dim>8</dim>
				</port>
			</output>
		</layer>
		<layer id="108" name="454/VariadicSplit" type="VariadicSplit" version="opset1">
			<input>
				<port id="0">
					<dim>8</dim>
					<dim>16</dim>
					<dim>64</dim>
				</port>
				<port id="1"/>
				<port id="2">
					<dim>8</dim>
				</port>
			</input>
			<output>
				<port id="3" precision="FP16">
					<dim>1</dim>
					<dim>16</dim>
					<dim>64</dim>
				</port>
				<port id="4" precision="FP16">
					<dim>1</dim>
					<dim>16</dim>
					<dim>64</dim>
				</port>
				<port id="5" precision="FP16">
					<dim>1</dim>
					<dim>16</dim>
					<dim>64</dim>
				</port>
				<port id="6" precision="FP16">
					<dim>1</dim>
					<dim>16</dim>
					<dim>64</dim>
				</port>
				<port id="7" precision="FP16">
					<dim>1</dim>
					<dim>16</dim>
					<dim>64</dim>
				</port>
				<port id="8" precision="FP16">
					<dim>1</dim>
					<dim>16</dim>
					<dim>64</dim>
				</port>
				<port id="9" precision="FP16">
					<dim>1</dim>
					<dim>16</dim>
					<dim>64</dim>
				</port>
				<port id="10" precision="FP16">
					<dim>1</dim>
					<dim>16</dim>
					<dim>64</dim>
				</port>
			</output>
		</layer>
		<layer id="109" name="24372441_const" type="Const" version="opset1">
			<data element_type="f16" offset="803246" shape="" size="2"/>
			<output>
				<port id="1" precision="FP16"/>
			</output>
		</layer>
		<layer id="110" name="24382442_const" type="Const" version="opset1">
			<data element_type="f16" offset="803248" shape="" size="2"/>
			<output>
				<port id="1" precision="FP16"/>
			</output>
		</layer>
		<layer id="111" name="24392443_const" type="Const" version="opset1">
			<data element_type="f16" offset="803246" shape="" size="2"/>
			<output>
				<port id="1" precision="FP16"/>
			</output>
		</layer>
		<layer id="112" name="24402444_const" type="Const" version="opset1">
			<data element_type="f16" offset="803248" shape="" size="2"/>
			<output>
				<port id="1" precision="FP16"/>
			</output>
		</layer>
		<layer id="113" name="462/fq_input_0" type="FakeQuantize" version="opset1">
			<data levels="256"/>
			<input>
				<port id="0">
					<dim>1</dim>
					<dim>16</dim>
					<dim>64</dim>
				</port>
				<port id="1"/>
				<port id="2"/>
				<port id="3"/>
				<port id="4"/>
			</input>
			<output>
				<port id="5" precision="FP16">
					<dim>1</dim>
					<dim>16</dim>
					<dim>64</dim>
				</port>
			</output>
		</layer>
		<layer id="114" name="24472451_const" type="Const" version="opset1">
			<data element_type="f16" offset="803250" shape="" size="2"/>
			<output>
				<port id="1" precision="FP16"/>
			</output>
		</layer>
		<layer id="115" name="24482452_const" type="Const" version="opset1">
			<data element_type="f16" offset="803252" shape="" size="2"/>
			<output>
				<port id="1" precision="FP16"/>
			</output>
		</layer>
		<layer id="116" name="24492453_const" type="Const" version="opset1">
			<data element_type="f16" offset="803250" shape="" size="2"/>
			<output>
				<port id="1" precision="FP16"/>
			</output>
		</layer>
		<layer id="117" name="24502454_const" type="Const" version="opset1">
			<data element_type="f16" offset="803252" shape="" size="2"/>
			<output>
				<port id="1" precision="FP16"/>
			</output>
		</layer>
		<layer id="118" name="462/fq_input_1" type="FakeQuantize" version="opset1">
			<data levels="256"/>
			<input>
				<port id="0">
					<dim>1</dim>
					<dim>16</dim>
					<dim>64</dim>
				</port>
				<port id="1"/>
				<port id="2"/>
				<port id="3"/>
				<port id="4"/>
			</input>
			<output>
				<port id="5" precision="FP16">
					<dim>1</dim>
					<dim>16</dim>
					<dim>64</dim>
				</port>
			</output>
		</layer>
		<layer id="119" name="24572461_const" type="Const" version="opset1">
			<data element_type="f16" offset="803254" shape="" size="2"/>
			<output>
				<port id="1" precision="FP16"/>
			</output>
		</layer>
		<layer id="120" name="24582462_const" type="Const" version="opset1">
			<data element_type="f16" offset="803256" shape="" size="2"/>
			<output>
				<port id="1" precision="FP16"/>
			</output>
		</layer>
		<layer id="121" name="24592463_const" type="Const" version="opset1">
			<data element_type="f16" offset="803254" shape="" size="2"/>
			<output>
				<port id="1" precision="FP16"/>
			</output>
		</layer>
		<layer id="122" name="24602464_const" type="Const" version="opset1">
			<data element_type="f16" offset="803256" shape="" size="2"/>
			<output>
				<port id="1" precision="FP16"/>
			</output>
		</layer>
		<layer id="123" name="462/fq_input_2" type="FakeQuantize" version="opset1">
			<data levels="256"/>
			<input>
				<port id="0">
					<dim>1</dim>
					<dim>16</dim>
					<dim>64</dim>
				</port>
				<port id="1"/>
				<port id="2"/>
				<port id="3"/>
				<port id="4"/>
			</input>
			<output>
				<port id="5" precision="FP16">
					<dim>1</dim>
					<dim>16</dim>
					<dim>64</dim>
				</port>
			</output>
		</layer>
		<layer id="124" name="24672471_const" type="Const" version="opset1">
			<data element_type="f16" offset="803258" shape="" size="2"/>
			<output>
				<port id="1" precision="FP16"/>
			</output>
		</layer>
		<layer id="125" name="24682472_const" type="Const" version="opset1">
			<data element_type="f16" offset="803260" shape="" size="2"/>
			<output>
				<port id="1" precision="FP16"/>
			</output>
		</layer>
		<layer id="126" name="24692473_const" type="Const" version="opset1">
			<data element_type="f16" offset="803258" shape="" size="2"/>
			<output>
				<port id="1" precision="FP16"/>
			</output>
		</layer>
		<layer id="127" name="24702474_const" type="Const" version="opset1">
			<data element_type="f16" offset="803260" shape="" size="2"/>
			<output>
				<port id="1" precision="FP16"/>
			</output>
		</layer>
		<layer id="128" name="462/fq_input_3" type="FakeQuantize" version="opset1">
			<data levels="256"/>
			<input>
				<port id="0">
					<dim>1</dim>
					<dim>16</dim>
					<dim>64</dim>
				</port>
				<port id="1"/>
				<port id="2"/>
				<port id="3"/>
				<port id="4"/>
			</input>
			<output>
				<port id="5" precision="FP16">
					<dim>1</dim>
					<dim>16</dim>
					<dim>64</dim>
				</port>
			</output>
		</layer>
		<layer id="129" name="24772481_const" type="Const" version="opset1">
			<data element_type="f16" offset="803262" shape="" size="2"/>
			<output>
				<port id="1" precision="FP16"/>
			</output>
		</layer>
		<layer id="130" name="24782482_const" type="Const" version="opset1">
			<data element_type="f16" offset="803264" shape="" size="2"/>
			<output>
				<port id="1" precision="FP16"/>
			</output>
		</layer>
		<layer id="131" name="24792483_const" type="Const" version="opset1">
			<data element_type="f16" offset="803262" shape="" size="2"/>
			<output>
				<port id="1" precision="FP16"/>
			</output>
		</layer>
		<layer id="132" name="24802484_const" type="Const" version="opset1">
			<data element_type="f16" offset="803264" shape="" size="2"/>
			<output>
				<port id="1" precision="FP16"/>
			</output>
		</layer>
		<layer id="133" name="462/fq_input_4" type="FakeQuantize" version="opset1">
			<data levels="256"/>
			<input>
				<port id="0">
					<dim>1</dim>
					<dim>16</dim>
					<dim>64</dim>
				</port>
				<port id="1"/>
				<port id="2"/>
				<port id="3"/>
				<port id="4"/>
			</input>
			<output>
				<port id="5" precision="FP16">
					<dim>1</dim>
					<dim>16</dim>
					<dim>64</dim>
				</port>
			</output>
		</layer>
		<layer id="134" name="24872491_const" type="Const" version="opset1">
			<data element_type="f16" offset="803266" shape="" size="2"/>
			<output>
				<port id="1" precision="FP16"/>
			</output>
		</layer>
		<layer id="135" name="24882492_const" type="Const" version="opset1">
			<data element_type="f16" offset="803268" shape="" size="2"/>
			<output>
				<port id="1" precision="FP16"/>
			</output>
		</layer>
		<layer id="136" name="24892493_const" type="Const" version="opset1">
			<data element_type="f16" offset="803266" shape="" size="2"/>
			<output>
				<port id="1" precision="FP16"/>
			</output>
		</layer>
		<layer id="137" name="24902494_const" type="Const" version="opset1">
			<data element_type="f16" offset="803268" shape="" size="2"/>
			<output>
				<port id="1" precision="FP16"/>
			</output>
		</layer>
		<layer id="138" name="462/fq_input_5" type="FakeQuantize" version="opset1">
			<data levels="256"/>
			<input>
				<port id="0">
					<dim>1</dim>
					<dim>16</dim>
					<dim>64</dim>
				</port>
				<port id="1"/>
				<port id="2"/>
				<port id="3"/>
				<port id="4"/>
			</input>
			<output>
				<port id="5" precision="FP16">
					<dim>1</dim>
					<dim>16</dim>
					<dim>64</dim>
				</port>
			</output>
		</layer>
		<layer id="139" name="24972501_const" type="Const" version="opset1">
			<data element_type="f16" offset="803270" shape="" size="2"/>
			<output>
				<port id="1" precision="FP16"/>
			</output>
		</layer>
		<layer id="140" name="24982502_const" type="Const" version="opset1">
			<data element_type="f16" offset="803272" shape="" size="2"/>
			<output>
				<port id="1" precision="FP16"/>
			</output>
		</layer>
		<layer id="141" name="24992503_const" type="Const" version="opset1">
			<data element_type="f16" offset="803270" shape="" size="2"/>
			<output>
				<port id="1" precision="FP16"/>
			</output>
		</layer>
		<layer id="142" name="25002504_const" type="Const" version="opset1">
			<data element_type="f16" offset="803272" shape="" size="2"/>
			<output>
				<port id="1" precision="FP16"/>
			</output>
		</layer>
		<layer id="143" name="462/fq_input_6" type="FakeQuantize" version="opset1">
			<data levels="256"/>
			<input>
				<port id="0">
					<dim>1</dim>
					<dim>16</dim>
					<dim>64</dim>
				</port>
				<port id="1"/>
				<port id="2"/>
				<port id="3"/>
				<port id="4"/>
			</input>
			<output>
				<port id="5" precision="FP16">
					<dim>1</dim>
					<dim>16</dim>
					<dim>64</dim>
				</port>
			</output>
		</layer>
		<layer id="144" name="25072511_const" type="Const" version="opset1">
			<data element_type="f16" offset="803274" shape="" size="2"/>
			<output>
				<port id="1" precision="FP16"/>
			</output>
		</layer>
		<layer id="145" name="25082512_const" type="Const" version="opset1">
			<data element_type="f16" offset="803276" shape="" size="2"/>
			<output>
				<port id="1" precision="FP16"/>
			</output>
		</layer>
		<layer id="146" name="25092513_const" type="Const" version="opset1">
			<data element_type="f16" offset="803274" shape="" size="2"/>
			<output>
				<port id="1" precision="FP16"/>
			</output>
		</layer>
		<layer id="147" name="25102514_const" type="Const" version="opset1">
			<data element_type="f16" offset="803276" shape="" size="2"/>
			<output>
				<port id="1" precision="FP16"/>
			</output>
		</layer>
		<layer id="148" name="462/fq_input_7" type="FakeQuantize" version="opset1">
			<data levels="256"/>
			<input>
				<port id="0">
					<dim>1</dim>
					<dim>16</dim>
					<dim>64</dim>
				</port>
				<port id="1"/>
				<port id="2"/>
				<port id="3"/>
				<port id="4"/>
			</input>
			<output>
				<port id="5" precision="FP16">
					<dim>1</dim>
					<dim>16</dim>
					<dim>64</dim>
				</port>
			</output>
		</layer>
		<layer id="149" name="462" type="Concat" version="opset1">
			<data axis="2"/>
			<input>
				<port id="0">
					<dim>1</dim>
					<dim>16</dim>
					<dim>64</dim>
				</port>
				<port id="1">
					<dim>1</dim>
					<dim>16</dim>
					<dim>64</dim>
				</port>
				<port id="2">
					<dim>1</dim>
					<dim>16</dim>
					<dim>64</dim>
				</port>
				<port id="3">
					<dim>1</dim>
					<dim>16</dim>
					<dim>64</dim>
				</port>
				<port id="4">
					<dim>1</dim>
					<dim>16</dim>
					<dim>64</dim>
				</port>
				<port id="5">
					<dim>1</dim>
					<dim>16</dim>
					<dim>64</dim>
				</port>
				<port id="6">
					<dim>1</dim>
					<dim>16</dim>
					<dim>64</dim>
				</port>
				<port id="7">
					<dim>1</dim>
					<dim>16</dim>
					<dim>64</dim>
				</port>
			</input>
			<output>
				<port id="8" precision="FP16">
					<dim>1</dim>
					<dim>16</dim>
					<dim>512</dim>
				</port>
			</output>
		</layer>
		<layer id="150" name="465" type="Add" version="opset1">
			<input>
				<port id="0">
					<dim>1</dim>
					<dim>16</dim>
					<dim>512</dim>
				</port>
				<port id="1">
					<dim>1</dim>
					<dim>16</dim>
					<dim>512</dim>
				</port>
			</input>
			<output>
				<port id="2" precision="FP16">
					<dim>1</dim>
					<dim>16</dim>
					<dim>512</dim>
				</port>
			</output>
		</layer>
		<layer id="151" name="25172521_const" type="Const" version="opset1">
			<data element_type="f16" offset="803278" shape="" size="2"/>
			<output>
				<port id="1" precision="FP16"/>
			</output>
		</layer>
		<layer id="152" name="25182522_const" type="Const" version="opset1">
			<data element_type="f16" offset="803280" shape="" size="2"/>
			<output>
				<port id="1" precision="FP16"/>
			</output>
		</layer>
		<layer id="153" name="25192523_const" type="Const" version="opset1">
			<data element_type="f16" offset="803278" shape="" size="2"/>
			<output>
				<port id="1" precision="FP16"/>
			</output>
		</layer>
		<layer id="154" name="25202524_const" type="Const" version="opset1">
			<data element_type="f16" offset="803280" shape="" size="2"/>
			<output>
				<port id="1" precision="FP16"/>
			</output>
		</layer>
		<layer id="155" name="466/fq_input_0" type="FakeQuantize" version="opset1">
			<data levels="256"/>
			<input>
				<port id="0">
					<dim>1</dim>
					<dim>16</dim>
					<dim>512</dim>
				</port>
				<port id="1"/>
				<port id="2"/>
				<port id="3"/>
				<port id="4"/>
			</input>
			<output>
				<port id="5" precision="FP16">
					<dim>1</dim>
					<dim>16</dim>
					<dim>512</dim>
				</port>
			</output>
		</layer>
		<layer id="156" name="decoder_466/Cast_15193_const" type="Const" version="opset1">
			<data element_type="i64" offset="540840" shape="3" size="24"/>
			<output>
				<port id="1" precision="I64">
					<dim>3</dim>
				</port>
			</output>
		</layer>
		<layer id="157" name="466" type="Transpose" version="opset1">
			<input>
				<port id="0">
					<dim>1</dim>
					<dim>16</dim>
					<dim>512</dim>
				</port>
				<port id="1">
					<dim>3</dim>
				</port>
			</input>
			<output>
				<port id="2" precision="FP16">
					<dim>1</dim>
					<dim>512</dim>
					<dim>16</dim>
				</port>
			</output>
		</layer>
		<layer id="158" name="decoder_467/WithoutBiases/fq_weights_1/Convert_to_float/Cast_05147_const" type="Const" version="opset1">
			<data element_type="u8" offset="803282" shape="1024,512,1" size="524288"/>
			<output>
				<port id="1" precision="U8">
					<dim>1024</dim>
					<dim>512</dim>
					<dim>1</dim>
				</port>
			</output>
		</layer>
		<layer id="159" name="467/WithoutBiases/fq_weights_1/Convert_to_float" type="Convert" version="opset1">
			<data destination_type="f16"/>
			<input>
				<port id="0">
					<dim>1024</dim>
					<dim>512</dim>
					<dim>1</dim>
				</port>
			</input>
			<output>
				<port id="1" precision="FP16">
					<dim>1024</dim>
					<dim>512</dim>
					<dim>1</dim>
				</port>
			</output>
		</layer>
		<layer id="160" name="decoder_467/WithoutBiases/fq_weights_1/Copy/out_low4469_const" type="Const" version="opset1">
			<data element_type="f16" offset="278596" shape="1" size="2"/>
			<output>
				<port id="1" precision="FP16">
					<dim>1</dim>
				</port>
			</output>
		</layer>
		<layer id="161" name="decoder_467/WithoutBiases/fq_weights_1/Copy/out_high4470_const" type="Const" version="opset1">
			<data element_type="f16" offset="278598" shape="1" size="2"/>
			<output>
				<port id="1" precision="FP16">
					<dim>1</dim>
				</port>
			</output>
		</layer>
		<layer id="162" name="10491053_const" type="Const" version="opset1">
			<data element_type="f16" offset="1327570" shape="1024,1,1" size="2048"/>
			<output>
				<port id="1" precision="FP16">
					<dim>1024</dim>
					<dim>1</dim>
					<dim>1</dim>
				</port>
			</output>
		</layer>
		<layer id="163" name="10501054_const" type="Const" version="opset1">
			<data element_type="f16" offset="1329618" shape="1024,1,1" size="2048"/>
			<output>
				<port id="1" precision="FP16">
					<dim>1024</dim>
					<dim>1</dim>
					<dim>1</dim>
				</port>
			</output>
		</layer>
		<layer id="164" name="467/WithoutBiases/fq_weights_1" type="FakeQuantize" version="opset1">
			<data levels="255"/>
			<input>
				<port id="0">
					<dim>1024</dim>
					<dim>512</dim>
					<dim>1</dim>
				</port>
				<port id="1">
					<dim>1</dim>
				</port>
				<port id="2">
					<dim>1</dim>
				</port>
				<port id="3">
					<dim>1024</dim>
					<dim>1</dim>
					<dim>1</dim>
				</port>
				<port id="4">
					<dim>1024</dim>
					<dim>1</dim>
					<dim>1</dim>
				</port>
			</input>
			<output>
				<port id="5" precision="FP16">
					<dim>1024</dim>
					<dim>512</dim>
					<dim>1</dim>
				</port>
			</output>
		</layer>
		<layer id="165" name="467/WithoutBiases" type="Convolution" version="opset1">
			<data dilations="1" output_padding="0" pads_begin="0" pads_end="0" strides="1"/>
			<input>
				<port id="0">
					<dim>1</dim>
					<dim>512</dim>
					<dim>16</dim>
				</port>
				<port id="1">
					<dim>1024</dim>
					<dim>512</dim>
					<dim>1</dim>
				</port>
			</input>
			<output>
				<port id="2" precision="FP16">
					<dim>1</dim>
					<dim>1024</dim>
					<dim>16</dim>
				</port>
			</output>
		</layer>
		<layer id="166" name="467/Dims3649/copy_const351_const" type="Const" version="opset1">
			<data element_type="f16" offset="1331666" shape="1,1024,1" size="2048"/>
			<output>
				<port id="1" precision="FP16">
					<dim>1</dim>
					<dim>1024</dim>
					<dim>1</dim>
				</port>
			</output>
		</layer>
		<layer id="167" name="467" type="Add" version="opset1">
			<input>
				<port id="0">
					<dim>1</dim>
					<dim>1024</dim>
					<dim>16</dim>
				</port>
				<port id="1">
					<dim>1</dim>
					<dim>1024</dim>
					<dim>1</dim>
				</port>
			</input>
			<output>
				<port id="2" precision="FP16">
					<dim>1</dim>
					<dim>1024</dim>
					<dim>16</dim>
				</port>
			</output>
		</layer>
		<layer id="168" name="468" type="ReLU" version="opset1">
			<input>
				<port id="0">
					<dim>1</dim>
					<dim>1024</dim>
					<dim>16</dim>
				</port>
			</input>
			<output>
				<port id="1" precision="FP16">
					<dim>1</dim>
					<dim>1024</dim>
					<dim>16</dim>
				</port>
			</output>
		</layer>
		<layer id="169" name="14471451_const" type="Const" version="opset1">
			<data element_type="f16" offset="278596" shape="" size="2"/>
			<output>
				<port id="1" precision="FP16"/>
			</output>
		</layer>
		<layer id="170" name="14481452_const" type="Const" version="opset1">
			<data element_type="f16" offset="1333714" shape="" size="2"/>
			<output>
				<port id="1" precision="FP16"/>
			</output>
		</layer>
		<layer id="171" name="14491453_const" type="Const" version="opset1">
			<data element_type="f16" offset="278596" shape="" size="2"/>
			<output>
				<port id="1" precision="FP16"/>
			</output>
		</layer>
		<layer id="172" name="14501454_const" type="Const" version="opset1">
			<data element_type="f16" offset="1333714" shape="" size="2"/>
			<output>
				<port id="1" precision="FP16"/>
			</output>
		</layer>
		<layer id="173" name="469/WithoutBiases/fq_input_0" type="FakeQuantize" version="opset1">
			<data levels="256"/>
			<input>
				<port id="0">
					<dim>1</dim>
					<dim>1024</dim>
					<dim>16</dim>
				</port>
				<port id="1"/>
				<port id="2"/>
				<port id="3"/>
				<port id="4"/>
			</input>
			<output>
				<port id="5" precision="FP16">
					<dim>1</dim>
					<dim>1024</dim>
					<dim>16</dim>
				</port>
			</output>
		</layer>
		<layer id="174" name="decoder_469/WithoutBiases/fq_weights_1/Convert_to_float/Cast_05189_const" type="Const" version="opset1">
			<data element_type="u8" offset="1333716" shape="512,1024,1" size="524288"/>
			<output>
				<port id="1" precision="U8">
					<dim>512</dim>
					<dim>1024</dim>
					<dim>1</dim>
				</port>
			</output>
		</layer>
		<layer id="175" name="469/WithoutBiases/fq_weights_1/Convert_to_float" type="Convert" version="opset1">
			<data destination_type="f16"/>
			<input>
				<port id="0">
					<dim>512</dim>
					<dim>1024</dim>
					<dim>1</dim>
				</port>
			</input>
			<output>
				<port id="1" precision="FP16">
					<dim>512</dim>
					<dim>1024</dim>
					<dim>1</dim>
				</port>
			</output>
		</layer>
		<layer id="176" name="decoder_469/WithoutBiases/fq_weights_1/Copy/out_low4437_const" type="Const" version="opset1">
			<data element_type="f16" offset="278596" shape="1" size="2"/>
			<output>
				<port id="1" precision="FP16">
					<dim>1</dim>
				</port>
			</output>
		</layer>
		<layer id="177" name="decoder_469/WithoutBiases/fq_weights_1/Copy/out_high4438_const" type="Const" version="opset1">
			<data element_type="f16" offset="278598" shape="1" size="2"/>
			<output>
				<port id="1" precision="FP16">
					<dim>1</dim>
				</port>
			</output>
		</layer>
		<layer id="178" name="14591463_const" type="Const" version="opset1">
			<data element_type="f16" offset="1858004" shape="512,1,1" size="1024"/>
			<output>
				<port id="1" precision="FP16">
					<dim>512</dim>
					<dim>1</dim>
					<dim>1</dim>
				</port>
			</output>
		</layer>
		<layer id="179" name="14601464_const" type="Const" version="opset1">
			<data element_type="f16" offset="1859028" shape="512,1,1" size="1024"/>
			<output>
				<port id="1" precision="FP16">
					<dim>512</dim>
					<dim>1</dim>
					<dim>1</dim>
				</port>
			</output>
		</layer>
		<layer id="180" name="469/WithoutBiases/fq_weights_1" type="FakeQuantize" version="opset1">
			<data levels="255"/>
			<input>
				<port id="0">
					<dim>512</dim>
					<dim>1024</dim>
					<dim>1</dim>
				</port>
				<port id="1">
					<dim>1</dim>
				</port>
				<port id="2">
					<dim>1</dim>
				</port>
				<port id="3">
					<dim>512</dim>
					<dim>1</dim>
					<dim>1</dim>
				</port>
				<port id="4">
					<dim>512</dim>
					<dim>1</dim>
					<dim>1</dim>
				</port>
			</input>
			<output>
				<port id="5" precision="FP16">
					<dim>512</dim>
					<dim>1024</dim>
					<dim>1</dim>
				</port>
			</output>
		</layer>
		<layer id="181" name="469/WithoutBiases" type="Convolution" version="opset1">
			<data dilations="1" output_padding="0" pads_begin="0" pads_end="0" strides="1"/>
			<input>
				<port id="0">
					<dim>1</dim>
					<dim>1024</dim>
					<dim>16</dim>
				</port>
				<port id="1">
					<dim>512</dim>
					<dim>1024</dim>
					<dim>1</dim>
				</port>
			</input>
			<output>
				<port id="2" precision="FP16">
					<dim>1</dim>
					<dim>512</dim>
					<dim>16</dim>
				</port>
			</output>
		</layer>
		<layer id="182" name="469/Dims3655/copy_const356_const" type="Const" version="opset1">
			<data element_type="f16" offset="1860052" shape="1,512,1" size="1024"/>
			<output>
				<port id="1" precision="FP16">
					<dim>1</dim>
					<dim>512</dim>
					<dim>1</dim>
				</port>
			</output>
		</layer>
		<layer id="183" name="469" type="Add" version="opset1">
			<input>
				<port id="0">
					<dim>1</dim>
					<dim>512</dim>
					<dim>16</dim>
				</port>
				<port id="1">
					<dim>1</dim>
					<dim>512</dim>
					<dim>1</dim>
				</port>
			</input>
			<output>
				<port id="2" precision="FP16">
					<dim>1</dim>
					<dim>512</dim>
					<dim>16</dim>
				</port>
			</output>
		</layer>
		<layer id="184" name="25272531_const" type="Const" version="opset1">
			<data element_type="f16" offset="1861076" shape="" size="2"/>
			<output>
				<port id="1" precision="FP16"/>
			</output>
		</layer>
		<layer id="185" name="25282532_const" type="Const" version="opset1">
			<data element_type="f16" offset="1861078" shape="" size="2"/>
			<output>
				<port id="1" precision="FP16"/>
			</output>
		</layer>
		<layer id="186" name="25292533_const" type="Const" version="opset1">
			<data element_type="f16" offset="1861076" shape="" size="2"/>
			<output>
				<port id="1" precision="FP16"/>
			</output>
		</layer>
		<layer id="187" name="25302534_const" type="Const" version="opset1">
			<data element_type="f16" offset="1861078" shape="" size="2"/>
			<output>
				<port id="1" precision="FP16"/>
			</output>
		</layer>
		<layer id="188" name="470/fq_input_0" type="FakeQuantize" version="opset1">
			<data levels="256"/>
			<input>
				<port id="0">
					<dim>1</dim>
					<dim>512</dim>
					<dim>16</dim>
				</port>
				<port id="1"/>
				<port id="2"/>
				<port id="3"/>
				<port id="4"/>
			</input>
			<output>
				<port id="5" precision="FP16">
					<dim>1</dim>
					<dim>512</dim>
					<dim>16</dim>
				</port>
			</output>
		</layer>
		<layer id="189" name="decoder_470/Cast_15179_const" type="Const" version="opset1">
			<data element_type="i64" offset="540840" shape="3" size="24"/>
			<output>
				<port id="1" precision="I64">
					<dim>3</dim>
				</port>
			</output>
		</layer>
		<layer id="190" name="470" type="Transpose" version="opset1">
			<input>
				<port id="0">
					<dim>1</dim>
					<dim>512</dim>
					<dim>16</dim>
				</port>
				<port id="1">
					<dim>3</dim>
				</port>
			</input>
			<output>
				<port id="2" precision="FP16">
					<dim>1</dim>
					<dim>16</dim>
					<dim>512</dim>
				</port>
			</output>
		</layer>
		<layer id="191" name="473" type="Add" version="opset1">
			<input>
				<port id="0">
					<dim>1</dim>
					<dim>16</dim>
					<dim>512</dim>
				</port>
				<port id="1">
					<dim>1</dim>
					<dim>16</dim>
					<dim>512</dim>
				</port>
			</input>
			<output>
				<port id="2" precision="FP16">
					<dim>1</dim>
					<dim>16</dim>
					<dim>512</dim>
				</port>
			</output>
		</layer>
		<layer id="192" name="25672571_const" type="Const" version="opset1">
			<data element_type="f16" offset="1861080" shape="" size="2"/>
			<output>
				<port id="1" precision="FP16"/>
			</output>
		</layer>
		<layer id="193" name="25682572_const" type="Const" version="opset1">
			<data element_type="f16" offset="1861082" shape="" size="2"/>
			<output>
				<port id="1" precision="FP16"/>
			</output>
		</layer>
		<layer id="194" name="25692573_const" type="Const" version="opset1">
			<data element_type="f16" offset="1861080" shape="" size="2"/>
			<output>
				<port id="1" precision="FP16"/>
			</output>
		</layer>
		<layer id="195" name="25702574_const" type="Const" version="opset1">
			<data element_type="f16" offset="1861082" shape="" size="2"/>
			<output>
				<port id="1" precision="FP16"/>
			</output>
		</layer>
		<layer id="196" name="487/3D_Tile_Unsqueeze/fq_input_0" type="FakeQuantize" version="opset1">
			<data levels="256"/>
			<input>
				<port id="0">
					<dim>1</dim>
					<dim>16</dim>
					<dim>512</dim>
				</port>
				<port id="1"/>
				<port id="2"/>
				<port id="3"/>
				<port id="4"/>
			</input>
			<output>
				<port id="5" precision="FP16">
					<dim>1</dim>
					<dim>16</dim>
					<dim>512</dim>
				</port>
			</output>
		</layer>
		<layer id="197" name="487/3D_Tile_Unsqueeze_dim6726_const361_const" type="Const" version="opset1">
			<data element_type="i64" offset="16388" shape="1" size="8"/>
			<output>
				<port id="1" precision="I64">
					<dim>1</dim>
				</port>
			</output>
		</layer>
		<layer id="198" name="487/3D_Tile_Unsqueeze" type="Unsqueeze" version="opset1">
			<input>
				<port id="0">
					<dim>1</dim>
					<dim>16</dim>
					<dim>512</dim>
				</port>
				<port id="1">
					<dim>1</dim>
				</port>
			</input>
			<output>
				<port id="2" precision="FP16">
					<dim>1</dim>
					<dim>16</dim>
					<dim>512</dim>
					<dim>1</dim>
				</port>
			</output>
		</layer>
		<layer id="199" name="67286730_const363_const" type="Const" version="opset1">
			<data element_type="i64" offset="16396" shape="4" size="32"/>
			<output>
				<port id="1" precision="I64">
					<dim>4</dim>
				</port>
			</output>
		</layer>
		<layer id="200" name="487" type="Tile" version="opset1">
			<input>
				<port id="0">
					<dim>1</dim>
					<dim>16</dim>
					<dim>512</dim>
					<dim>1</dim>
				</port>
				<port id="1">
					<dim>4</dim>
				</port>
			</input>
			<output>
				<port id="2" precision="FP16">
					<dim>8</dim>
					<dim>16</dim>
					<dim>512</dim>
					<dim>1</dim>
				</port>
			</output>
		</layer>
		<layer id="201" name="487/3D_Tile_Squeeze_dim6733_const365_const" type="Const" version="opset1">
			<data element_type="i64" offset="16388" shape="1" size="8"/>
			<output>
				<port id="1" precision="I64">
					<dim>1</dim>
				</port>
			</output>
		</layer>
		<layer id="202" name="487/3D_Tile_Squeeze" type="Squeeze" version="opset1">
			<input>
				<port id="0">
					<dim>8</dim>
					<dim>16</dim>
					<dim>512</dim>
					<dim>1</dim>
				</port>
				<port id="1">
					<dim>1</dim>
				</port>
			</input>
			<output>
				<port id="2" precision="FP16">
					<dim>8</dim>
					<dim>16</dim>
					<dim>512</dim>
				</port>
			</output>
		</layer>
		<layer id="203" name="494/Cast_19927_const367_const" type="Const" version="opset1">
			<data element_type="i64" offset="16428" shape="3" size="24"/>
			<output>
				<port id="1" precision="I64">
					<dim>3</dim>
				</port>
			</output>
		</layer>
		<layer id="204" name="494" type="Reshape" version="opset1">
			<data special_zero="True"/>
			<input>
				<port id="0">
					<dim>8</dim>
					<dim>16</dim>
					<dim>512</dim>
				</port>
				<port id="1">
					<dim>3</dim>
				</port>
			</input>
			<output>
				<port id="2" precision="FP16">
					<dim>8</dim>
					<dim>16</dim>
					<dim>512</dim>
				</port>
			</output>
		</layer>
		<layer id="205" name="decoder_513/fq_weights_1/Convert_to_float/Cast_05191_const" type="Const" version="opset1">
			<data element_type="u8" offset="1861084" shape="8,64,512" size="262144"/>
			<output>
				<port id="1" precision="U8">
					<dim>8</dim>
					<dim>64</dim>
					<dim>512</dim>
				</port>
			</output>
		</layer>
		<layer id="206" name="513/fq_weights_1/Convert_to_float" type="Convert" version="opset1">
			<data destination_type="f16"/>
			<input>
				<port id="0">
					<dim>8</dim>
					<dim>64</dim>
					<dim>512</dim>
				</port>
			</input>
			<output>
				<port id="1" precision="FP16">
					<dim>8</dim>
					<dim>64</dim>
					<dim>512</dim>
				</port>
			</output>
		</layer>
		<layer id="207" name="decoder_513/fq_weights_1/Copy/out_low4621_const" type="Const" version="opset1">
			<data element_type="f16" offset="278596" shape="1" size="2"/>
			<output>
				<port id="1" precision="FP16">
					<dim>1</dim>
				</port>
			</output>
		</layer>
		<layer id="208" name="decoder_513/fq_weights_1/Copy/out_high4622_const" type="Const" version="opset1">
			<data element_type="f16" offset="278598" shape="1" size="2"/>
			<output>
				<port id="1" precision="FP16">
					<dim>1</dim>
				</port>
			</output>
		</layer>
		<layer id="209" name="16391643_const" type="Const" version="opset1">
			<data element_type="f16" offset="2123228" shape="8,1,1" size="16"/>
			<output>
				<port id="1" precision="FP16">
					<dim>8</dim>
					<dim>1</dim>
					<dim>1</dim>
				</port>
			</output>
		</layer>
		<layer id="210" name="16401644_const" type="Const" version="opset1">
			<data element_type="f16" offset="2123244" shape="8,1,1" size="16"/>
			<output>
				<port id="1" precision="FP16">
					<dim>8</dim>
					<dim>1</dim>
					<dim>1</dim>
				</port>
			</output>
		</layer>
		<layer id="211" name="513/fq_weights_1" type="FakeQuantize" version="opset1">
			<data levels="255"/>
			<input>
				<port id="0">
					<dim>8</dim>
					<dim>64</dim>
					<dim>512</dim>
				</port>
				<port id="1">
					<dim>1</dim>
				</port>
				<port id="2">
					<dim>1</dim>
				</port>
				<port id="3">
					<dim>8</dim>
					<dim>1</dim>
					<dim>1</dim>
				</port>
				<port id="4">
					<dim>8</dim>
					<dim>1</dim>
					<dim>1</dim>
				</port>
			</input>
			<output>
				<port id="5" precision="FP16">
					<dim>8</dim>
					<dim>64</dim>
					<dim>512</dim>
				</port>
			</output>
		</layer>
		<layer id="212" name="513" type="MatMul" version="opset1">
			<data transpose_a="False" transpose_b="True"/>
			<input>
				<port id="0">
					<dim>8</dim>
					<dim>16</dim>
					<dim>512</dim>
				</port>
				<port id="1">
					<dim>8</dim>
					<dim>64</dim>
					<dim>512</dim>
				</port>
			</input>
			<output>
				<port id="2" precision="FP16">
					<dim>8</dim>
					<dim>16</dim>
					<dim>64</dim>
				</port>
			</output>
		</layer>
		<layer id="213" name="26572661_const" type="Const" version="opset1">
			<data element_type="f16" offset="2123260" shape="" size="2"/>
			<output>
				<port id="1" precision="FP16"/>
			</output>
		</layer>
		<layer id="214" name="26582662_const" type="Const" version="opset1">
			<data element_type="f16" offset="2123262" shape="" size="2"/>
			<output>
				<port id="1" precision="FP16"/>
			</output>
		</layer>
		<layer id="215" name="26592663_const" type="Const" version="opset1">
			<data element_type="f16" offset="2123260" shape="" size="2"/>
			<output>
				<port id="1" precision="FP16"/>
			</output>
		</layer>
		<layer id="216" name="26602664_const" type="Const" version="opset1">
			<data element_type="f16" offset="2123262" shape="" size="2"/>
			<output>
				<port id="1" precision="FP16"/>
			</output>
		</layer>
		<layer id="217" name="520/fq_input_0" type="FakeQuantize" version="opset1">
			<data levels="256"/>
			<input>
				<port id="0">
					<dim>8</dim>
					<dim>16</dim>
					<dim>64</dim>
				</port>
				<port id="1"/>
				<port id="2"/>
				<port id="3"/>
				<port id="4"/>
			</input>
			<output>
				<port id="5" precision="FP16">
					<dim>8</dim>
					<dim>16</dim>
					<dim>64</dim>
				</port>
			</output>
		</layer>
		<layer id="218" name="520/Cast_19873_const371_const" type="Const" version="opset1">
			<data element_type="i64" offset="278636" shape="3" size="24"/>
			<output>
				<port id="1" precision="I64">
					<dim>3</dim>
				</port>
			</output>
		</layer>
		<layer id="219" name="520" type="Reshape" version="opset1">
			<data special_zero="True"/>
			<input>
				<port id="0">
					<dim>8</dim>
					<dim>16</dim>
					<dim>64</dim>
				</port>
				<port id="1">
					<dim>3</dim>
				</port>
			</input>
			<output>
				<port id="2" precision="FP16">
					<dim>8</dim>
					<dim>16</dim>
					<dim>64</dim>
				</port>
			</output>
		</layer>
		<layer id="220" name="496/3D_Tile_Unsqueeze_dim6750_const373_const" type="Const" version="opset1">
			<data element_type="i64" offset="16388" shape="1" size="8"/>
			<output>
				<port id="1" precision="I64">
					<dim>1</dim>
				</port>
			</output>
		</layer>
		<layer id="221" name="496/3D_Tile_Unsqueeze" type="Unsqueeze" version="opset1">
			<input>
				<port id="0">
					<dim>1</dim>
					<dim>16</dim>
					<dim>512</dim>
				</port>
				<port id="1">
					<dim>1</dim>
				</port>
			</input>
			<output>
				<port id="2" precision="FP16">
					<dim>1</dim>
					<dim>16</dim>
					<dim>512</dim>
					<dim>1</dim>
				</port>
			</output>
		</layer>
		<layer id="222" name="67526754_const375_const" type="Const" version="opset1">
			<data element_type="i64" offset="16396" shape="4" size="32"/>
			<output>
				<port id="1" precision="I64">
					<dim>4</dim>
				</port>
			</output>
		</layer>
		<layer id="223" name="496" type="Tile" version="opset1">
			<input>
				<port id="0">
					<dim>1</dim>
					<dim>16</dim>
					<dim>512</dim>
					<dim>1</dim>
				</port>
				<port id="1">
					<dim>4</dim>
				</port>
			</input>
			<output>
				<port id="2" precision="FP16">
					<dim>8</dim>
					<dim>16</dim>
					<dim>512</dim>
					<dim>1</dim>
				</port>
			</output>
		</layer>
		<layer id="224" name="496/3D_Tile_Squeeze_dim6757_const377_const" type="Const" version="opset1">
			<data element_type="i64" offset="16388" shape="1" size="8"/>
			<output>
				<port id="1" precision="I64">
					<dim>1</dim>
				</port>
			</output>
		</layer>
		<layer id="225" name="496/3D_Tile_Squeeze" type="Squeeze" version="opset1">
			<input>
				<port id="0">
					<dim>8</dim>
					<dim>16</dim>
					<dim>512</dim>
					<dim>1</dim>
				</port>
				<port id="1">
					<dim>1</dim>
				</port>
			</input>
			<output>
				<port id="2" precision="FP16">
					<dim>8</dim>
					<dim>16</dim>
					<dim>512</dim>
				</port>
			</output>
		</layer>
		<layer id="226" name="503/Cast_19881_const379_const" type="Const" version="opset1">
			<data element_type="i64" offset="16428" shape="3" size="24"/>
			<output>
				<port id="1" precision="I64">
					<dim>3</dim>
				</port>
			</output>
		</layer>
		<layer id="227" name="503" type="Reshape" version="opset1">
			<data special_zero="True"/>
			<input>
				<port id="0">
					<dim>8</dim>
					<dim>16</dim>
					<dim>512</dim>
				</port>
				<port id="1">
					<dim>3</dim>
				</port>
			</input>
			<output>
				<port id="2" precision="FP16">
					<dim>8</dim>
					<dim>16</dim>
					<dim>512</dim>
				</port>
			</output>
		</layer>
		<layer id="228" name="decoder_521/fq_weights_1/Convert_to_float/Cast_05177_const" type="Const" version="opset1">
			<data element_type="u8" offset="2123264" shape="8,64,512" size="262144"/>
			<output>
				<port id="1" precision="U8">
					<dim>8</dim>
					<dim>64</dim>
					<dim>512</dim>
				</port>
			</output>
		</layer>
		<layer id="229" name="521/fq_weights_1/Convert_to_float" type="Convert" version="opset1">
			<data destination_type="f16"/>
			<input>
				<port id="0">
					<dim>8</dim>
					<dim>64</dim>
					<dim>512</dim>
				</port>
			</input>
			<output>
				<port id="1" precision="FP16">
					<dim>8</dim>
					<dim>64</dim>
					<dim>512</dim>
				</port>
			</output>
		</layer>
		<layer id="230" name="decoder_521/fq_weights_1/Copy/out_low4549_const" type="Const" version="opset1">
			<data element_type="f16" offset="278596" shape="1" size="2"/>
			<output>
				<port id="1" precision="FP16">
					<dim>1</dim>
				</port>
			</output>
		</layer>
		<layer id="231" name="decoder_521/fq_weights_1/Copy/out_high4550_const" type="Const" version="opset1">
			<data element_type="f16" offset="278598" shape="1" size="2"/>
			<output>
				<port id="1" precision="FP16">
					<dim>1</dim>
				</port>
			</output>
		</layer>
		<layer id="232" name="12591263_const" type="Const" version="opset1">
			<data element_type="f16" offset="2385408" shape="8,1,1" size="16"/>
			<output>
				<port id="1" precision="FP16">
					<dim>8</dim>
					<dim>1</dim>
					<dim>1</dim>
				</port>
			</output>
		</layer>
		<layer id="233" name="12601264_const" type="Const" version="opset1">
			<data element_type="f16" offset="2385424" shape="8,1,1" size="16"/>
			<output>
				<port id="1" precision="FP16">
					<dim>8</dim>
					<dim>1</dim>
					<dim>1</dim>
				</port>
			</output>
		</layer>
		<layer id="234" name="521/fq_weights_1" type="FakeQuantize" version="opset1">
			<data levels="255"/>
			<input>
				<port id="0">
					<dim>8</dim>
					<dim>64</dim>
					<dim>512</dim>
				</port>
				<port id="1">
					<dim>1</dim>
				</port>
				<port id="2">
					<dim>1</dim>
				</port>
				<port id="3">
					<dim>8</dim>
					<dim>1</dim>
					<dim>1</dim>
				</port>
				<port id="4">
					<dim>8</dim>
					<dim>1</dim>
					<dim>1</dim>
				</port>
			</input>
			<output>
				<port id="5" precision="FP16">
					<dim>8</dim>
					<dim>64</dim>
					<dim>512</dim>
				</port>
			</output>
		</layer>
		<layer id="235" name="521" type="MatMul" version="opset1">
			<data transpose_a="False" transpose_b="True"/>
			<input>
				<port id="0">
					<dim>8</dim>
					<dim>16</dim>
					<dim>512</dim>
				</port>
				<port id="1">
					<dim>8</dim>
					<dim>64</dim>
					<dim>512</dim>
				</port>
			</input>
			<output>
				<port id="2" precision="FP16">
					<dim>8</dim>
					<dim>16</dim>
					<dim>64</dim>
				</port>
			</output>
		</layer>
		<layer id="236" name="26772681_const" type="Const" version="opset1">
			<data element_type="f16" offset="2385440" shape="" size="2"/>
			<output>
				<port id="1" precision="FP16"/>
			</output>
		</layer>
		<layer id="237" name="26782682_const" type="Const" version="opset1">
			<data element_type="f16" offset="2385442" shape="" size="2"/>
			<output>
				<port id="1" precision="FP16"/>
			</output>
		</layer>
		<layer id="238" name="26792683_const" type="Const" version="opset1">
			<data element_type="f16" offset="2385440" shape="" size="2"/>
			<output>
				<port id="1" precision="FP16"/>
			</output>
		</layer>
		<layer id="239" name="26802684_const" type="Const" version="opset1">
			<data element_type="f16" offset="2385442" shape="" size="2"/>
			<output>
				<port id="1" precision="FP16"/>
			</output>
		</layer>
		<layer id="240" name="528/fq_input_0" type="FakeQuantize" version="opset1">
			<data levels="256"/>
			<input>
				<port id="0">
					<dim>8</dim>
					<dim>16</dim>
					<dim>64</dim>
				</port>
				<port id="1"/>
				<port id="2"/>
				<port id="3"/>
				<port id="4"/>
			</input>
			<output>
				<port id="5" precision="FP16">
					<dim>8</dim>
					<dim>16</dim>
					<dim>64</dim>
				</port>
			</output>
		</layer>
		<layer id="241" name="528/Cast_19897_const383_const" type="Const" version="opset1">
			<data element_type="i64" offset="278636" shape="3" size="24"/>
			<output>
				<port id="1" precision="I64">
					<dim>3</dim>
				</port>
			</output>
		</layer>
		<layer id="242" name="528" type="Reshape" version="opset1">
			<data special_zero="True"/>
			<input>
				<port id="0">
					<dim>8</dim>
					<dim>16</dim>
					<dim>64</dim>
				</port>
				<port id="1">
					<dim>3</dim>
				</port>
			</input>
			<output>
				<port id="2" precision="FP16">
					<dim>8</dim>
					<dim>16</dim>
					<dim>64</dim>
				</port>
			</output>
		</layer>
		<layer id="243" name="decoder_537/Cast_15183_const" type="Const" version="opset1">
			<data element_type="i64" offset="540840" shape="3" size="24"/>
			<output>
				<port id="1" precision="I64">
					<dim>3</dim>
				</port>
			</output>
		</layer>
		<layer id="244" name="537" type="Transpose" version="opset1">
			<input>
				<port id="0">
					<dim>8</dim>
					<dim>16</dim>
					<dim>64</dim>
				</port>
				<port id="1">
					<dim>3</dim>
				</port>
			</input>
			<output>
				<port id="2" precision="FP16">
					<dim>8</dim>
					<dim>64</dim>
					<dim>16</dim>
				</port>
			</output>
		</layer>
		<layer id="245" name="decoder_540/fq_input_1/Convert_to_float/Cast_05187_const" type="Const" version="opset1">
			<data element_type="u8" offset="540864" shape="1,64,1" size="64"/>
			<output>
				<port id="1" precision="U8">
					<dim>1</dim>
					<dim>64</dim>
					<dim>1</dim>
				</port>
			</output>
		</layer>
		<layer id="246" name="540/fq_input_1/Convert_to_float" type="Convert" version="opset1">
			<data destination_type="f16"/>
			<input>
				<port id="0">
					<dim>1</dim>
					<dim>64</dim>
					<dim>1</dim>
				</port>
			</input>
			<output>
				<port id="1" precision="FP16">
					<dim>1</dim>
					<dim>64</dim>
					<dim>1</dim>
				</port>
			</output>
		</layer>
		<layer id="247" name="decoder_540/fq_input_1/Copy/out_low4597_const" type="Const" version="opset1">
			<data element_type="f16" offset="278596" shape="1" size="2"/>
			<output>
				<port id="1" precision="FP16">
					<dim>1</dim>
				</port>
			</output>
		</layer>
		<layer id="248" name="decoder_540/fq_input_1/Copy/out_high4598_const" type="Const" version="opset1">
			<data element_type="f16" offset="278598" shape="1" size="2"/>
			<output>
				<port id="1" precision="FP16">
					<dim>1</dim>
				</port>
			</output>
		</layer>
		<layer id="249" name="12991303_const" type="Const" version="opset1">
			<data element_type="f16" offset="540928" shape="1,1,1" size="2"/>
			<output>
				<port id="1" precision="FP16">
					<dim>1</dim>
					<dim>1</dim>
					<dim>1</dim>
				</port>
			</output>
		</layer>
		<layer id="250" name="13001304_const" type="Const" version="opset1">
			<data element_type="f16" offset="540930" shape="1,1,1" size="2"/>
			<output>
				<port id="1" precision="FP16">
					<dim>1</dim>
					<dim>1</dim>
					<dim>1</dim>
				</port>
			</output>
		</layer>
		<layer id="251" name="540/fq_input_1" type="FakeQuantize" version="opset1">
			<data levels="255"/>
			<input>
				<port id="0">
					<dim>1</dim>
					<dim>64</dim>
					<dim>1</dim>
				</port>
				<port id="1">
					<dim>1</dim>
				</port>
				<port id="2">
					<dim>1</dim>
				</port>
				<port id="3">
					<dim>1</dim>
					<dim>1</dim>
					<dim>1</dim>
				</port>
				<port id="4">
					<dim>1</dim>
					<dim>1</dim>
					<dim>1</dim>
				</port>
			</input>
			<output>
				<port id="5" precision="FP16">
					<dim>1</dim>
					<dim>64</dim>
					<dim>1</dim>
				</port>
			</output>
		</layer>
		<layer id="252" name="540" type="Multiply" version="opset1">
			<input>
				<port id="0">
					<dim>8</dim>
					<dim>64</dim>
					<dim>16</dim>
				</port>
				<port id="1">
					<dim>1</dim>
					<dim>64</dim>
					<dim>1</dim>
				</port>
			</input>
			<output>
				<port id="2" precision="FP16">
					<dim>8</dim>
					<dim>64</dim>
					<dim>16</dim>
				</port>
			</output>
		</layer>
		<layer id="253" name="15371541_const" type="Const" version="opset1">
			<data element_type="f16" offset="2385444" shape="" size="2"/>
			<output>
				<port id="1" precision="FP16"/>
			</output>
		</layer>
		<layer id="254" name="15381542_const" type="Const" version="opset1">
			<data element_type="f16" offset="2385446" shape="" size="2"/>
			<output>
				<port id="1" precision="FP16"/>
			</output>
		</layer>
		<layer id="255" name="15391543_const" type="Const" version="opset1">
			<data element_type="f16" offset="2385444" shape="" size="2"/>
			<output>
				<port id="1" precision="FP16"/>
			</output>
		</layer>
		<layer id="256" name="15401544_const" type="Const" version="opset1">
			<data element_type="f16" offset="2385446" shape="" size="2"/>
			<output>
				<port id="1" precision="FP16"/>
			</output>
		</layer>
		<layer id="257" name="538/fq_weights_1" type="FakeQuantize" version="opset1">
			<data levels="256"/>
			<input>
				<port id="0">
					<dim>8</dim>
					<dim>64</dim>
					<dim>16</dim>
				</port>
				<port id="1"/>
				<port id="2"/>
				<port id="3"/>
				<port id="4"/>
			</input>
			<output>
				<port id="5" precision="FP16">
					<dim>8</dim>
					<dim>64</dim>
					<dim>16</dim>
				</port>
			</output>
		</layer>
		<layer id="258" name="538" type="MatMul" version="opset1">
			<data transpose_a="False" transpose_b="False"/>
			<input>
				<port id="0">
					<dim>8</dim>
					<dim>16</dim>
					<dim>64</dim>
				</port>
				<port id="1">
					<dim>8</dim>
					<dim>64</dim>
					<dim>16</dim>
				</port>
			</input>
			<output>
				<port id="2" precision="FP16">
					<dim>8</dim>
					<dim>16</dim>
					<dim>16</dim>
				</port>
			</output>
		</layer>
		<layer id="259" name="552/Cast_19863_const390_const" type="Const" version="opset1">
			<data element_type="i64" offset="540936" shape="2" size="16"/>
			<output>
				<port id="1" precision="I64">
					<dim>2</dim>
				</port>
			</output>
		</layer>
		<layer id="260" name="552" type="Reshape" version="opset1">
			<data special_zero="True"/>
			<input>
				<port id="0">
					<dim>8</dim>
					<dim>16</dim>
					<dim>16</dim>
				</port>
				<port id="1">
					<dim>2</dim>
				</port>
			</input>
			<output>
				<port id="2" precision="FP16">
					<dim>128</dim>
					<dim>16</dim>
				</port>
			</output>
		</layer>
		<layer id="261" name="553/FlattenONNX_/Reshape/Cast_19901_const392_const" type="Const" version="opset1">
			<data element_type="i64" offset="540952" shape="2" size="16"/>
			<output>
				<port id="1" precision="I64">
					<dim>2</dim>
				</port>
			</output>
		</layer>
		<layer id="262" name="553/FlattenONNX_/Reshape" type="Reshape" version="opset1">
			<data special_zero="True"/>
			<input>
				<port id="0">
					<dim>128</dim>
					<dim>16</dim>
				</port>
				<port id="1">
					<dim>2</dim>
				</port>
			</input>
			<output>
				<port id="2" precision="FP16">
					<dim>128</dim>
					<dim>16</dim>
				</port>
			</output>
		</layer>
		<layer id="263" name="553" type="SoftMax" version="opset1">
			<data axis="1"/>
			<input>
				<port id="0">
					<dim>128</dim>
					<dim>16</dim>
				</port>
			</input>
			<output>
				<port id="1" precision="FP16">
					<dim>128</dim>
					<dim>16</dim>
				</port>
			</output>
		</layer>
		<layer id="264" name="26872691_const" type="Const" version="opset1">
			<data element_type="f16" offset="278596" shape="" size="2"/>
			<output>
				<port id="1" precision="FP16"/>
			</output>
		</layer>
		<layer id="265" name="26882692_const" type="Const" version="opset1">
			<data element_type="f16" offset="2385448" shape="" size="2"/>
			<output>
				<port id="1" precision="FP16"/>
			</output>
		</layer>
		<layer id="266" name="26892693_const" type="Const" version="opset1">
			<data element_type="f16" offset="278596" shape="" size="2"/>
			<output>
				<port id="1" precision="FP16"/>
			</output>
		</layer>
		<layer id="267" name="26902694_const" type="Const" version="opset1">
			<data element_type="f16" offset="2385448" shape="" size="2"/>
			<output>
				<port id="1" precision="FP16"/>
			</output>
		</layer>
		<layer id="268" name="559/fq_input_0" type="FakeQuantize" version="opset1">
			<data levels="256"/>
			<input>
				<port id="0">
					<dim>128</dim>
					<dim>16</dim>
				</port>
				<port id="1"/>
				<port id="2"/>
				<port id="3"/>
				<port id="4"/>
			</input>
			<output>
				<port id="5" precision="FP16">
					<dim>128</dim>
					<dim>16</dim>
				</port>
			</output>
		</layer>
		<layer id="269" name="559/Cast_19937_const395_const" type="Const" version="opset1">
			<data element_type="i64" offset="540970" shape="3" size="24"/>
			<output>
				<port id="1" precision="I64">
					<dim>3</dim>
				</port>
			</output>
		</layer>
		<layer id="270" name="559" type="Reshape" version="opset1">
			<data special_zero="True"/>
			<input>
				<port id="0">
					<dim>128</dim>
					<dim>16</dim>
				</port>
				<port id="1">
					<dim>3</dim>
				</port>
			</input>
			<output>
				<port id="2" precision="FP16">
					<dim>8</dim>
					<dim>16</dim>
					<dim>16</dim>
				</port>
			</output>
		</layer>
		<layer id="271" name="505/3D_Tile_Unsqueeze_dim6702_const397_const" type="Const" version="opset1">
			<data element_type="i64" offset="16388" shape="1" size="8"/>
			<output>
				<port id="1" precision="I64">
					<dim>1</dim>
				</port>
			</output>
		</layer>
		<layer id="272" name="505/3D_Tile_Unsqueeze" type="Unsqueeze" version="opset1">
			<input>
				<port id="0">
					<dim>1</dim>
					<dim>16</dim>
					<dim>512</dim>
				</port>
				<port id="1">
					<dim>1</dim>
				</port>
			</input>
			<output>
				<port id="2" precision="FP16">
					<dim>1</dim>
					<dim>16</dim>
					<dim>512</dim>
					<dim>1</dim>
				</port>
			</output>
		</layer>
		<layer id="273" name="67046706_const399_const" type="Const" version="opset1">
			<data element_type="i64" offset="16396" shape="4" size="32"/>
			<output>
				<port id="1" precision="I64">
					<dim>4</dim>
				</port>
			</output>
		</layer>
		<layer id="274" name="505" type="Tile" version="opset1">
			<input>
				<port id="0">
					<dim>1</dim>
					<dim>16</dim>
					<dim>512</dim>
					<dim>1</dim>
				</port>
				<port id="1">
					<dim>4</dim>
				</port>
			</input>
			<output>
				<port id="2" precision="FP16">
					<dim>8</dim>
					<dim>16</dim>
					<dim>512</dim>
					<dim>1</dim>
				</port>
			</output>
		</layer>
		<layer id="275" name="505/3D_Tile_Squeeze_dim6709_const401_const" type="Const" version="opset1">
			<data element_type="i64" offset="16388" shape="1" size="8"/>
			<output>
				<port id="1" precision="I64">
					<dim>1</dim>
				</port>
			</output>
		</layer>
		<layer id="276" name="505/3D_Tile_Squeeze" type="Squeeze" version="opset1">
			<input>
				<port id="0">
					<dim>8</dim>
					<dim>16</dim>
					<dim>512</dim>
					<dim>1</dim>
				</port>
				<port id="1">
					<dim>1</dim>
				</port>
			</input>
			<output>
				<port id="2" precision="FP16">
					<dim>8</dim>
					<dim>16</dim>
					<dim>512</dim>
				</port>
			</output>
		</layer>
		<layer id="277" name="512/Cast_19907_const403_const" type="Const" version="opset1">
			<data element_type="i64" offset="16428" shape="3" size="24"/>
			<output>
				<port id="1" precision="I64">
					<dim>3</dim>
				</port>
			</output>
		</layer>
		<layer id="278" name="512" type="Reshape" version="opset1">
			<data special_zero="True"/>
			<input>
				<port id="0">
					<dim>8</dim>
					<dim>16</dim>
					<dim>512</dim>
				</port>
				<port id="1">
					<dim>3</dim>
				</port>
			</input>
			<output>
				<port id="2" precision="FP16">
					<dim>8</dim>
					<dim>16</dim>
					<dim>512</dim>
				</port>
			</output>
		</layer>
		<layer id="279" name="decoder_529/fq_weights_1/Convert_to_float/Cast_05159_const" type="Const" version="opset1">
			<data element_type="u8" offset="2385450" shape="8,64,512" size="262144"/>
			<output>
				<port id="1" precision="U8">
					<dim>8</dim>
					<dim>64</dim>
					<dim>512</dim>
				</port>
			</output>
		</layer>
		<layer id="280" name="529/fq_weights_1/Convert_to_float" type="Convert" version="opset1">
			<data destination_type="f16"/>
			<input>
				<port id="0">
					<dim>8</dim>
					<dim>64</dim>
					<dim>512</dim>
				</port>
			</input>
			<output>
				<port id="1" precision="FP16">
					<dim>8</dim>
					<dim>64</dim>
					<dim>512</dim>
				</port>
			</output>
		</layer>
		<layer id="281" name="decoder_529/fq_weights_1/Copy/out_low4589_const" type="Const" version="opset1">
			<data element_type="f16" offset="278596" shape="1" size="2"/>
			<output>
				<port id="1" precision="FP16">
					<dim>1</dim>
				</port>
			</output>
		</layer>
		<layer id="282" name="decoder_529/fq_weights_1/Copy/out_high4590_const" type="Const" version="opset1">
			<data element_type="f16" offset="278598" shape="1" size="2"/>
			<output>
				<port id="1" precision="FP16">
					<dim>1</dim>
				</port>
			</output>
		</layer>
		<layer id="283" name="10691073_const" type="Const" version="opset1">
			<data element_type="f16" offset="2647594" shape="8,1,1" size="16"/>
			<output>
				<port id="1" precision="FP16">
					<dim>8</dim>
					<dim>1</dim>
					<dim>1</dim>
				</port>
			</output>
		</layer>
		<layer id="284" name="10701074_const" type="Const" version="opset1">
			<data element_type="f16" offset="2647610" shape="8,1,1" size="16"/>
			<output>
				<port id="1" precision="FP16">
					<dim>8</dim>
					<dim>1</dim>
					<dim>1</dim>
				</port>
			</output>
		</layer>
		<layer id="285" name="529/fq_weights_1" type="FakeQuantize" version="opset1">
			<data levels="255"/>
			<input>
				<port id="0">
					<dim>8</dim>
					<dim>64</dim>
					<dim>512</dim>
				</port>
				<port id="1">
					<dim>1</dim>
				</port>
				<port id="2">
					<dim>1</dim>
				</port>
				<port id="3">
					<dim>8</dim>
					<dim>1</dim>
					<dim>1</dim>
				</port>
				<port id="4">
					<dim>8</dim>
					<dim>1</dim>
					<dim>1</dim>
				</port>
			</input>
			<output>
				<port id="5" precision="FP16">
					<dim>8</dim>
					<dim>64</dim>
					<dim>512</dim>
				</port>
			</output>
		</layer>
		<layer id="286" name="529" type="MatMul" version="opset1">
			<data transpose_a="False" transpose_b="True"/>
			<input>
				<port id="0">
					<dim>8</dim>
					<dim>16</dim>
					<dim>512</dim>
				</port>
				<port id="1">
					<dim>8</dim>
					<dim>64</dim>
					<dim>512</dim>
				</port>
			</input>
			<output>
				<port id="2" precision="FP16">
					<dim>8</dim>
					<dim>16</dim>
					<dim>64</dim>
				</port>
			</output>
		</layer>
		<layer id="287" name="26972701_const" type="Const" version="opset1">
			<data element_type="f16" offset="2647626" shape="" size="2"/>
			<output>
				<port id="1" precision="FP16"/>
			</output>
		</layer>
		<layer id="288" name="26982702_const" type="Const" version="opset1">
			<data element_type="f16" offset="2647628" shape="" size="2"/>
			<output>
				<port id="1" precision="FP16"/>
			</output>
		</layer>
		<layer id="289" name="26992703_const" type="Const" version="opset1">
			<data element_type="f16" offset="2647626" shape="" size="2"/>
			<output>
				<port id="1" precision="FP16"/>
			</output>
		</layer>
		<layer id="290" name="27002704_const" type="Const" version="opset1">
			<data element_type="f16" offset="2647628" shape="" size="2"/>
			<output>
				<port id="1" precision="FP16"/>
			</output>
		</layer>
		<layer id="291" name="536/fq_input_0" type="FakeQuantize" version="opset1">
			<data levels="256"/>
			<input>
				<port id="0">
					<dim>8</dim>
					<dim>16</dim>
					<dim>64</dim>
				</port>
				<port id="1"/>
				<port id="2"/>
				<port id="3"/>
				<port id="4"/>
			</input>
			<output>
				<port id="5" precision="FP16">
					<dim>8</dim>
					<dim>16</dim>
					<dim>64</dim>
				</port>
			</output>
		</layer>
		<layer id="292" name="536/Cast_19941_const407_const" type="Const" version="opset1">
			<data element_type="i64" offset="278636" shape="3" size="24"/>
			<output>
				<port id="1" precision="I64">
					<dim>3</dim>
				</port>
			</output>
		</layer>
		<layer id="293" name="536" type="Reshape" version="opset1">
			<data special_zero="True"/>
			<input>
				<port id="0">
					<dim>8</dim>
					<dim>16</dim>
					<dim>64</dim>
				</port>
				<port id="1">
					<dim>3</dim>
				</port>
			</input>
			<output>
				<port id="2" precision="FP16">
					<dim>8</dim>
					<dim>16</dim>
					<dim>64</dim>
				</port>
			</output>
		</layer>
		<layer id="294" name="562" type="MatMul" version="opset1">
			<data transpose_a="False" transpose_b="False"/>
			<input>
				<port id="0">
					<dim>8</dim>
					<dim>16</dim>
					<dim>16</dim>
				</port>
				<port id="1">
					<dim>8</dim>
					<dim>16</dim>
					<dim>64</dim>
				</port>
			</input>
			<output>
				<port id="2" precision="FP16">
					<dim>8</dim>
					<dim>16</dim>
					<dim>64</dim>
				</port>
			</output>
		</layer>
		<layer id="295" name="563/VariadicSplit_input_port_1/value/Output_0/Data__const410_const" type="Const" version="opset1">
			<data element_type="i64" offset="803174" shape="" size="8"/>
			<output>
				<port id="1" precision="I64"/>
			</output>
		</layer>
		<layer id="296" name="563/VariadicSplit_input_port_2/value/Output_0/Data__const411_const" type="Const" version="opset1">
			<data element_type="i64" offset="803182" shape="8" size="64"/>
			<output>
				<port id="1" precision="I64">
					<dim>8</dim>
				</port>
			</output>
		</layer>
		<layer id="297" name="563/VariadicSplit" type="VariadicSplit" version="opset1">
			<input>
				<port id="0">
					<dim>8</dim>
					<dim>16</dim>
					<dim>64</dim>
				</port>
				<port id="1"/>
				<port id="2">
					<dim>8</dim>
				</port>
			</input>
			<output>
				<port id="3" precision="FP16">
					<dim>1</dim>
					<dim>16</dim>
					<dim>64</dim>
				</port>
				<port id="4" precision="FP16">
					<dim>1</dim>
					<dim>16</dim>
					<dim>64</dim>
				</port>
				<port id="5" precision="FP16">
					<dim>1</dim>
					<dim>16</dim>
					<dim>64</dim>
				</port>
				<port id="6" precision="FP16">
					<dim>1</dim>
					<dim>16</dim>
					<dim>64</dim>
				</port>
				<port id="7" precision="FP16">
					<dim>1</dim>
					<dim>16</dim>
					<dim>64</dim>
				</port>
				<port id="8" precision="FP16">
					<dim>1</dim>
					<dim>16</dim>
					<dim>64</dim>
				</port>
				<port id="9" precision="FP16">
					<dim>1</dim>
					<dim>16</dim>
					<dim>64</dim>
				</port>
				<port id="10" precision="FP16">
					<dim>1</dim>
					<dim>16</dim>
					<dim>64</dim>
				</port>
			</output>
		</layer>
		<layer id="298" name="27072711_const" type="Const" version="opset1">
			<data element_type="f16" offset="2647630" shape="" size="2"/>
			<output>
				<port id="1" precision="FP16"/>
			</output>
		</layer>
		<layer id="299" name="27082712_const" type="Const" version="opset1">
			<data element_type="f16" offset="2647632" shape="" size="2"/>
			<output>
				<port id="1" precision="FP16"/>
			</output>
		</layer>
		<layer id="300" name="27092713_const" type="Const" version="opset1">
			<data element_type="f16" offset="2647630" shape="" size="2"/>
			<output>
				<port id="1" precision="FP16"/>
			</output>
		</layer>
		<layer id="301" name="27102714_const" type="Const" version="opset1">
			<data element_type="f16" offset="2647632" shape="" size="2"/>
			<output>
				<port id="1" precision="FP16"/>
			</output>
		</layer>
		<layer id="302" name="571/fq_input_0" type="FakeQuantize" version="opset1">
			<data levels="256"/>
			<input>
				<port id="0">
					<dim>1</dim>
					<dim>16</dim>
					<dim>64</dim>
				</port>
				<port id="1"/>
				<port id="2"/>
				<port id="3"/>
				<port id="4"/>
			</input>
			<output>
				<port id="5" precision="FP16">
					<dim>1</dim>
					<dim>16</dim>
					<dim>64</dim>
				</port>
			</output>
		</layer>
		<layer id="303" name="27172721_const" type="Const" version="opset1">
			<data element_type="f16" offset="2647634" shape="" size="2"/>
			<output>
				<port id="1" precision="FP16"/>
			</output>
		</layer>
		<layer id="304" name="27182722_const" type="Const" version="opset1">
			<data element_type="f16" offset="2647636" shape="" size="2"/>
			<output>
				<port id="1" precision="FP16"/>
			</output>
		</layer>
		<layer id="305" name="27192723_const" type="Const" version="opset1">
			<data element_type="f16" offset="2647634" shape="" size="2"/>
			<output>
				<port id="1" precision="FP16"/>
			</output>
		</layer>
		<layer id="306" name="27202724_const" type="Const" version="opset1">
			<data element_type="f16" offset="2647636" shape="" size="2"/>
			<output>
				<port id="1" precision="FP16"/>
			</output>
		</layer>
		<layer id="307" name="571/fq_input_1" type="FakeQuantize" version="opset1">
			<data levels="256"/>
			<input>
				<port id="0">
					<dim>1</dim>
					<dim>16</dim>
					<dim>64</dim>
				</port>
				<port id="1"/>
				<port id="2"/>
				<port id="3"/>
				<port id="4"/>
			</input>
			<output>
				<port id="5" precision="FP16">
					<dim>1</dim>
					<dim>16</dim>
					<dim>64</dim>
				</port>
			</output>
		</layer>
		<layer id="308" name="27272731_const" type="Const" version="opset1">
			<data element_type="f16" offset="2647638" shape="" size="2"/>
			<output>
				<port id="1" precision="FP16"/>
			</output>
		</layer>
		<layer id="309" name="27282732_const" type="Const" version="opset1">
			<data element_type="f16" offset="2647640" shape="" size="2"/>
			<output>
				<port id="1" precision="FP16"/>
			</output>
		</layer>
		<layer id="310" name="27292733_const" type="Const" version="opset1">
			<data element_type="f16" offset="2647638" shape="" size="2"/>
			<output>
				<port id="1" precision="FP16"/>
			</output>
		</layer>
		<layer id="311" name="27302734_const" type="Const" version="opset1">
			<data element_type="f16" offset="2647640" shape="" size="2"/>
			<output>
				<port id="1" precision="FP16"/>
			</output>
		</layer>
		<layer id="312" name="571/fq_input_2" type="FakeQuantize" version="opset1">
			<data levels="256"/>
			<input>
				<port id="0">
					<dim>1</dim>
					<dim>16</dim>
					<dim>64</dim>
				</port>
				<port id="1"/>
				<port id="2"/>
				<port id="3"/>
				<port id="4"/>
			</input>
			<output>
				<port id="5" precision="FP16">
					<dim>1</dim>
					<dim>16</dim>
					<dim>64</dim>
				</port>
			</output>
		</layer>
		<layer id="313" name="27372741_const" type="Const" version="opset1">
			<data element_type="f16" offset="2647642" shape="" size="2"/>
			<output>
				<port id="1" precision="FP16"/>
			</output>
		</layer>
		<layer id="314" name="27382742_const" type="Const" version="opset1">
			<data element_type="f16" offset="2647644" shape="" size="2"/>
			<output>
				<port id="1" precision="FP16"/>
			</output>
		</layer>
		<layer id="315" name="27392743_const" type="Const" version="opset1">
			<data element_type="f16" offset="2647642" shape="" size="2"/>
			<output>
				<port id="1" precision="FP16"/>
			</output>
		</layer>
		<layer id="316" name="27402744_const" type="Const" version="opset1">
			<data element_type="f16" offset="2647644" shape="" size="2"/>
			<output>
				<port id="1" precision="FP16"/>
			</output>
		</layer>
		<layer id="317" name="571/fq_input_3" type="FakeQuantize" version="opset1">
			<data levels="256"/>
			<input>
				<port id="0">
					<dim>1</dim>
					<dim>16</dim>
					<dim>64</dim>
				</port>
				<port id="1"/>
				<port id="2"/>
				<port id="3"/>
				<port id="4"/>
			</input>
			<output>
				<port id="5" precision="FP16">
					<dim>1</dim>
					<dim>16</dim>
					<dim>64</dim>
				</port>
			</output>
		</layer>
		<layer id="318" name="27472751_const" type="Const" version="opset1">
			<data element_type="f16" offset="2647646" shape="" size="2"/>
			<output>
				<port id="1" precision="FP16"/>
			</output>
		</layer>
		<layer id="319" name="27482752_const" type="Const" version="opset1">
			<data element_type="f16" offset="2647648" shape="" size="2"/>
			<output>
				<port id="1" precision="FP16"/>
			</output>
		</layer>
		<layer id="320" name="27492753_const" type="Const" version="opset1">
			<data element_type="f16" offset="2647646" shape="" size="2"/>
			<output>
				<port id="1" precision="FP16"/>
			</output>
		</layer>
		<layer id="321" name="27502754_const" type="Const" version="opset1">
			<data element_type="f16" offset="2647648" shape="" size="2"/>
			<output>
				<port id="1" precision="FP16"/>
			</output>
		</layer>
		<layer id="322" name="571/fq_input_4" type="FakeQuantize" version="opset1">
			<data levels="256"/>
			<input>
				<port id="0">
					<dim>1</dim>
					<dim>16</dim>
					<dim>64</dim>
				</port>
				<port id="1"/>
				<port id="2"/>
				<port id="3"/>
				<port id="4"/>
			</input>
			<output>
				<port id="5" precision="FP16">
					<dim>1</dim>
					<dim>16</dim>
					<dim>64</dim>
				</port>
			</output>
		</layer>
		<layer id="323" name="27572761_const" type="Const" version="opset1">
			<data element_type="f16" offset="2647650" shape="" size="2"/>
			<output>
				<port id="1" precision="FP16"/>
			</output>
		</layer>
		<layer id="324" name="27582762_const" type="Const" version="opset1">
			<data element_type="f16" offset="2647652" shape="" size="2"/>
			<output>
				<port id="1" precision="FP16"/>
			</output>
		</layer>
		<layer id="325" name="27592763_const" type="Const" version="opset1">
			<data element_type="f16" offset="2647650" shape="" size="2"/>
			<output>
				<port id="1" precision="FP16"/>
			</output>
		</layer>
		<layer id="326" name="27602764_const" type="Const" version="opset1">
			<data element_type="f16" offset="2647652" shape="" size="2"/>
			<output>
				<port id="1" precision="FP16"/>
			</output>
		</layer>
		<layer id="327" name="571/fq_input_5" type="FakeQuantize" version="opset1">
			<data levels="256"/>
			<input>
				<port id="0">
					<dim>1</dim>
					<dim>16</dim>
					<dim>64</dim>
				</port>
				<port id="1"/>
				<port id="2"/>
				<port id="3"/>
				<port id="4"/>
			</input>
			<output>
				<port id="5" precision="FP16">
					<dim>1</dim>
					<dim>16</dim>
					<dim>64</dim>
				</port>
			</output>
		</layer>
		<layer id="328" name="27672771_const" type="Const" version="opset1">
			<data element_type="f16" offset="2647654" shape="" size="2"/>
			<output>
				<port id="1" precision="FP16"/>
			</output>
		</layer>
		<layer id="329" name="27682772_const" type="Const" version="opset1">
			<data element_type="f16" offset="2647656" shape="" size="2"/>
			<output>
				<port id="1" precision="FP16"/>
			</output>
		</layer>
		<layer id="330" name="27692773_const" type="Const" version="opset1">
			<data element_type="f16" offset="2647654" shape="" size="2"/>
			<output>
				<port id="1" precision="FP16"/>
			</output>
		</layer>
		<layer id="331" name="27702774_const" type="Const" version="opset1">
			<data element_type="f16" offset="2647656" shape="" size="2"/>
			<output>
				<port id="1" precision="FP16"/>
			</output>
		</layer>
		<layer id="332" name="571/fq_input_6" type="FakeQuantize" version="opset1">
			<data levels="256"/>
			<input>
				<port id="0">
					<dim>1</dim>
					<dim>16</dim>
					<dim>64</dim>
				</port>
				<port id="1"/>
				<port id="2"/>
				<port id="3"/>
				<port id="4"/>
			</input>
			<output>
				<port id="5" precision="FP16">
					<dim>1</dim>
					<dim>16</dim>
					<dim>64</dim>
				</port>
			</output>
		</layer>
		<layer id="333" name="27772781_const" type="Const" version="opset1">
			<data element_type="f16" offset="2647658" shape="" size="2"/>
			<output>
				<port id="1" precision="FP16"/>
			</output>
		</layer>
		<layer id="334" name="27782782_const" type="Const" version="opset1">
			<data element_type="f16" offset="2647660" shape="" size="2"/>
			<output>
				<port id="1" precision="FP16"/>
			</output>
		</layer>
		<layer id="335" name="27792783_const" type="Const" version="opset1">
			<data element_type="f16" offset="2647658" shape="" size="2"/>
			<output>
				<port id="1" precision="FP16"/>
			</output>
		</layer>
		<layer id="336" name="27802784_const" type="Const" version="opset1">
			<data element_type="f16" offset="2647660" shape="" size="2"/>
			<output>
				<port id="1" precision="FP16"/>
			</output>
		</layer>
		<layer id="337" name="571/fq_input_7" type="FakeQuantize" version="opset1">
			<data levels="256"/>
			<input>
				<port id="0">
					<dim>1</dim>
					<dim>16</dim>
					<dim>64</dim>
				</port>
				<port id="1"/>
				<port id="2"/>
				<port id="3"/>
				<port id="4"/>
			</input>
			<output>
				<port id="5" precision="FP16">
					<dim>1</dim>
					<dim>16</dim>
					<dim>64</dim>
				</port>
			</output>
		</layer>
		<layer id="338" name="571" type="Concat" version="opset1">
			<data axis="2"/>
			<input>
				<port id="0">
					<dim>1</dim>
					<dim>16</dim>
					<dim>64</dim>
				</port>
				<port id="1">
					<dim>1</dim>
					<dim>16</dim>
					<dim>64</dim>
				</port>
				<port id="2">
					<dim>1</dim>
					<dim>16</dim>
					<dim>64</dim>
				</port>
				<port id="3">
					<dim>1</dim>
					<dim>16</dim>
					<dim>64</dim>
				</port>
				<port id="4">
					<dim>1</dim>
					<dim>16</dim>
					<dim>64</dim>
				</port>
				<port id="5">
					<dim>1</dim>
					<dim>16</dim>
					<dim>64</dim>
				</port>
				<port id="6">
					<dim>1</dim>
					<dim>16</dim>
					<dim>64</dim>
				</port>
				<port id="7">
					<dim>1</dim>
					<dim>16</dim>
					<dim>64</dim>
				</port>
			</input>
			<output>
				<port id="8" precision="FP16">
					<dim>1</dim>
					<dim>16</dim>
					<dim>512</dim>
				</port>
			</output>
		</layer>
		<layer id="339" name="574" type="Add" version="opset1">
			<input>
				<port id="0">
					<dim>1</dim>
					<dim>16</dim>
					<dim>512</dim>
				</port>
				<port id="1">
					<dim>1</dim>
					<dim>16</dim>
					<dim>512</dim>
				</port>
			</input>
			<output>
				<port id="2" precision="FP16">
					<dim>1</dim>
					<dim>16</dim>
					<dim>512</dim>
				</port>
			</output>
		</layer>
		<layer id="340" name="27872791_const" type="Const" version="opset1">
			<data element_type="f16" offset="2647662" shape="" size="2"/>
			<output>
				<port id="1" precision="FP16"/>
			</output>
		</layer>
		<layer id="341" name="27882792_const" type="Const" version="opset1">
			<data element_type="f16" offset="2647664" shape="" size="2"/>
			<output>
				<port id="1" precision="FP16"/>
			</output>
		</layer>
		<layer id="342" name="27892793_const" type="Const" version="opset1">
			<data element_type="f16" offset="2647662" shape="" size="2"/>
			<output>
				<port id="1" precision="FP16"/>
			</output>
		</layer>
		<layer id="343" name="27902794_const" type="Const" version="opset1">
			<data element_type="f16" offset="2647664" shape="" size="2"/>
			<output>
				<port id="1" precision="FP16"/>
			</output>
		</layer>
		<layer id="344" name="575/fq_input_0" type="FakeQuantize" version="opset1">
			<data levels="256"/>
			<input>
				<port id="0">
					<dim>1</dim>
					<dim>16</dim>
					<dim>512</dim>
				</port>
				<port id="1"/>
				<port id="2"/>
				<port id="3"/>
				<port id="4"/>
			</input>
			<output>
				<port id="5" precision="FP16">
					<dim>1</dim>
					<dim>16</dim>
					<dim>512</dim>
				</port>
			</output>
		</layer>
		<layer id="345" name="decoder_575/Cast_15155_const" type="Const" version="opset1">
			<data element_type="i64" offset="540840" shape="3" size="24"/>
			<output>
				<port id="1" precision="I64">
					<dim>3</dim>
				</port>
			</output>
		</layer>
		<layer id="346" name="575" type="Transpose" version="opset1">
			<input>
				<port id="0">
					<dim>1</dim>
					<dim>16</dim>
					<dim>512</dim>
				</port>
				<port id="1">
					<dim>3</dim>
				</port>
			</input>
			<output>
				<port id="2" precision="FP16">
					<dim>1</dim>
					<dim>512</dim>
					<dim>16</dim>
				</port>
			</output>
		</layer>
		<layer id="347" name="decoder_576/WithoutBiases/fq_weights_1/Convert_to_float/Cast_05163_const" type="Const" version="opset1">
			<data element_type="u8" offset="2647666" shape="1024,512,1" size="524288"/>
			<output>
				<port id="1" precision="U8">
					<dim>1024</dim>
					<dim>512</dim>
					<dim>1</dim>
				</port>
			</output>
		</layer>
		<layer id="348" name="576/WithoutBiases/fq_weights_1/Convert_to_float" type="Convert" version="opset1">
			<data destination_type="f16"/>
			<input>
				<port id="0">
					<dim>1024</dim>
					<dim>512</dim>
					<dim>1</dim>
				</port>
			</input>
			<output>
				<port id="1" precision="FP16">
					<dim>1024</dim>
					<dim>512</dim>
					<dim>1</dim>
				</port>
			</output>
		</layer>
		<layer id="349" name="decoder_576/WithoutBiases/fq_weights_1/Copy/out_low4429_const" type="Const" version="opset1">
			<data element_type="f16" offset="278596" shape="1" size="2"/>
			<output>
				<port id="1" precision="FP16">
					<dim>1</dim>
				</port>
			</output>
		</layer>
		<layer id="350" name="decoder_576/WithoutBiases/fq_weights_1/Copy/out_high4430_const" type="Const" version="opset1">
			<data element_type="f16" offset="278598" shape="1" size="2"/>
			<output>
				<port id="1" precision="FP16">
					<dim>1</dim>
				</port>
			</output>
		</layer>
		<layer id="351" name="989993_const" type="Const" version="opset1">
			<data element_type="f16" offset="3171954" shape="1024,1,1" size="2048"/>
			<output>
				<port id="1" precision="FP16">
					<dim>1024</dim>
					<dim>1</dim>
					<dim>1</dim>
				</port>
			</output>
		</layer>
		<layer id="352" name="990994_const" type="Const" version="opset1">
			<data element_type="f16" offset="3174002" shape="1024,1,1" size="2048"/>
			<output>
				<port id="1" precision="FP16">
					<dim>1024</dim>
					<dim>1</dim>
					<dim>1</dim>
				</port>
			</output>
		</layer>
		<layer id="353" name="576/WithoutBiases/fq_weights_1" type="FakeQuantize" version="opset1">
			<data levels="255"/>
			<input>
				<port id="0">
					<dim>1024</dim>
					<dim>512</dim>
					<dim>1</dim>
				</port>
				<port id="1">
					<dim>1</dim>
				</port>
				<port id="2">
					<dim>1</dim>
				</port>
				<port id="3">
					<dim>1024</dim>
					<dim>1</dim>
					<dim>1</dim>
				</port>
				<port id="4">
					<dim>1024</dim>
					<dim>1</dim>
					<dim>1</dim>
				</port>
			</input>
			<output>
				<port id="5" precision="FP16">
					<dim>1024</dim>
					<dim>512</dim>
					<dim>1</dim>
				</port>
			</output>
		</layer>
		<layer id="354" name="576/WithoutBiases" type="Convolution" version="opset1">
			<data dilations="1" output_padding="0" pads_begin="0" pads_end="0" strides="1"/>
			<input>
				<port id="0">
					<dim>1</dim>
					<dim>512</dim>
					<dim>16</dim>
				</port>
				<port id="1">
					<dim>1024</dim>
					<dim>512</dim>
					<dim>1</dim>
				</port>
			</input>
			<output>
				<port id="2" precision="FP16">
					<dim>1</dim>
					<dim>1024</dim>
					<dim>16</dim>
				</port>
			</output>
		</layer>
		<layer id="355" name="576/Dims3643/copy_const426_const" type="Const" version="opset1">
			<data element_type="f16" offset="3176050" shape="1,1024,1" size="2048"/>
			<output>
				<port id="1" precision="FP16">
					<dim>1</dim>
					<dim>1024</dim>
					<dim>1</dim>
				</port>
			</output>
		</layer>
		<layer id="356" name="576" type="Add" version="opset1">
			<input>
				<port id="0">
					<dim>1</dim>
					<dim>1024</dim>
					<dim>16</dim>
				</port>
				<port id="1">
					<dim>1</dim>
					<dim>1024</dim>
					<dim>1</dim>
				</port>
			</input>
			<output>
				<port id="2" precision="FP16">
					<dim>1</dim>
					<dim>1024</dim>
					<dim>16</dim>
				</port>
			</output>
		</layer>
		<layer id="357" name="577" type="ReLU" version="opset1">
			<input>
				<port id="0">
					<dim>1</dim>
					<dim>1024</dim>
					<dim>16</dim>
				</port>
			</input>
			<output>
				<port id="1" precision="FP16">
					<dim>1</dim>
					<dim>1024</dim>
					<dim>16</dim>
				</port>
			</output>
		</layer>
		<layer id="358" name="16471651_const" type="Const" version="opset1">
			<data element_type="f16" offset="278596" shape="" size="2"/>
			<output>
				<port id="1" precision="FP16"/>
			</output>
		</layer>
		<layer id="359" name="16481652_const" type="Const" version="opset1">
			<data element_type="f16" offset="3178098" shape="" size="2"/>
			<output>
				<port id="1" precision="FP16"/>
			</output>
		</layer>
		<layer id="360" name="16491653_const" type="Const" version="opset1">
			<data element_type="f16" offset="278596" shape="" size="2"/>
			<output>
				<port id="1" precision="FP16"/>
			</output>
		</layer>
		<layer id="361" name="16501654_const" type="Const" version="opset1">
			<data element_type="f16" offset="3178098" shape="" size="2"/>
			<output>
				<port id="1" precision="FP16"/>
			</output>
		</layer>
		<layer id="362" name="578/WithoutBiases/fq_input_0" type="FakeQuantize" version="opset1">
			<data levels="256"/>
			<input>
				<port id="0">
					<dim>1</dim>
					<dim>1024</dim>
					<dim>16</dim>
				</port>
				<port id="1"/>
				<port id="2"/>
				<port id="3"/>
				<port id="4"/>
			</input>
			<output>
				<port id="5" precision="FP16">
					<dim>1</dim>
					<dim>1024</dim>
					<dim>16</dim>
				</port>
			</output>
		</layer>
		<layer id="363" name="decoder_578/WithoutBiases/fq_weights_1/Convert_to_float/Cast_05157_const" type="Const" version="opset1">
			<data element_type="u8" offset="3178100" shape="512,1024,1" size="524288"/>
			<output>
				<port id="1" precision="U8">
					<dim>512</dim>
					<dim>1024</dim>
					<dim>1</dim>
				</port>
			</output>
		</layer>
		<layer id="364" name="578/WithoutBiases/fq_weights_1/Convert_to_float" type="Convert" version="opset1">
			<data destination_type="f16"/>
			<input>
				<port id="0">
					<dim>512</dim>
					<dim>1024</dim>
					<dim>1</dim>
				</port>
			</input>
			<output>
				<port id="1" precision="FP16">
					<dim>512</dim>
					<dim>1024</dim>
					<dim>1</dim>
				</port>
			</output>
		</layer>
		<layer id="365" name="decoder_578/WithoutBiases/fq_weights_1/Copy/out_low4573_const" type="Const" version="opset1">
			<data element_type="f16" offset="278596" shape="1" size="2"/>
			<output>
				<port id="1" precision="FP16">
					<dim>1</dim>
				</port>
			</output>
		</layer>
		<layer id="366" name="decoder_578/WithoutBiases/fq_weights_1/Copy/out_high4574_const" type="Const" version="opset1">
			<data element_type="f16" offset="278598" shape="1" size="2"/>
			<output>
				<port id="1" precision="FP16">
					<dim>1</dim>
				</port>
			</output>
		</layer>
		<layer id="367" name="16591663_const" type="Const" version="opset1">
			<data element_type="f16" offset="3702388" shape="512,1,1" size="1024"/>
			<output>
				<port id="1" precision="FP16">
					<dim>512</dim>
					<dim>1</dim>
					<dim>1</dim>
				</port>
			</output>
		</layer>
		<layer id="368" name="16601664_const" type="Const" version="opset1">
			<data element_type="f16" offset="3703412" shape="512,1,1" size="1024"/>
			<output>
				<port id="1" precision="FP16">
					<dim>512</dim>
					<dim>1</dim>
					<dim>1</dim>
				</port>
			</output>
		</layer>
		<layer id="369" name="578/WithoutBiases/fq_weights_1" type="FakeQuantize" version="opset1">
			<data levels="255"/>
			<input>
				<port id="0">
					<dim>512</dim>
					<dim>1024</dim>
					<dim>1</dim>
				</port>
				<port id="1">
					<dim>1</dim>
				</port>
				<port id="2">
					<dim>1</dim>
				</port>
				<port id="3">
					<dim>512</dim>
					<dim>1</dim>
					<dim>1</dim>
				</port>
				<port id="4">
					<dim>512</dim>
					<dim>1</dim>
					<dim>1</dim>
				</port>
			</input>
			<output>
				<port id="5" precision="FP16">
					<dim>512</dim>
					<dim>1024</dim>
					<dim>1</dim>
				</port>
			</output>
		</layer>
		<layer id="370" name="578/WithoutBiases" type="Convolution" version="opset1">
			<data dilations="1" output_padding="0" pads_begin="0" pads_end="0" strides="1"/>
			<input>
				<port id="0">
					<dim>1</dim>
					<dim>1024</dim>
					<dim>16</dim>
				</port>
				<port id="1">
					<dim>512</dim>
					<dim>1024</dim>
					<dim>1</dim>
				</port>
			</input>
			<output>
				<port id="2" precision="FP16">
					<dim>1</dim>
					<dim>512</dim>
					<dim>16</dim>
				</port>
			</output>
		</layer>
		<layer id="371" name="578/Dims3637/copy_const431_const" type="Const" version="opset1">
			<data element_type="f16" offset="3704436" shape="1,512,1" size="1024"/>
			<output>
				<port id="1" precision="FP16">
					<dim>1</dim>
					<dim>512</dim>
					<dim>1</dim>
				</port>
			</output>
		</layer>
		<layer id="372" name="578" type="Add" version="opset1">
			<input>
				<port id="0">
					<dim>1</dim>
					<dim>512</dim>
					<dim>16</dim>
				</port>
				<port id="1">
					<dim>1</dim>
					<dim>512</dim>
					<dim>1</dim>
				</port>
			</input>
			<output>
				<port id="2" precision="FP16">
					<dim>1</dim>
					<dim>512</dim>
					<dim>16</dim>
				</port>
			</output>
		</layer>
		<layer id="373" name="27972801_const" type="Const" version="opset1">
			<data element_type="f16" offset="3705460" shape="" size="2"/>
			<output>
				<port id="1" precision="FP16"/>
			</output>
		</layer>
		<layer id="374" name="27982802_const" type="Const" version="opset1">
			<data element_type="f16" offset="3705462" shape="" size="2"/>
			<output>
				<port id="1" precision="FP16"/>
			</output>
		</layer>
		<layer id="375" name="27992803_const" type="Const" version="opset1">
			<data element_type="f16" offset="3705460" shape="" size="2"/>
			<output>
				<port id="1" precision="FP16"/>
			</output>
		</layer>
		<layer id="376" name="28002804_const" type="Const" version="opset1">
			<data element_type="f16" offset="3705462" shape="" size="2"/>
			<output>
				<port id="1" precision="FP16"/>
			</output>
		</layer>
		<layer id="377" name="579/fq_input_0" type="FakeQuantize" version="opset1">
			<data levels="256"/>
			<input>
				<port id="0">
					<dim>1</dim>
					<dim>512</dim>
					<dim>16</dim>
				</port>
				<port id="1"/>
				<port id="2"/>
				<port id="3"/>
				<port id="4"/>
			</input>
			<output>
				<port id="5" precision="FP16">
					<dim>1</dim>
					<dim>512</dim>
					<dim>16</dim>
				</port>
			</output>
		</layer>
		<layer id="378" name="decoder_579/Cast_15207_const" type="Const" version="opset1">
			<data element_type="i64" offset="540840" shape="3" size="24"/>
			<output>
				<port id="1" precision="I64">
					<dim>3</dim>
				</port>
			</output>
		</layer>
		<layer id="379" name="579" type="Transpose" version="opset1">
			<input>
				<port id="0">
					<dim>1</dim>
					<dim>512</dim>
					<dim>16</dim>
				</port>
				<port id="1">
					<dim>3</dim>
				</port>
			</input>
			<output>
				<port id="2" precision="FP16">
					<dim>1</dim>
					<dim>16</dim>
					<dim>512</dim>
				</port>
			</output>
		</layer>
		<layer id="380" name="582" type="Add" version="opset1">
			<input>
				<port id="0">
					<dim>1</dim>
					<dim>16</dim>
					<dim>512</dim>
				</port>
				<port id="1">
					<dim>1</dim>
					<dim>16</dim>
					<dim>512</dim>
				</port>
			</input>
			<output>
				<port id="2" precision="FP16">
					<dim>1</dim>
					<dim>16</dim>
					<dim>512</dim>
				</port>
			</output>
		</layer>
		<layer id="381" name="28372841_const" type="Const" version="opset1">
			<data element_type="f16" offset="3705464" shape="" size="2"/>
			<output>
				<port id="1" precision="FP16"/>
			</output>
		</layer>
		<layer id="382" name="28382842_const" type="Const" version="opset1">
			<data element_type="f16" offset="3705466" shape="" size="2"/>
			<output>
				<port id="1" precision="FP16"/>
			</output>
		</layer>
		<layer id="383" name="28392843_const" type="Const" version="opset1">
			<data element_type="f16" offset="3705464" shape="" size="2"/>
			<output>
				<port id="1" precision="FP16"/>
			</output>
		</layer>
		<layer id="384" name="28402844_const" type="Const" version="opset1">
			<data element_type="f16" offset="3705466" shape="" size="2"/>
			<output>
				<port id="1" precision="FP16"/>
			</output>
		</layer>
		<layer id="385" name="596/3D_Tile_Unsqueeze/fq_input_0" type="FakeQuantize" version="opset1">
			<data levels="256"/>
			<input>
				<port id="0">
					<dim>1</dim>
					<dim>16</dim>
					<dim>512</dim>
				</port>
				<port id="1"/>
				<port id="2"/>
				<port id="3"/>
				<port id="4"/>
			</input>
			<output>
				<port id="5" precision="FP16">
					<dim>1</dim>
					<dim>16</dim>
					<dim>512</dim>
				</port>
			</output>
		</layer>
		<layer id="386" name="596/3D_Tile_Unsqueeze_dim6738_const436_const" type="Const" version="opset1">
			<data element_type="i64" offset="16388" shape="1" size="8"/>
			<output>
				<port id="1" precision="I64">
					<dim>1</dim>
				</port>
			</output>
		</layer>
		<layer id="387" name="596/3D_Tile_Unsqueeze" type="Unsqueeze" version="opset1">
			<input>
				<port id="0">
					<dim>1</dim>
					<dim>16</dim>
					<dim>512</dim>
				</port>
				<port id="1">
					<dim>1</dim>
				</port>
			</input>
			<output>
				<port id="2" precision="FP16">
					<dim>1</dim>
					<dim>16</dim>
					<dim>512</dim>
					<dim>1</dim>
				</port>
			</output>
		</layer>
		<layer id="388" name="67406742_const438_const" type="Const" version="opset1">
			<data element_type="i64" offset="16396" shape="4" size="32"/>
			<output>
				<port id="1" precision="I64">
					<dim>4</dim>
				</port>
			</output>
		</layer>
		<layer id="389" name="596" type="Tile" version="opset1">
			<input>
				<port id="0">
					<dim>1</dim>
					<dim>16</dim>
					<dim>512</dim>
					<dim>1</dim>
				</port>
				<port id="1">
					<dim>4</dim>
				</port>
			</input>
			<output>
				<port id="2" precision="FP16">
					<dim>8</dim>
					<dim>16</dim>
					<dim>512</dim>
					<dim>1</dim>
				</port>
			</output>
		</layer>
		<layer id="390" name="596/3D_Tile_Squeeze_dim6745_const440_const" type="Const" version="opset1">
			<data element_type="i64" offset="16388" shape="1" size="8"/>
			<output>
				<port id="1" precision="I64">
					<dim>1</dim>
				</port>
			</output>
		</layer>
		<layer id="391" name="596/3D_Tile_Squeeze" type="Squeeze" version="opset1">
			<input>
				<port id="0">
					<dim>8</dim>
					<dim>16</dim>
					<dim>512</dim>
					<dim>1</dim>
				</port>
				<port id="1">
					<dim>1</dim>
				</port>
			</input>
			<output>
				<port id="2" precision="FP16">
					<dim>8</dim>
					<dim>16</dim>
					<dim>512</dim>
				</port>
			</output>
		</layer>
		<layer id="392" name="603/Cast_19895_const442_const" type="Const" version="opset1">
			<data element_type="i64" offset="16428" shape="3" size="24"/>
			<output>
				<port id="1" precision="I64">
					<dim>3</dim>
				</port>
			</output>
		</layer>
		<layer id="393" name="603" type="Reshape" version="opset1">
			<data special_zero="True"/>
			<input>
				<port id="0">
					<dim>8</dim>
					<dim>16</dim>
					<dim>512</dim>
				</port>
				<port id="1">
					<dim>3</dim>
				</port>
			</input>
			<output>
				<port id="2" precision="FP16">
					<dim>8</dim>
					<dim>16</dim>
					<dim>512</dim>
				</port>
			</output>
		</layer>
		<layer id="394" name="decoder_622/fq_weights_1/Convert_to_float/Cast_05169_const" type="Const" version="opset1">
			<data element_type="u8" offset="3705468" shape="8,64,512" size="262144"/>
			<output>
				<port id="1" precision="U8">
					<dim>8</dim>
					<dim>64</dim>
					<dim>512</dim>
				</port>
			</output>
		</layer>
		<layer id="395" name="622/fq_weights_1/Convert_to_float" type="Convert" version="opset1">
			<data destination_type="f16"/>
			<input>
				<port id="0">
					<dim>8</dim>
					<dim>64</dim>
					<dim>512</dim>
				</port>
			</input>
			<output>
				<port id="1" precision="FP16">
					<dim>8</dim>
					<dim>64</dim>
					<dim>512</dim>
				</port>
			</output>
		</layer>
		<layer id="396" name="decoder_622/fq_weights_1/Copy/out_low4493_const" type="Const" version="opset1">
			<data element_type="f16" offset="278596" shape="1" size="2"/>
			<output>
				<port id="1" precision="FP16">
					<dim>1</dim>
				</port>
			</output>
		</layer>
		<layer id="397" name="decoder_622/fq_weights_1/Copy/out_high4494_const" type="Const" version="opset1">
			<data element_type="f16" offset="278598" shape="1" size="2"/>
			<output>
				<port id="1" precision="FP16">
					<dim>1</dim>
				</port>
			</output>
		</layer>
		<layer id="398" name="15791583_const" type="Const" version="opset1">
			<data element_type="f16" offset="3967612" shape="8,1,1" size="16"/>
			<output>
				<port id="1" precision="FP16">
					<dim>8</dim>
					<dim>1</dim>
					<dim>1</dim>
				</port>
			</output>
		</layer>
		<layer id="399" name="15801584_const" type="Const" version="opset1">
			<data element_type="f16" offset="3967628" shape="8,1,1" size="16"/>
			<output>
				<port id="1" precision="FP16">
					<dim>8</dim>
					<dim>1</dim>
					<dim>1</dim>
				</port>
			</output>
		</layer>
		<layer id="400" name="622/fq_weights_1" type="FakeQuantize" version="opset1">
			<data levels="255"/>
			<input>
				<port id="0">
					<dim>8</dim>
					<dim>64</dim>
					<dim>512</dim>
				</port>
				<port id="1">
					<dim>1</dim>
				</port>
				<port id="2">
					<dim>1</dim>
				</port>
				<port id="3">
					<dim>8</dim>
					<dim>1</dim>
					<dim>1</dim>
				</port>
				<port id="4">
					<dim>8</dim>
					<dim>1</dim>
					<dim>1</dim>
				</port>
			</input>
			<output>
				<port id="5" precision="FP16">
					<dim>8</dim>
					<dim>64</dim>
					<dim>512</dim>
				</port>
			</output>
		</layer>
		<layer id="401" name="622" type="MatMul" version="opset1">
			<data transpose_a="False" transpose_b="True"/>
			<input>
				<port id="0">
					<dim>8</dim>
					<dim>16</dim>
					<dim>512</dim>
				</port>
				<port id="1">
					<dim>8</dim>
					<dim>64</dim>
					<dim>512</dim>
				</port>
			</input>
			<output>
				<port id="2" precision="FP16">
					<dim>8</dim>
					<dim>16</dim>
					<dim>64</dim>
				</port>
			</output>
		</layer>
		<layer id="402" name="29272931_const" type="Const" version="opset1">
			<data element_type="f16" offset="3967644" shape="" size="2"/>
			<output>
				<port id="1" precision="FP16"/>
			</output>
		</layer>
		<layer id="403" name="29282932_const" type="Const" version="opset1">
			<data element_type="f16" offset="3967646" shape="" size="2"/>
			<output>
				<port id="1" precision="FP16"/>
			</output>
		</layer>
		<layer id="404" name="29292933_const" type="Const" version="opset1">
			<data element_type="f16" offset="3967644" shape="" size="2"/>
			<output>
				<port id="1" precision="FP16"/>
			</output>
		</layer>
		<layer id="405" name="29302934_const" type="Const" version="opset1">
			<data element_type="f16" offset="3967646" shape="" size="2"/>
			<output>
				<port id="1" precision="FP16"/>
			</output>
		</layer>
		<layer id="406" name="629/fq_input_0" type="FakeQuantize" version="opset1">
			<data levels="256"/>
			<input>
				<port id="0">
					<dim>8</dim>
					<dim>16</dim>
					<dim>64</dim>
				</port>
				<port id="1"/>
				<port id="2"/>
				<port id="3"/>
				<port id="4"/>
			</input>
			<output>
				<port id="5" precision="FP16">
					<dim>8</dim>
					<dim>16</dim>
					<dim>64</dim>
				</port>
			</output>
		</layer>
		<layer id="407" name="629/Cast_19917_const446_const" type="Const" version="opset1">
			<data element_type="i64" offset="278636" shape="3" size="24"/>
			<output>
				<port id="1" precision="I64">
					<dim>3</dim>
				</port>
			</output>
		</layer>
		<layer id="408" name="629" type="Reshape" version="opset1">
			<data special_zero="True"/>
			<input>
				<port id="0">
					<dim>8</dim>
					<dim>16</dim>
					<dim>64</dim>
				</port>
				<port id="1">
					<dim>3</dim>
				</port>
			</input>
			<output>
				<port id="2" precision="FP16">
					<dim>8</dim>
					<dim>16</dim>
					<dim>64</dim>
				</port>
			</output>
		</layer>
		<layer id="409" name="605/3D_Tile_Unsqueeze_dim6654_const448_const" type="Const" version="opset1">
			<data element_type="i64" offset="16388" shape="1" size="8"/>
			<output>
				<port id="1" precision="I64">
					<dim>1</dim>
				</port>
			</output>
		</layer>
		<layer id="410" name="605/3D_Tile_Unsqueeze" type="Unsqueeze" version="opset1">
			<input>
				<port id="0">
					<dim>1</dim>
					<dim>16</dim>
					<dim>512</dim>
				</port>
				<port id="1">
					<dim>1</dim>
				</port>
			</input>
			<output>
				<port id="2" precision="FP16">
					<dim>1</dim>
					<dim>16</dim>
					<dim>512</dim>
					<dim>1</dim>
				</port>
			</output>
		</layer>
		<layer id="411" name="66566658_const450_const" type="Const" version="opset1">
			<data element_type="i64" offset="16396" shape="4" size="32"/>
			<output>
				<port id="1" precision="I64">
					<dim>4</dim>
				</port>
			</output>
		</layer>
		<layer id="412" name="605" type="Tile" version="opset1">
			<input>
				<port id="0">
					<dim>1</dim>
					<dim>16</dim>
					<dim>512</dim>
					<dim>1</dim>
				</port>
				<port id="1">
					<dim>4</dim>
				</port>
			</input>
			<output>
				<port id="2" precision="FP16">
					<dim>8</dim>
					<dim>16</dim>
					<dim>512</dim>
					<dim>1</dim>
				</port>
			</output>
		</layer>
		<layer id="413" name="605/3D_Tile_Squeeze_dim6661_const452_const" type="Const" version="opset1">
			<data element_type="i64" offset="16388" shape="1" size="8"/>
			<output>
				<port id="1" precision="I64">
					<dim>1</dim>
				</port>
			</output>
		</layer>
		<layer id="414" name="605/3D_Tile_Squeeze" type="Squeeze" version="opset1">
			<input>
				<port id="0">
					<dim>8</dim>
					<dim>16</dim>
					<dim>512</dim>
					<dim>1</dim>
				</port>
				<port id="1">
					<dim>1</dim>
				</port>
			</input>
			<output>
				<port id="2" precision="FP16">
					<dim>8</dim>
					<dim>16</dim>
					<dim>512</dim>
				</port>
			</output>
		</layer>
		<layer id="415" name="612/Cast_19887_const454_const" type="Const" version="opset1">
			<data element_type="i64" offset="16428" shape="3" size="24"/>
			<output>
				<port id="1" precision="I64">
					<dim>3</dim>
				</port>
			</output>
		</layer>
		<layer id="416" name="612" type="Reshape" version="opset1">
			<data special_zero="True"/>
			<input>
				<port id="0">
					<dim>8</dim>
					<dim>16</dim>
					<dim>512</dim>
				</port>
				<port id="1">
					<dim>3</dim>
				</port>
			</input>
			<output>
				<port id="2" precision="FP16">
					<dim>8</dim>
					<dim>16</dim>
					<dim>512</dim>
				</port>
			</output>
		</layer>
		<layer id="417" name="decoder_630/fq_weights_1/Convert_to_float/Cast_05161_const" type="Const" version="opset1">
			<data element_type="u8" offset="3967648" shape="8,64,512" size="262144"/>
			<output>
				<port id="1" precision="U8">
					<dim>8</dim>
					<dim>64</dim>
					<dim>512</dim>
				</port>
			</output>
		</layer>
		<layer id="418" name="630/fq_weights_1/Convert_to_float" type="Convert" version="opset1">
			<data destination_type="f16"/>
			<input>
				<port id="0">
					<dim>8</dim>
					<dim>64</dim>
					<dim>512</dim>
				</port>
			</input>
			<output>
				<port id="1" precision="FP16">
					<dim>8</dim>
					<dim>64</dim>
					<dim>512</dim>
				</port>
			</output>
		</layer>
		<layer id="419" name="decoder_630/fq_weights_1/Copy/out_low4477_const" type="Const" version="opset1">
			<data element_type="f16" offset="278596" shape="1" size="2"/>
			<output>
				<port id="1" precision="FP16">
					<dim>1</dim>
				</port>
			</output>
		</layer>
		<layer id="420" name="decoder_630/fq_weights_1/Copy/out_high4478_const" type="Const" version="opset1">
			<data element_type="f16" offset="278598" shape="1" size="2"/>
			<output>
				<port id="1" precision="FP16">
					<dim>1</dim>
				</port>
			</output>
		</layer>
		<layer id="421" name="13191323_const" type="Const" version="opset1">
			<data element_type="f16" offset="4229792" shape="8,1,1" size="16"/>
			<output>
				<port id="1" precision="FP16">
					<dim>8</dim>
					<dim>1</dim>
					<dim>1</dim>
				</port>
			</output>
		</layer>
		<layer id="422" name="13201324_const" type="Const" version="opset1">
			<data element_type="f16" offset="4229808" shape="8,1,1" size="16"/>
			<output>
				<port id="1" precision="FP16">
					<dim>8</dim>
					<dim>1</dim>
					<dim>1</dim>
				</port>
			</output>
		</layer>
		<layer id="423" name="630/fq_weights_1" type="FakeQuantize" version="opset1">
			<data levels="255"/>
			<input>
				<port id="0">
					<dim>8</dim>
					<dim>64</dim>
					<dim>512</dim>
				</port>
				<port id="1">
					<dim>1</dim>
				</port>
				<port id="2">
					<dim>1</dim>
				</port>
				<port id="3">
					<dim>8</dim>
					<dim>1</dim>
					<dim>1</dim>
				</port>
				<port id="4">
					<dim>8</dim>
					<dim>1</dim>
					<dim>1</dim>
				</port>
			</input>
			<output>
				<port id="5" precision="FP16">
					<dim>8</dim>
					<dim>64</dim>
					<dim>512</dim>
				</port>
			</output>
		</layer>
		<layer id="424" name="630" type="MatMul" version="opset1">
			<data transpose_a="False" transpose_b="True"/>
			<input>
				<port id="0">
					<dim>8</dim>
					<dim>16</dim>
					<dim>512</dim>
				</port>
				<port id="1">
					<dim>8</dim>
					<dim>64</dim>
					<dim>512</dim>
				</port>
			</input>
			<output>
				<port id="2" precision="FP16">
					<dim>8</dim>
					<dim>16</dim>
					<dim>64</dim>
				</port>
			</output>
		</layer>
		<layer id="425" name="29472951_const" type="Const" version="opset1">
			<data element_type="f16" offset="4229824" shape="" size="2"/>
			<output>
				<port id="1" precision="FP16"/>
			</output>
		</layer>
		<layer id="426" name="29482952_const" type="Const" version="opset1">
			<data element_type="f16" offset="4229826" shape="" size="2"/>
			<output>
				<port id="1" precision="FP16"/>
			</output>
		</layer>
		<layer id="427" name="29492953_const" type="Const" version="opset1">
			<data element_type="f16" offset="4229824" shape="" size="2"/>
			<output>
				<port id="1" precision="FP16"/>
			</output>
		</layer>
		<layer id="428" name="29502954_const" type="Const" version="opset1">
			<data element_type="f16" offset="4229826" shape="" size="2"/>
			<output>
				<port id="1" precision="FP16"/>
			</output>
		</layer>
		<layer id="429" name="637/fq_input_0" type="FakeQuantize" version="opset1">
			<data levels="256"/>
			<input>
				<port id="0">
					<dim>8</dim>
					<dim>16</dim>
					<dim>64</dim>
				</port>
				<port id="1"/>
				<port id="2"/>
				<port id="3"/>
				<port id="4"/>
			</input>
			<output>
				<port id="5" precision="FP16">
					<dim>8</dim>
					<dim>16</dim>
					<dim>64</dim>
				</port>
			</output>
		</layer>
		<layer id="430" name="637/Cast_19949_const458_const" type="Const" version="opset1">
			<data element_type="i64" offset="278636" shape="3" size="24"/>
			<output>
				<port id="1" precision="I64">
					<dim>3</dim>
				</port>
			</output>
		</layer>
		<layer id="431" name="637" type="Reshape" version="opset1">
			<data special_zero="True"/>
			<input>
				<port id="0">
					<dim>8</dim>
					<dim>16</dim>
					<dim>64</dim>
				</port>
				<port id="1">
					<dim>3</dim>
				</port>
			</input>
			<output>
				<port id="2" precision="FP16">
					<dim>8</dim>
					<dim>16</dim>
					<dim>64</dim>
				</port>
			</output>
		</layer>
		<layer id="432" name="decoder_646/Cast_15149_const" type="Const" version="opset1">
			<data element_type="i64" offset="540840" shape="3" size="24"/>
			<output>
				<port id="1" precision="I64">
					<dim>3</dim>
				</port>
			</output>
		</layer>
		<layer id="433" name="646" type="Transpose" version="opset1">
			<input>
				<port id="0">
					<dim>8</dim>
					<dim>16</dim>
					<dim>64</dim>
				</port>
				<port id="1">
					<dim>3</dim>
				</port>
			</input>
			<output>
				<port id="2" precision="FP16">
					<dim>8</dim>
					<dim>64</dim>
					<dim>16</dim>
				</port>
			</output>
		</layer>
		<layer id="434" name="decoder_649/fq_input_1/Convert_to_float/Cast_05185_const" type="Const" version="opset1">
			<data element_type="u8" offset="540864" shape="1,64,1" size="64"/>
			<output>
				<port id="1" precision="U8">
					<dim>1</dim>
					<dim>64</dim>
					<dim>1</dim>
				</port>
			</output>
		</layer>
		<layer id="435" name="649/fq_input_1/Convert_to_float" type="Convert" version="opset1">
			<data destination_type="f16"/>
			<input>
				<port id="0">
					<dim>1</dim>
					<dim>64</dim>
					<dim>1</dim>
				</port>
			</input>
			<output>
				<port id="1" precision="FP16">
					<dim>1</dim>
					<dim>64</dim>
					<dim>1</dim>
				</port>
			</output>
		</layer>
		<layer id="436" name="decoder_649/fq_input_1/Copy/out_low4541_const" type="Const" version="opset1">
			<data element_type="f16" offset="278596" shape="1" size="2"/>
			<output>
				<port id="1" precision="FP16">
					<dim>1</dim>
				</port>
			</output>
		</layer>
		<layer id="437" name="decoder_649/fq_input_1/Copy/out_high4542_const" type="Const" version="opset1">
			<data element_type="f16" offset="278598" shape="1" size="2"/>
			<output>
				<port id="1" precision="FP16">
					<dim>1</dim>
				</port>
			</output>
		</layer>
		<layer id="438" name="12791283_const" type="Const" version="opset1">
			<data element_type="f16" offset="540928" shape="1,1,1" size="2"/>
			<output>
				<port id="1" precision="FP16">
					<dim>1</dim>
					<dim>1</dim>
					<dim>1</dim>
				</port>
			</output>
		</layer>
		<layer id="439" name="12801284_const" type="Const" version="opset1">
			<data element_type="f16" offset="540930" shape="1,1,1" size="2"/>
			<output>
				<port id="1" precision="FP16">
					<dim>1</dim>
					<dim>1</dim>
					<dim>1</dim>
				</port>
			</output>
		</layer>
		<layer id="440" name="649/fq_input_1" type="FakeQuantize" version="opset1">
			<data levels="255"/>
			<input>
				<port id="0">
					<dim>1</dim>
					<dim>64</dim>
					<dim>1</dim>
				</port>
				<port id="1">
					<dim>1</dim>
				</port>
				<port id="2">
					<dim>1</dim>
				</port>
				<port id="3">
					<dim>1</dim>
					<dim>1</dim>
					<dim>1</dim>
				</port>
				<port id="4">
					<dim>1</dim>
					<dim>1</dim>
					<dim>1</dim>
				</port>
			</input>
			<output>
				<port id="5" precision="FP16">
					<dim>1</dim>
					<dim>64</dim>
					<dim>1</dim>
				</port>
			</output>
		</layer>
		<layer id="441" name="649" type="Multiply" version="opset1">
			<input>
				<port id="0">
					<dim>8</dim>
					<dim>64</dim>
					<dim>16</dim>
				</port>
				<port id="1">
					<dim>1</dim>
					<dim>64</dim>
					<dim>1</dim>
				</port>
			</input>
			<output>
				<port id="2" precision="FP16">
					<dim>8</dim>
					<dim>64</dim>
					<dim>16</dim>
				</port>
			</output>
		</layer>
		<layer id="442" name="15971601_const" type="Const" version="opset1">
			<data element_type="f16" offset="4229828" shape="" size="2"/>
			<output>
				<port id="1" precision="FP16"/>
			</output>
		</layer>
		<layer id="443" name="15981602_const" type="Const" version="opset1">
			<data element_type="f16" offset="4229830" shape="" size="2"/>
			<output>
				<port id="1" precision="FP16"/>
			</output>
		</layer>
		<layer id="444" name="15991603_const" type="Const" version="opset1">
			<data element_type="f16" offset="4229828" shape="" size="2"/>
			<output>
				<port id="1" precision="FP16"/>
			</output>
		</layer>
		<layer id="445" name="16001604_const" type="Const" version="opset1">
			<data element_type="f16" offset="4229830" shape="" size="2"/>
			<output>
				<port id="1" precision="FP16"/>
			</output>
		</layer>
		<layer id="446" name="647/fq_weights_1" type="FakeQuantize" version="opset1">
			<data levels="256"/>
			<input>
				<port id="0">
					<dim>8</dim>
					<dim>64</dim>
					<dim>16</dim>
				</port>
				<port id="1"/>
				<port id="2"/>
				<port id="3"/>
				<port id="4"/>
			</input>
			<output>
				<port id="5" precision="FP16">
					<dim>8</dim>
					<dim>64</dim>
					<dim>16</dim>
				</port>
			</output>
		</layer>
		<layer id="447" name="647" type="MatMul" version="opset1">
			<data transpose_a="False" transpose_b="False"/>
			<input>
				<port id="0">
					<dim>8</dim>
					<dim>16</dim>
					<dim>64</dim>
				</port>
				<port id="1">
					<dim>8</dim>
					<dim>64</dim>
					<dim>16</dim>
				</port>
			</input>
			<output>
				<port id="2" precision="FP16">
					<dim>8</dim>
					<dim>16</dim>
					<dim>16</dim>
				</port>
			</output>
		</layer>
		<layer id="448" name="661/Cast_19955_const465_const" type="Const" version="opset1">
			<data element_type="i64" offset="540936" shape="2" size="16"/>
			<output>
				<port id="1" precision="I64">
					<dim>2</dim>
				</port>
			</output>
		</layer>
		<layer id="449" name="661" type="Reshape" version="opset1">
			<data special_zero="True"/>
			<input>
				<port id="0">
					<dim>8</dim>
					<dim>16</dim>
					<dim>16</dim>
				</port>
				<port id="1">
					<dim>2</dim>
				</port>
			</input>
			<output>
				<port id="2" precision="FP16">
					<dim>128</dim>
					<dim>16</dim>
				</port>
			</output>
		</layer>
		<layer id="450" name="662/FlattenONNX_/Reshape/Cast_19939_const467_const" type="Const" version="opset1">
			<data element_type="i64" offset="540952" shape="2" size="16"/>
			<output>
				<port id="1" precision="I64">
					<dim>2</dim>
				</port>
			</output>
		</layer>
		<layer id="451" name="662/FlattenONNX_/Reshape" type="Reshape" version="opset1">
			<data special_zero="True"/>
			<input>
				<port id="0">
					<dim>128</dim>
					<dim>16</dim>
				</port>
				<port id="1">
					<dim>2</dim>
				</port>
			</input>
			<output>
				<port id="2" precision="FP16">
					<dim>128</dim>
					<dim>16</dim>
				</port>
			</output>
		</layer>
		<layer id="452" name="662" type="SoftMax" version="opset1">
			<data axis="1"/>
			<input>
				<port id="0">
					<dim>128</dim>
					<dim>16</dim>
				</port>
			</input>
			<output>
				<port id="1" precision="FP16">
					<dim>128</dim>
					<dim>16</dim>
				</port>
			</output>
		</layer>
		<layer id="453" name="29572961_const" type="Const" version="opset1">
			<data element_type="f16" offset="278596" shape="" size="2"/>
			<output>
				<port id="1" precision="FP16"/>
			</output>
		</layer>
		<layer id="454" name="29582962_const" type="Const" version="opset1">
			<data element_type="f16" offset="4229832" shape="" size="2"/>
			<output>
				<port id="1" precision="FP16"/>
			</output>
		</layer>
		<layer id="455" name="29592963_const" type="Const" version="opset1">
			<data element_type="f16" offset="278596" shape="" size="2"/>
			<output>
				<port id="1" precision="FP16"/>
			</output>
		</layer>
		<layer id="456" name="29602964_const" type="Const" version="opset1">
			<data element_type="f16" offset="4229832" shape="" size="2"/>
			<output>
				<port id="1" precision="FP16"/>
			</output>
		</layer>
		<layer id="457" name="668/fq_input_0" type="FakeQuantize" version="opset1">
			<data levels="256"/>
			<input>
				<port id="0">
					<dim>128</dim>
					<dim>16</dim>
				</port>
				<port id="1"/>
				<port id="2"/>
				<port id="3"/>
				<port id="4"/>
			</input>
			<output>
				<port id="5" precision="FP16">
					<dim>128</dim>
					<dim>16</dim>
				</port>
			</output>
		</layer>
		<layer id="458" name="668/Cast_19877_const470_const" type="Const" version="opset1">
			<data element_type="i64" offset="540970" shape="3" size="24"/>
			<output>
				<port id="1" precision="I64">
					<dim>3</dim>
				</port>
			</output>
		</layer>
		<layer id="459" name="668" type="Reshape" version="opset1">
			<data special_zero="True"/>
			<input>
				<port id="0">
					<dim>128</dim>
					<dim>16</dim>
				</port>
				<port id="1">
					<dim>3</dim>
				</port>
			</input>
			<output>
				<port id="2" precision="FP16">
					<dim>8</dim>
					<dim>16</dim>
					<dim>16</dim>
				</port>
			</output>
		</layer>
		<layer id="460" name="614/3D_Tile_Unsqueeze_dim6666_const472_const" type="Const" version="opset1">
			<data element_type="i64" offset="16388" shape="1" size="8"/>
			<output>
				<port id="1" precision="I64">
					<dim>1</dim>
				</port>
			</output>
		</layer>
		<layer id="461" name="614/3D_Tile_Unsqueeze" type="Unsqueeze" version="opset1">
			<input>
				<port id="0">
					<dim>1</dim>
					<dim>16</dim>
					<dim>512</dim>
				</port>
				<port id="1">
					<dim>1</dim>
				</port>
			</input>
			<output>
				<port id="2" precision="FP16">
					<dim>1</dim>
					<dim>16</dim>
					<dim>512</dim>
					<dim>1</dim>
				</port>
			</output>
		</layer>
		<layer id="462" name="66686670_const474_const" type="Const" version="opset1">
			<data element_type="i64" offset="16396" shape="4" size="32"/>
			<output>
				<port id="1" precision="I64">
					<dim>4</dim>
				</port>
			</output>
		</layer>
		<layer id="463" name="614" type="Tile" version="opset1">
			<input>
				<port id="0">
					<dim>1</dim>
					<dim>16</dim>
					<dim>512</dim>
					<dim>1</dim>
				</port>
				<port id="1">
					<dim>4</dim>
				</port>
			</input>
			<output>
				<port id="2" precision="FP16">
					<dim>8</dim>
					<dim>16</dim>
					<dim>512</dim>
					<dim>1</dim>
				</port>
			</output>
		</layer>
		<layer id="464" name="614/3D_Tile_Squeeze_dim6673_const476_const" type="Const" version="opset1">
			<data element_type="i64" offset="16388" shape="1" size="8"/>
			<output>
				<port id="1" precision="I64">
					<dim>1</dim>
				</port>
			</output>
		</layer>
		<layer id="465" name="614/3D_Tile_Squeeze" type="Squeeze" version="opset1">
			<input>
				<port id="0">
					<dim>8</dim>
					<dim>16</dim>
					<dim>512</dim>
					<dim>1</dim>
				</port>
				<port id="1">
					<dim>1</dim>
				</port>
			</input>
			<output>
				<port id="2" precision="FP16">
					<dim>8</dim>
					<dim>16</dim>
					<dim>512</dim>
				</port>
			</output>
		</layer>
		<layer id="466" name="621/Cast_19869_const478_const" type="Const" version="opset1">
			<data element_type="i64" offset="16428" shape="3" size="24"/>
			<output>
				<port id="1" precision="I64">
					<dim>3</dim>
				</port>
			</output>
		</layer>
		<layer id="467" name="621" type="Reshape" version="opset1">
			<data special_zero="True"/>
			<input>
				<port id="0">
					<dim>8</dim>
					<dim>16</dim>
					<dim>512</dim>
				</port>
				<port id="1">
					<dim>3</dim>
				</port>
			</input>
			<output>
				<port id="2" precision="FP16">
					<dim>8</dim>
					<dim>16</dim>
					<dim>512</dim>
				</port>
			</output>
		</layer>
		<layer id="468" name="decoder_638/fq_weights_1/Convert_to_float/Cast_05203_const" type="Const" version="opset1">
			<data element_type="u8" offset="4229834" shape="8,64,512" size="262144"/>
			<output>
				<port id="1" precision="U8">
					<dim>8</dim>
					<dim>64</dim>
					<dim>512</dim>
				</port>
			</output>
		</layer>
		<layer id="469" name="638/fq_weights_1/Convert_to_float" type="Convert" version="opset1">
			<data destination_type="f16"/>
			<input>
				<port id="0">
					<dim>8</dim>
					<dim>64</dim>
					<dim>512</dim>
				</port>
			</input>
			<output>
				<port id="1" precision="FP16">
					<dim>8</dim>
					<dim>64</dim>
					<dim>512</dim>
				</port>
			</output>
		</layer>
		<layer id="470" name="decoder_638/fq_weights_1/Copy/out_low4485_const" type="Const" version="opset1">
			<data element_type="f16" offset="278596" shape="1" size="2"/>
			<output>
				<port id="1" precision="FP16">
					<dim>1</dim>
				</port>
			</output>
		</layer>
		<layer id="471" name="decoder_638/fq_weights_1/Copy/out_high4486_const" type="Const" version="opset1">
			<data element_type="f16" offset="278598" shape="1" size="2"/>
			<output>
				<port id="1" precision="FP16">
					<dim>1</dim>
				</port>
			</output>
		</layer>
		<layer id="472" name="16191623_const" type="Const" version="opset1">
			<data element_type="f16" offset="4491978" shape="8,1,1" size="16"/>
			<output>
				<port id="1" precision="FP16">
					<dim>8</dim>
					<dim>1</dim>
					<dim>1</dim>
				</port>
			</output>
		</layer>
		<layer id="473" name="16201624_const" type="Const" version="opset1">
			<data element_type="f16" offset="4491994" shape="8,1,1" size="16"/>
			<output>
				<port id="1" precision="FP16">
					<dim>8</dim>
					<dim>1</dim>
					<dim>1</dim>
				</port>
			</output>
		</layer>
		<layer id="474" name="638/fq_weights_1" type="FakeQuantize" version="opset1">
			<data levels="255"/>
			<input>
				<port id="0">
					<dim>8</dim>
					<dim>64</dim>
					<dim>512</dim>
				</port>
				<port id="1">
					<dim>1</dim>
				</port>
				<port id="2">
					<dim>1</dim>
				</port>
				<port id="3">
					<dim>8</dim>
					<dim>1</dim>
					<dim>1</dim>
				</port>
				<port id="4">
					<dim>8</dim>
					<dim>1</dim>
					<dim>1</dim>
				</port>
			</input>
			<output>
				<port id="5" precision="FP16">
					<dim>8</dim>
					<dim>64</dim>
					<dim>512</dim>
				</port>
			</output>
		</layer>
		<layer id="475" name="638" type="MatMul" version="opset1">
			<data transpose_a="False" transpose_b="True"/>
			<input>
				<port id="0">
					<dim>8</dim>
					<dim>16</dim>
					<dim>512</dim>
				</port>
				<port id="1">
					<dim>8</dim>
					<dim>64</dim>
					<dim>512</dim>
				</port>
			</input>
			<output>
				<port id="2" precision="FP16">
					<dim>8</dim>
					<dim>16</dim>
					<dim>64</dim>
				</port>
			</output>
		</layer>
		<layer id="476" name="29672971_const" type="Const" version="opset1">
			<data element_type="f16" offset="4492010" shape="" size="2"/>
			<output>
				<port id="1" precision="FP16"/>
			</output>
		</layer>
		<layer id="477" name="29682972_const" type="Const" version="opset1">
			<data element_type="f16" offset="4492012" shape="" size="2"/>
			<output>
				<port id="1" precision="FP16"/>
			</output>
		</layer>
		<layer id="478" name="29692973_const" type="Const" version="opset1">
			<data element_type="f16" offset="4492010" shape="" size="2"/>
			<output>
				<port id="1" precision="FP16"/>
			</output>
		</layer>
		<layer id="479" name="29702974_const" type="Const" version="opset1">
			<data element_type="f16" offset="4492012" shape="" size="2"/>
			<output>
				<port id="1" precision="FP16"/>
			</output>
		</layer>
		<layer id="480" name="645/fq_input_0" type="FakeQuantize" version="opset1">
			<data levels="256"/>
			<input>
				<port id="0">
					<dim>8</dim>
					<dim>16</dim>
					<dim>64</dim>
				</port>
				<port id="1"/>
				<port id="2"/>
				<port id="3"/>
				<port id="4"/>
			</input>
			<output>
				<port id="5" precision="FP16">
					<dim>8</dim>
					<dim>16</dim>
					<dim>64</dim>
				</port>
			</output>
		</layer>
		<layer id="481" name="645/Cast_19915_const482_const" type="Const" version="opset1">
			<data element_type="i64" offset="278636" shape="3" size="24"/>
			<output>
				<port id="1" precision="I64">
					<dim>3</dim>
				</port>
			</output>
		</layer>
		<layer id="482" name="645" type="Reshape" version="opset1">
			<data special_zero="True"/>
			<input>
				<port id="0">
					<dim>8</dim>
					<dim>16</dim>
					<dim>64</dim>
				</port>
				<port id="1">
					<dim>3</dim>
				</port>
			</input>
			<output>
				<port id="2" precision="FP16">
					<dim>8</dim>
					<dim>16</dim>
					<dim>64</dim>
				</port>
			</output>
		</layer>
…
		<edge from-layer="179" from-port="1" to-layer="180" to-port="4"/>
		<edge from-layer="173" from-port="5" to-layer="181" to-port="0"/>
		<edge from-layer="180" from-port="5" to-layer="181" to-port="1"/>
		<edge from-layer="181" from-port="2" to-layer="183" to-port="0"/>
		<edge from-layer="182" from-port="1" to-layer="183" to-port="1"/>
		<edge from-layer="183" from-port="2" to-layer="188" to-port="0"/>
		<edge from-layer="184" from-port="1" to-layer="188" to-port="1"/>
		<edge from-layer="185" from-port="1" to-layer="188" to-port="2"/>
		<edge from-layer="186" from-port="1" to-layer="188" to-port="3"/>
		<edge from-layer="187" from-port="1" to-layer="188" to-port="4"/>
		<edge from-layer="188" from-port="5" to-layer="190" to-port="0"/>
		<edge from-layer="189" from-port="1" to-layer="190" to-port="1"/>
		<edge from-layer="190" from-port="2" to-layer="191" to-port="0"/>
		<edge from-layer="155" from-port="5" to-layer="191" to-port="1"/>
		<edge from-layer="191" from-port="2" to-layer="196" to-port="0"/>
		<edge from-layer="192" from-port="1" to-layer="196" to-port="1"/>
		<edge from-layer="193" from-port="1" to-layer="196" to-port="2"/>
		<edge from-layer="194" from-port="1" to-layer="196" to-port="3"/>
		<edge from-layer="195" from-port="1" to-layer="196" to-port="4"/>
		<edge from-layer="196" from-port="5" to-layer="198" to-port="0"/>
		<edge from-layer="197" from-port="1" to-layer="198" to-port="1"/>
		<edge from-layer="198" from-port="2" to-layer="200" to-port="0"/>
		<edge from-layer="199" from-port="1" to-layer="200" to-port="1"/>
		<edge from-layer="200" from-port="2" to-layer="202" to-port="0"/>
		<edge from-layer="201" from-port="1" to-layer="202" to-port="1"/>
		<edge from-layer="202" from-port="2" to-layer="204" to-port="0"/>
		<edge from-layer="203" from-port="1" to-layer="204" to-port="1"/>
		<edge from-layer="205" from-port="1" to-layer="206" to-port="0"/>
		<edge from-layer="206" from-port="1" to-layer="211" to-port="0"/>
		<edge from-layer="207" from-port="1" to-layer="211" to-port="1"/>
		<edge from-layer="208" from-port="1" to-layer="211" to-port="2"/>
		<edge from-layer="209" from-port="1" to-layer="211" to-port="3"/>
		<edge from-layer="210" from-port="1" to-layer="211" to-port="4"/>
		<edge from-layer="204" from-port="2" to-layer="212" to-port="0"/>
		<edge from-layer="211" from-port="5" to-layer="212" to-port="1"/>
		<edge from-layer="212" from-port="2" to-layer="217" to-port="0"/>
		<edge from-layer="213" from-port="1" to-layer="217" to-port="1"/>
		<edge from-layer="214" from-port="1" to-layer="217" to-port="2"/>
		<edge from-layer="215" from-port="1" to-layer="217" to-port="3"/>
		<edge from-layer="216" from-port="1" to-layer="217" to-port="4"/>
		<edge from-layer="217" from-port="5" to-layer="219" to-port="0"/>
		<edge from-layer="218" from-port="1" to-layer="219" to-port="1"/>
		<edge from-layer="196" from-port="5" to-layer="221" to-port="0"/>
		<edge from-layer="220" from-port="1" to-layer="221" to-port="1"/>
		<edge from-layer="221" from-port="2" to-layer="223" to-port="0"/>
		<edge from-layer="222" from-port="1" to-layer="223" to-port="1"/>
		<edge from-layer="223" from-port="2" to-layer="225" to-port="0"/>
		<edge from-layer="224" from-port="1" to-layer="225" to-port="1"/>
		<edge from-layer="225" from-port="2" to-layer="227" to-port="0"/>
		<edge from-layer="226" from-port="1" to-layer="227" to-port="1"/>
		<edge from-layer="228" from-port="1" to-layer="229" to-port="0"/>
		<edge from-layer="229" from-port="1" to-layer="234" to-port="0"/>
		<edge from-layer="230" from-port="1" to-layer="234" to-port="1"/>
		<edge from-layer="231" from-port="1" to-layer="234" to-port="2"/>
		<edge from-layer="232" from-port="1" to-layer="234" to-port="3"/>
		<edge from-layer="233" from-port="1" to-layer="234" to-port="4"/>
		<edge from-layer="227" from-port="2" to-layer="235" to-port="0"/>
		<edge from-layer="234" from-port="5" to-layer="235" to-port="1"/>
		<edge from-layer="235" from-port="2" to-layer="240" to-port="0"/>
		<edge from-layer="236" from-port="1" to-layer="240" to-port="1"/>
		<edge from-layer="237" from-port="1" to-layer="240" to-port="2"/>
		<edge from-layer="238" from-port="1" to-layer="240" to-port="3"/>
		<edge from-layer="239" from-port="1" to-layer="240" to-port="4"/>
		<edge from-layer="240" from-port="5" to-layer="242" to-port="0"/>
		<edge from-layer="241" from-port="1" to-layer="242" to-port="1"/>
		<edge from-layer="242" from-port="2" to-layer="244" to-port="0"/>
		<edge from-layer="243" from-port="1" to-layer="244" to-port="1"/>
		<edge from-layer="245" from-port="1" to-layer="246" to-port="0"/>
		<edge from-layer="246" from-port="1" to-layer="251" to-port="0"/>
		<edge from-layer="247" from-port="1" to-layer="251" to-port="1"/>
		<edge from-layer="248" from-port="1" to-layer="251" to-port="2"/>
		<edge from-layer="249" from-port="1" to-layer="251" to-port="3"/>
		<edge from-layer="250" from-port="1" to-layer="251" to-port="4"/>
		<edge from-layer="244" from-port="2" to-layer="252" to-port="0"/>
		<edge from-layer="251" from-port="5" to-layer="252" to-port="1"/>
		<edge from-layer="252" from-port="2" to-layer="257" to-port="0"/>
		<edge from-layer="253" from-port="1" to-layer="257" to-port="1"/>
		<edge from-layer="254" from-port="1" to-layer="257" to-port="2"/>
		<edge from-layer="255" from-port="1" to-layer="257" to-port="3"/>
		<edge from-layer="256" from-port="1" to-layer="257" to-port="4"/>
		<edge from-layer="219" from-port="2" to-layer="258" to-port="0"/>
		<edge from-layer="257" from-port="5" to-layer="258" to-port="1"/>
		<edge from-layer="258" from-port="2" to-layer="260" to-port="0"/>
		<edge from-layer="259" from-port="1" to-layer="260" to-port="1"/>
		<edge from-layer="260" from-port="2" to-layer="262" to-port="0"/>
		<edge from-layer="261" from-port="1" to-layer="262" to-port="1"/>
		<edge from-layer="262" from-port="2" to-layer="263" to-port="0"/>
		<edge from-layer="263" from-port="1" to-layer="268" to-port="0"/>
		<edge from-layer="264" from-port="1" to-layer="268" to-port="1"/>
		<edge from-layer="265" from-port="1" to-layer="268" to-port="2"/>
		<edge from-layer="266" from-port="1" to-layer="268" to-port="3"/>
		<edge from-layer="267" from-port="1" to-layer="268" to-port="4"/>
		<edge from-layer="268" from-port="5" to-layer="270" to-port="0"/>
		<edge from-layer="269" from-port="1" to-layer="270" to-port="1"/>
		<edge from-layer="196" from-port="5" to-layer="272" to-port="0"/>
		<edge from-layer="271" from-port="1" to-layer="272" to-port="1"/>
		<edge from-layer="272" from-port="2" to-layer="274" to-port="0"/>
		<edge from-layer="273" from-port="1" to-layer="274" to-port="1"/>
		<edge from-layer="274" from-port="2" to-layer="276" to-port="0"/>
		<edge from-layer="275" from-port="1" to-layer="276" to-port="1"/>
		<edge from-layer="276" from-port="2" to-layer="278" to-port="0"/>
		<edge from-layer="277" from-port="1" to-layer="278" to-port="1"/>
		<edge from-layer="279" from-port="1" to-layer="280" to-port="0"/>
		<edge from-layer="280" from-port="1" to-layer="285" to-port="0"/>
		<edge from-layer="281" from-port="1" to-layer="285" to-port="1"/>
		<edge from-layer="282" from-port="1" to-layer="285" to-port="2"/>
		<edge from-layer="283" from-port="1" to-layer="285" to-port="3"/>
		<edge from-layer="284" from-port="1" to-layer="285" to-port="4"/>
		<edge from-layer="278" from-port="2" to-layer="286" to-port="0"/>
		<edge from-layer="285" from-port="5" to-layer="286" to-port="1"/>
		<edge from-layer="286" from-port="2" to-layer="291" to-port="0"/>
		<edge from-layer="287" from-port="1" to-layer="291" to-port="1"/>
		<edge from-layer="288" from-port="1" to-layer="291" to-port="2"/>
		<edge from-layer="289" from-port="1" to-layer="291" to-port="3"/>
		<edge from-layer="290" from-port="1" to-layer="291" to-port="4"/>
		<edge from-layer="291" from-port="5" to-layer="293" to-port="0"/>
		<edge from-layer="292" from-port="1" to-layer="293" to-port="1"/>
		<edge from-layer="270" from-port="2" to-layer="294" to-port="0"/>
		<edge from-layer="293" from-port="2" to-layer="294" to-port="1"/>
		<edge from-layer="294" from-port="2" to-layer="297" to-port="0"/>
		<edge from-layer="295" from-port="1" to-layer="297" to-port="1"/>
		<edge from-layer="296" from-port="1" to-layer="297" to-port="2"/>
		<edge from-layer="297" from-port="3" to-layer="302" to-port="0"/>
		<edge from-layer="298" from-port="1" to-layer="302" to-port="1"/>
		<edge from-layer="299" from-port="1" to-layer="302" to-port="2"/>
		<edge from-layer="300" from-port="1" to-layer="302" to-port="3"/>
		<edge from-layer="301" from-port="1" to-layer="302" to-port="4"/>
		<edge from-layer="297" from-port="4" to-layer="307" to-port="0"/>
		<edge from-layer="303" from-port="1" to-layer="307" to-port="1"/>
		<edge from-layer="304" from-port="1" to-layer="307" to-port="2"/>
		<edge from-layer="305" from-port="1" to-layer="307" to-port="3"/>
		<edge from-layer="306" from-port="1" to-layer="307" to-port="4"/>
		<edge from-layer="297" from-port="5" to-layer="312" to-port="0"/>
		<edge from-layer="308" from-port="1" to-layer="312" to-port="1"/>
		<edge from-layer="309" from-port="1" to-layer="312" to-port="2"/>
		<edge from-layer="310" from-port="1" to-layer="312" to-port="3"/>
		<edge from-layer="311" from-port="1" to-layer="312" to-port="4"/>
		<edge from-layer="297" from-port="6" to-layer="317" to-port="0"/>
		<edge from-layer="313" from-port="1" to-layer="317" to-port="1"/>
		<edge from-layer="314" from-port="1" to-layer="317" to-port="2"/>
		<edge from-layer="315" from-port="1" to-layer="317" to-port="3"/>
		<edge from-layer="316" from-port="1" to-layer="317" to-port="4"/>
		<edge from-layer="297" from-port="7" to-layer="322" to-port="0"/>
		<edge from-layer="318" from-port="1" to-layer="322" to-port="1"/>
		<edge from-layer="319" from-port="1" to-layer="322" to-port="2"/>
		<edge from-layer="320" from-port="1" to-layer="322" to-port="3"/>
		<edge from-layer="321" from-port="1" to-layer="322" to-port="4"/>
		<edge from-layer="297" from-port="8" to-layer="327" to-port="0"/>
		<edge from-layer="323" from-port="1" to-layer="327" to-port="1"/>
		<edge from-layer="324" from-port="1" to-layer="327" to-port="2"/>
		<edge from-layer="325" from-port="1" to-layer="327" to-port="3"/>
		<edge from-layer="326" from-port="1" to-layer="327" to-port="4"/>
		<edge from-layer="297" from-port="9" to-layer="332" to-port="0"/>
		<edge from-layer="328" from-port="1" to-layer="332" to-port="1"/>
		<edge from-layer="329" from-port="1" to-layer="332" to-port="2"/>
		<edge from-layer="330" from-port="1" to-layer="332" to-port="3"/>
		<edge from-layer="331" from-port="1" to-layer="332" to-port="4"/>
		<edge from-layer="297" from-port="10" to-layer="337" to-port="0"/>
		<edge from-layer="333" from-port="1" to-layer="337" to-port="1"/>
		<edge from-layer="334" from-port="1" to-layer="337" to-port="2"/>
		<edge from-layer="335" from-port="1" to-layer="337" to-port="3"/>
		<edge from-layer="336" from-port="1" to-layer="337" to-port="4"/>
		<edge from-layer="302" from-port="5" to-layer="338" to-port="0"/>
		<edge from-layer="307" from-port="5" to-layer="338" to-port="1"/>
		<edge from-layer="312" from-port="5" to-layer="338" to-port="2"/>
		<edge from-layer="317" from-port="5" to-layer="338" to-port="3"/>
		<edge from-layer="322" from-port="5" to-layer="338" to-port="4"/>
		<edge from-layer="327" from-port="5" to-layer="338" to-port="5"/>
		<edge from-layer="332" from-port="5" to-layer="338" to-port="6"/>
		<edge from-layer="337" from-port="5" to-layer="338" to-port="7"/>
		<edge from-layer="338" from-port="8" to-layer="339" to-port="0"/>
		<edge from-layer="196" from-port="5" to-layer="339" to-port="1"/>
		<edge from-layer="339" from-port="2" to-layer="344" to-port="0"/>
		<edge from-layer="340" from-port="1" to-layer="344" to-port="1"/>
		<edge from-layer="341" from-port="1" to-layer="344" to-port="2"/>
		<edge from-layer="342" from-port="1" to-layer="344" to-port="3"/>
		<edge from-layer="343" from-port="1" to-layer="344" to-port="4"/>
		<edge from-layer="344" from-port="5" to-layer="346" to-port="0"/>
		<edge from-layer="345" from-port="1" to-layer="346" to-port="1"/>
		<edge from-layer="347" from-port="1" to-layer="348" to-port="0"/>
		<edge from-layer="348" from-port="1" to-layer="353" to-port="0"/>
		<edge from-layer="349" from-port="1" to-layer="353" to-port="1"/>
		<edge from-layer="350" from-port="1" to-layer="353" to-port="2"/>
		<edge from-layer="351" from-port="1" to-layer="353" to-port="3"/>
		<edge from-layer="352" from-port="1" to-layer="353" to-port="4"/>
		<edge from-layer="346" from-port="2" to-layer="354" to-port="0"/>
		<edge from-layer="353" from-port="5" to-layer="354" to-port="1"/>
		<edge from-layer="354" from-port="2" to-layer="356" to-port="0"/>
		<edge from-layer="355" from-port="1" to-layer="356" to-port="1"/>
		<edge from-layer="356" from-port="2" to-layer="357" to-port="0"/>
		<edge from-layer="357" from-port="1" to-layer="362" to-port="0"/>
		<edge from-layer="358" from-port="1" to-layer="362" to-port="1"/>
		<edge from-layer="359" from-port="1" to-layer="362" to-port="2"/>
		<edge from-layer="360" from-port="1" to-layer="362" to-port="3"/>
		<edge from-layer="361" from-port="1" to-layer="362" to-port="4"/>
		<edge from-layer="363" from-port="1" to-layer="364" to-port="0"/>
		<edge from-layer="364" from-port="1" to-layer="369" to-port="0"/>
		<edge from-layer="365" from-port="1" to-layer="369" to-port="1"/>
		<edge from-layer="366" from-port="1" to-layer="369" to-port="2"/>
		<edge from-layer="367" from-port="1" to-layer="369" to-port="3"/>
		<edge from-layer="368" from-port="1" to-layer="369" to-port="4"/>
		<edge from-layer="362" from-port="5" to-layer="370" to-port="0"/>
		<edge from-layer="369" from-port="5" to-layer="370" to-port="1"/>
		<edge from-layer="370" from-port="2" to-layer="372" to-port="0"/>
		<edge from-layer="371" from-port="1" to-layer="372" to-port="1"/>
		<edge from-layer="372" from-port="2" to-layer="377" to-port="0"/>
		<edge from-layer="373" from-port="1" to-layer="377" to-port="1"/>
		<edge from-layer="374" from-port="1" to-layer="377" to-port="2"/>
		<edge from-layer="375" from-port="1" to-layer="377" to-port="3"/>
		<edge from-layer="376" from-port="1" to-layer="377" to-port="4"/>
		<edge from-layer="377" from-port="5" to-layer="379" to-port="0"/>
		<edge from-layer="378" from-port="1" to-layer="379" to-port="1"/>
		<edge from-layer="379" from-port="2" to-layer="380" to-port="0"/>
		<edge from-layer="344" from-port="5" to-layer="380" to-port="1"/>
		<edge from-layer="380" from-port="2" to-layer="385" to-port="0"/>
		<edge from-layer="381" from-port="1" to-layer="385" to-port="1"/>
		<edge from-layer="382" from-port="1" to-layer="385" to-port="2"/>
		<edge from-layer="383" from-port="1" to-layer="385" to-port="3"/>
		<edge from-layer="384" from-port="1" to-layer="385" to-port="4"/>
		<edge from-layer="385" from-port="5" to-layer="387" to-port="0"/>
		<edge from-layer="386" from-port="1" to-layer="387" to-port="1"/>
		<edge from-layer="387" from-port="2" to-layer="389" to-port="0"/>
		<edge from-layer="388" from-port="1" to-layer="389" to-port="1"/>
		<edge from-layer="389" from-port="2" to-layer="391" to-port="0"/>
		<edge from-layer="390" from-port="1" to-layer="391" to-port="1"/>
		<edge from-layer="391" from-port="2" to-layer="393" to-port="0"/>
		<edge from-layer="392" from-port="1" to-layer="393" to-port="1"/>
		<edge from-layer="394" from-port="1" to-layer="395" to-port="0"/>
		<edge from-layer="395" from-port="1" to-layer="400" to-port="0"/>
		<edge from-layer="396" from-port="1" to-layer="400" to-port="1"/>
		<edge from-layer="397" from-port="1" to-layer="400" to-port="2"/>
		<edge from-layer="398" from-port="1" to-layer="400" to-port="3"/>
		<edge from-layer="399" from-port="1" to-layer="400" to-port="4"/>
		<edge from-layer="393" from-port="2" to-layer="401" to-port="0"/>
		<edge from-layer="400" from-port="5" to-layer="401" to-port="1"/>
		<edge from-layer="401" from-port="2" to-layer="406" to-port="0"/>
		<edge from-layer="402" from-port="1" to-layer="406" to-port="1"/>
		<edge from-layer="403" from-port="1" to-layer="406" to-port="2"/>
		<edge from-layer="404" from-port="1" to-layer="406" to-port="3"/>
		<edge from-layer="405" from-port="1" to-layer="406" to-port="4"/>
		<edge from-layer="406" from-port="5" to-layer="408" to-port="0"/>
		<edge from-layer="407" from-port="1" to-layer="408" to-port="1"/>
		<edge from-layer="385" from-port="5" to-layer="410" to-port="0"/>
		<edge from-layer="409" from-port="1" to-layer="410" to-port="1"/>
		<edge from-layer="410" from-port="2" to-layer="412" to-port="0"/>
		<edge from-layer="411" from-port="1" to-layer="412" to-port="1"/>
		<edge from-layer="412" from-port="2" to-layer="414" to-port="0"/>
		<edge from-layer="413" from-port="1" to-layer="414" to-port="1"/>
		<edge from-layer="414" from-port="2" to-layer="416" to-port="0"/>
		<edge from-layer="415" from-port="1" to-layer="416" to-port="1"/>
		<edge from-layer="417" from-port="1" to-layer="418" to-port="0"/>
		<edge from-layer="418" from-port="1" to-layer="423" to-port="0"/>
		<edge from-layer="419" from-port="1" to-layer="423" to-port="1"/>
		<edge from-layer="420" from-port="1" to-layer="423" to-port="2"/>
		<edge from-layer="421" from-port="1" to-layer="423" to-port="3"/>
		<edge from-layer="422" from-port="1" to-layer="423" to-port="4"/>
		<edge from-layer="416" from-port="2" to-layer="424" to-port="0"/>
		<edge from-layer="423" from-port="5" to-layer="424" to-port="1"/>
		<edge from-layer="424" from-port="2" to-layer="429" to-port="0"/>
		<edge from-layer="425" from-port="1" to-layer="429" to-port="1"/>
		<edge from-layer="426" from-port="1" to-layer="429" to-port="2"/>
		<edge from-layer="427" from-port="1" to-layer="429" to-port="3"/>
		<edge from-layer="428" from-port="1" to-layer="429" to-port="4"/>
		<edge from-layer="429" from-port="5" to-layer="431" to-port="0"/>
		<edge from-layer="430" from-port="1" to-layer="431" to-port="1"/>
		<edge from-layer="431" from-port="2" to-layer="433" to-port="0"/>
		<edge from-layer="432" from-port="1" to-layer="433" to-port="1"/>
		<edge from-layer="434" from-port="1" to-layer="435" to-port="0"/>
		<edge from-layer="435" from-port="1" to-layer="440" to-port="0"/>
		<edge from-layer="436" from-port="1" to-layer="440" to-port="1"/>
		<edge from-layer="437" from-port="1" to-layer="440" to-port="2"/>
		<edge from-layer="438" from-port="1" to-layer="440" to-port="3"/>
		<edge from-layer="439" from-port="1" to-layer="440" to-port="4"/>
		<edge from-layer="433" from-port="2" to-layer="441" to-port="0"/>
		<edge from-layer="440" from-port="5" to-layer="441" to-port="1"/>
		<edge from-layer="441" from-port="2" to-layer="446" to-port="0"/>
		<edge from-layer="442" from-port="1" to-layer="446" to-port="1"/>
		<edge from-layer="443" from-port="1" to-layer="446" to-port="2"/>
		<edge from-layer="444" from-port="1" to-layer="446" to-port="3"/>
		<edge from-layer="445" from-port="1" to-layer="446" to-port="4"/>
		<edge from-layer="408" from-port="2" to-layer="447" to-port="0"/>
		<edge from-layer="446" from-port="5" to-layer="447" to-port="1"/>
		<edge from-layer="447" from-port="2" to-layer="449" to-port="0"/>
		<edge from-layer="448" from-port="1" to-layer="449" to-port="1"/>
		<edge from-layer="449" from-port="2" to-layer="451" to-port="0"/>
		<edge from-layer="450" from-port="1" to-layer="451" to-port="1"/>
		<edge from-layer="451" from-port="2" to-layer="452" to-port="0"/>
		<edge from-layer="452" from-port="1" to-layer="457" to-port="0"/>
		<edge from-layer="453" from-port="1" to-layer="457" to-port="1"/>
		<edge from-layer="454" from-port="1" to-layer="457" to-port="2"/>
		<edge from-layer="455" from-port="1" to-layer="457" to-port="3"/>
		<edge from-layer="456" from-port="1" to-layer="457" to-port="4"/>
		<edge from-layer="457" from-port="5" to-layer="459" to-port="0"/>
		<edge from-layer="458" from-port="1" to-layer="459" to-port="1"/>
		<edge from-layer="385" from-port="5" to-layer="461" to-port="0"/>
		<edge from-layer="460" from-port="1" to-layer="461" to-port="1"/>
		<edge from-layer="461" from-port="2" to-layer="463" to-port="0"/>
		<edge from-layer="462" from-port="1" to-layer="463" to-port="1"/>
		<edge from-layer="463" from-port="2" to-layer="465" to-port="0"/>
		<edge from-layer="464" from-port="1" to-layer="465" to-port="1"/>
		<edge from-layer="465" from-port="2" to-layer="467" to-port="0"/>
		<edge from-layer="466" from-port="1" to-layer="467" to-port="1"/>
		<edge from-layer="468" from-port="1" to-layer="469" to-port="0"/>
		<edge from-layer="469" from-port="1" to-layer="474" to-port="0"/>
		<edge from-layer="470" from-port="1" to-layer="474" to-port="1"/>
		<edge from-layer="471" from-port="1" to-layer="474" to-port="2"/>
		<edge from-layer="472" from-port="1" to-layer="474" to-port="3"/>
		<edge from-layer="473" from-port="1" to-layer="474" to-port="4"/>
		<edge from-layer="467" from-port="2" to-layer="475" to-port="0"/>
		<edge from-layer="474" from-port="5" to-layer="475" to-port="1"/>
		<edge from-layer="475" from-port="2" to-layer="480" to-port="0"/>
		<edge from-layer="476" from-port="1" to-layer="480" to-port="1"/>
		<edge from-layer="477" from-port="1" to-layer="480" to-port="2"/>
		<edge from-layer="478" from-port="1" to-layer="480" to-port="3"/>
		<edge from-layer="479" from-port="1" to-layer="480" to-port="4"/>
		<edge from-layer="480" from-port="5" to-layer="482" to-port="0"/>
		<edge from-layer="481" from-port="1" to-layer="482" to-port="1"/>
		<edge from-layer="459" from-port="2" to-layer="483" to-port="0"/>
		<edge from-layer="482" from-port="2" to-layer="483" to-port="1"/>
		<edge from-layer="483" from-port="2" to-layer="486" to-port="0"/>
		<edge from-layer="484" from-port="1" to-layer="486" to-port="1"/>
		<edge from-layer="485" from-port="1" to-layer="486" to-port="2"/>
		<edge from-layer="486" from-port="3" to-layer="491" to-port="0"/>
		<edge from-layer="487" from-port="1" to-layer="491" to-port="1"/>
		<edge from-layer="488" from-port="1" to-layer="491" to-port="2"/>
		<edge from-layer="489" from-port="1" to-layer="491" to-port="3"/>
		<edge from-layer="490" from-port="1" to-layer="491" to-port="4"/>
		<edge from-layer="486" from-port="4" to-layer="496" to-port="0"/>
		<edge from-layer="492" from-port="1" to-layer="496" to-port="1"/>
		<edge from-layer="493" from-port="1" to-layer="496" to-port="2"/>
		<edge from-layer="494" from-port="1" to-layer="496" to-port="3"/>
		<edge from-layer="495" from-port="1" to-layer="496" to-port="4"/>
		<edge from-layer="486" from-port="5" to-layer="501" to-port="0"/>
		<edge from-layer="497" from-port="1" to-layer="501" to-port="1"/>
		<edge from-layer="498" from-port="1" to-layer="501" to-port="2"/>
		<edge from-layer="499" from-port="1" to-layer="501" to-port="3"/>
		<edge from-layer="500" from-port="1" to-layer="501" to-port="4"/>
		<edge from-layer="486" from-port="6" to-layer="506" to-port="0"/>
		<edge from-layer="502" from-port="1" to-layer="506" to-port="1"/>
		<edge from-layer="503" from-port="1" to-layer="506" to-port="2"/>
		<edge from-layer="504" from-port="1" to-layer="506" to-port="3"/>
		<edge from-layer="505" from-port="1" to-layer="506" to-port="4"/>
		<edge from-layer="486" from-port="7" to-layer="511" to-port="0"/>
		<edge from-layer="507" from-port="1" to-layer="511" to-port="1"/>
		<edge from-layer="508" from-port="1" to-layer="511" to-port="2"/>
		<edge from-layer="509" from-port="1" to-layer="511" to-port="3"/>
		<edge from-layer="510" from-port="1" to-layer="511" to-port="4"/>
		<edge from-layer="486" from-port="8" to-layer="516" to-port="0"/>
		<edge from-layer="512" from-port="1" to-layer="516" to-port="1"/>
		<edge from-layer="513" from-port="1" to-layer="516" to-port="2"/>
		<edge from-layer="514" from-port="1" to-layer="516" to-port="3"/>
		<edge from-layer="515" from-port="1" to-layer="516" to-port="4"/>
		<edge from-layer="486" from-port="9" to-layer="521" to-port="0"/>
		<edge from-layer="517" from-port="1" to-layer="521" to-port="1"/>
		<edge from-layer="518" from-port="1" to-layer="521" to-port="2"/>
		<edge from-layer="519" from-port="1" to-layer="521" to-port="3"/>
		<edge from-layer="520" from-port="1" to-layer="521" to-port="4"/>
		<edge from-layer="486" from-port="10" to-layer="526" to-port="0"/>
		<edge from-layer="522" from-port="1" to-layer="526" to-port="1"/>
		<edge from-layer="523" from-port="1" to-layer="526" to-port="2"/>
		<edge from-layer="524" from-port="1" to-layer="526" to-port="3"/>
		<edge from-layer="525" from-port="1" to-layer="526" to-port="4"/>
		<edge from-layer="491" from-port="5" to-layer="527" to-port="0"/>
		<edge from-layer="496" from-port="5" to-layer="527" to-port="1"/>
		<edge from-layer="501" from-port="5" to-layer="527" to-port="2"/>
		<edge from-layer="506" from-port="5" to-layer="527" to-port="3"/>
		<edge from-layer="511" from-port="5" to-layer="527" to-port="4"/>
		<edge from-layer="516" from-port="5" to-layer="527" to-port="5"/>
		<edge from-layer="521" from-port="5" to-layer="527" to-port="6"/>
		<edge from-layer="526" from-port="5" to-layer="527" to-port="7"/>
		<edge from-layer="527" from-port="8" to-layer="528" to-port="0"/>
		<edge from-layer="385" from-port="5" to-layer="528" to-port="1"/>
		<edge from-layer="528" from-port="2" to-layer="533" to-port="0"/>
		<edge from-layer="529" from-port="1" to-layer="533" to-port="1"/>
		<edge from-layer="530" from-port="1" to-layer="533" to-port="2"/>
		<edge from-layer="531" from-port="1" to-layer="533" to-port="3"/>
		<edge from-layer="532" from-port="1" to-layer="533" to-port="4"/>
		<edge from-layer="533" from-port="5" to-layer="535" to-port="0"/>
		<edge from-layer="534" from-port="1" to-layer="535" to-port="1"/>
		<edge from-layer="536" from-port="1" to-layer="537" to-port="0"/>
		<edge from-layer="537" from-port="1" to-layer="542" to-port="0"/>
		<edge from-layer="538" from-port="1" to-layer="542" to-port="1"/>
		<edge from-layer="539" from-port="1" to-layer="542" to-port="2"/>
		<edge from-layer="540" from-port="1" to-layer="542" to-port="3"/>
		<edge from-layer="541" from-port="1" to-layer="542" to-port="4"/>
		<edge from-layer="535" from-port="2" to-layer="543" to-port="0"/>
		<edge from-layer="542" from-port="5" to-layer="543" to-port="1"/>
		<edge from-layer="543" from-port="2" to-layer="545" to-port="0"/>
		<edge from-layer="544" from-port="1" to-layer="545" to-port="1"/>
		<edge from-layer="545" from-port="2" to-layer="546" to-port="0"/>
		<edge from-layer="546" from-port="1" to-layer="551" to-port="0"/>
		<edge from-layer="547" from-port="1" to-layer="551" to-port="1"/>
		<edge from-layer="548" from-port="1" to-layer="551" to-port="2"/>
		<edge from-layer="549" from-port="1" to-layer="551" to-port="3"/>
		<edge from-layer="550" from-port="1" to-layer="551" to-port="4"/>
		<edge from-layer="552" from-port="1" to-layer="553" to-port="0"/>
		<edge from-layer="553" from-port="1" to-layer="558" to-port="0"/>
		<edge from-layer="554" from-port="1" to-layer="558" to-port="1"/>
		<edge from-layer="555" from-port="1" to-layer="558" to-port="2"/>
		<edge from-layer="556" from-port="1" to-layer="558" to-port="3"/>
		<edge from-layer="557" from-port="1" to-layer="558" to-port="4"/>
		<edge from-layer="551" from-port="5" to-layer="559" to-port="0"/>
		<edge from-layer="558" from-port="5" to-layer="559" to-port="1"/>
		<edge from-layer="559" from-port="2" to-layer="561" to-port="0"/>
		<edge from-layer="560" from-port="1" to-layer="561" to-port="1"/>
		<edge from-layer="561" from-port="2" to-layer="566" to-port="0"/>
		<edge from-layer="562" from-port="1" to-layer="566" to-port="1"/>
		<edge from-layer="563" from-port="1" to-layer="566" to-port="2"/>
		<edge from-layer="564" from-port="1" to-layer="566" to-port="3"/>
		<edge from-layer="565" from-port="1" to-layer="566" to-port="4"/>
		<edge from-layer="566" from-port="5" to-layer="568" to-port="0"/>
		<edge from-layer="567" from-port="1" to-layer="568" to-port="1"/>
		<edge from-layer="568" from-port="2" to-layer="569" to-port="0"/>
		<edge from-layer="533" from-port="5" to-layer="569" to-port="1"/>
		<edge from-layer="569" from-port="2" to-layer="574" to-port="0"/>
		<edge from-layer="570" from-port="1" to-layer="574" to-port="1"/>
		<edge from-layer="571" from-port="1" to-layer="574" to-port="2"/>
		<edge from-layer="572" from-port="1" to-layer="574" to-port="3"/>
		<edge from-layer="573" from-port="1" to-layer="574" to-port="4"/>
		<edge from-layer="574" from-port="5" to-layer="576" to-port="0"/>
		<edge from-layer="575" from-port="1" to-layer="576" to-port="1"/>
		<edge from-layer="576" from-port="2" to-layer="578" to-port="0"/>
		<edge from-layer="577" from-port="1" to-layer="578" to-port="1"/>
		<edge from-layer="578" from-port="2" to-layer="580" to-port="0"/>
		<edge from-layer="579" from-port="1" to-layer="580" to-port="1"/>
		<edge from-layer="580" from-port="2" to-layer="582" to-port="0"/>
		<edge from-layer="581" from-port="1" to-layer="582" to-port="1"/>
		<edge from-layer="583" from-port="1" to-layer="584" to-port="0"/>
		<edge from-layer="584" from-port="1" to-layer="589" to-port="0"/>
		<edge from-layer="585" from-port="1" to-layer="589" to-port="1"/>
		<edge from-layer="586" from-port="1" to-layer="589" to-port="2"/>
		<edge from-layer="587" from-port="1" to-layer="589" to-port="3"/>
		<edge from-layer="588" from-port="1" to-layer="589" to-port="4"/>
		<edge from-layer="582" from-port="2" to-layer="590" to-port="0"/>
		<edge from-layer="589" from-port="5" to-layer="590" to-port="1"/>
		<edge from-layer="590" from-port="2" to-layer="595" to-port="0"/>
		<edge from-layer="591" from-port="1" to-layer="595" to-port="1"/>
		<edge from-layer="592" from-port="1" to-layer="595" to-port="2"/>
		<edge from-layer="593" from-port="1" to-layer="595" to-port="3"/>
		<edge from-layer="594" from-port="1" to-layer="595" to-port="4"/>
		<edge from-layer="595" from-port="5" to-layer="597" to-port="0"/>
		<edge from-layer="596" from-port="1" to-layer="597" to-port="1"/>
		<edge from-layer="574" from-port="5" to-layer="599" to-port="0"/>
		<edge from-layer="598" from-port="1" to-layer="599" to-port="1"/>
		<edge from-layer="599" from-port="2" to-layer="601" to-port="0"/>
		<edge from-layer="600" from-port="1" to-layer="601" to-port="1"/>
		<edge from-layer="601" from-port="2" to-layer="603" to-port="0"/>
		<edge from-layer="602" from-port="1" to-layer="603" to-port="1"/>
		<edge from-layer="603" from-port="2" to-layer="605" to-port="0"/>
		<edge from-layer="604" from-port="1" to-layer="605" to-port="1"/>
		<edge from-layer="606" from-port="1" to-layer="607" to-port="0"/>
		<edge from-layer="607" from-port="1" to-layer="612" to-port="0"/>
		<edge from-layer="608" from-port="1" to-layer="612" to-port="1"/>
		<edge from-layer="609" from-port="1" to-layer="612" to-port="2"/>
		<edge from-layer="610" from-port="1" to-layer="612" to-port="3"/>
		<edge from-layer="611" from-port="1" to-layer="612" to-port="4"/>
		<edge from-layer="605" from-port="2" to-layer="613" to-port="0"/>
		<edge from-layer="612" from-port="5" to-layer="613" to-port="1"/>
		<edge from-layer="613" from-port="2" to-layer="618" to-port="0"/>
		<edge from-layer="614" from-port="1" to-layer="618" to-port="1"/>
		<edge from-layer="615" from-port="1" to-layer="618" to-port="2"/>
		<edge from-layer="616" from-port="1" to-layer="618" to-port="3"/>
		<edge from-layer="617" from-port="1" to-layer="618" to-port="4"/>
		<edge from-layer="618" from-port="5" to-layer="620" to-port="0"/>
		<edge from-layer="619" from-port="1" to-layer="620" to-port="1"/>
		<edge from-layer="620" from-port="2" to-layer="622" to-port="0"/>
		<edge from-layer="621" from-port="1" to-layer="622" to-port="1"/>
		<edge from-layer="623" from-port="1" to-layer="624" to-port="0"/>
		<edge from-layer="624" from-port="1" to-layer="629" to-port="0"/>
		<edge from-layer="625" from-port="1" to-layer="629" to-port="1"/>
		<edge from-layer="626" from-port="1" to-layer="629" to-port="2"/>
		<edge from-layer="627" from-port="1" to-layer="629" to-port="3"/>
		<edge from-layer="628" from-port="1" to-layer="629" to-port="4"/>
		<edge from-layer="622" from-port="2" to-layer="630" to-port="0"/>
		<edge from-layer="629" from-port="5" to-layer="630" to-port="1"/>
		<edge from-layer="630" from-port="2" to-layer="635" to-port="0"/>
		<edge from-layer="631" from-port="1" to-layer="635" to-port="1"/>
		<edge from-layer="632" from-port="1" to-layer="635" to-port="2"/>
		<edge from-layer="633" from-port="1" to-layer="635" to-port="3"/>
		<edge from-layer="634" from-port="1" to-layer="635" to-port="4"/>
		<edge from-layer="597" from-port="2" to-layer="636" to-port="0"/>
		<edge from-layer="635" from-port="5" to-layer="636" to-port="1"/>
		<edge from-layer="636" from-port="2" to-layer="638" to-port="0"/>
		<edge from-layer="637" from-port="1" to-layer="638" to-port="1"/>
		<edge from-layer="638" from-port="2" to-layer="640" to-port="0"/>
		<edge from-layer="639" from-port="1" to-layer="640" to-port="1"/>
		<edge from-layer="640" from-port="2" to-layer="641" to-port="0"/>
		<edge from-layer="641" from-port="1" to-layer="646" to-port="0"/>
		<edge from-layer="642" from-port="1" to-layer="646" to-port="1"/>
		<edge from-layer="643" from-port="1" to-layer="646" to-port="2"/>
		<edge from-layer="644" from-port="1" to-layer="646" to-port="3"/>
		<edge from-layer="645" from-port="1" to-layer="646" to-port="4"/>
		<edge from-layer="646" from-port="5" to-layer="648" to-port="0"/>
		<edge from-layer="647" from-port="1" to-layer="648" to-port="1"/>
		<edge from-layer="574" from-port="5" to-layer="650" to-port="0"/>
		<edge from-layer="649" from-port="1" to-layer="650" to-port="1"/>
		<edge from-layer="650" from-port="2" to-layer="652" to-port="0"/>
		<edge from-layer="651" from-port="1" to-layer="652" to-port="1"/>
		<edge from-layer="652" from-port="2" to-layer="654" to-port="0"/>
		<edge from-layer="653" from-port="1" to-layer="654" to-port="1"/>
		<edge from-layer="654" from-port="2" to-layer="656" to-port="0"/>
		<edge from-layer="655" from-port="1" to-layer="656" to-port="1"/>
		<edge from-layer="657" from-port="1" to-layer="658" to-port="0"/>
		<edge from-layer="658" from-port="1" to-layer="663" to-port="0"/>
		<edge from-layer="659" from-port="1" to-layer="663" to-port="1"/>
		<edge from-layer="660" from-port="1" to-layer="663" to-port="2"/>
		<edge from-layer="661" from-port="1" to-layer="663" to-port="3"/>
		<edge from-layer="662" from-port="1" to-layer="663" to-port="4"/>
		<edge from-layer="656" from-port="2" to-layer="664" to-port="0"/>
		<edge from-layer="663" from-port="5" to-layer="664" to-port="1"/>
		<edge from-layer="664" from-port="2" to-layer="669" to-port="0"/>
		<edge from-layer="665" from-port="1" to-layer="669" to-port="1"/>
		<edge from-layer="666" from-port="1" to-layer="669" to-port="2"/>
		<edge from-layer="667" from-port="1" to-layer="669" to-port="3"/>
		<edge from-layer="668" from-port="1" to-layer="669" to-port="4"/>
		<edge from-layer="669" from-port="5" to-layer="671" to-port="0"/>
		<edge from-layer="670" from-port="1" to-layer="671" to-port="1"/>
		<edge from-layer="648" from-port="2" to-layer="672" to-port="0"/>
		<edge from-layer="671" from-port="2" to-layer="672" to-port="1"/>
		<edge from-layer="672" from-port="2" to-layer="675" to-port="0"/>
		<edge from-layer="673" from-port="1" to-layer="675" to-port="1"/>
		<edge from-layer="674" from-port="1" to-layer="675" to-port="2"/>
		<edge from-layer="675" from-port="3" to-layer="680" to-port="0"/>
		<edge from-layer="676" from-port="1" to-layer="680" to-port="1"/>
		<edge from-layer="677" from-port="1" to-layer="680" to-port="2"/>
		<edge from-layer="678" from-port="1" to-layer="680" to-port="3"/>
		<edge from-layer="679" from-port="1" to-layer="680" to-port="4"/>
		<edge from-layer="675" from-port="4" to-layer="685" to-port="0"/>
		<edge from-layer="681" from-port="1" to-layer="685" to-port="1"/>
		<edge from-layer="682" from-port="1" to-layer="685" to-port="2"/>
		<edge from-layer="683" from-port="1" to-layer="685" to-port="3"/>
		<edge from-layer="684" from-port="1" to-layer="685" to-port="4"/>
		<edge from-layer="675" from-port="5" to-layer="690" to-port="0"/>
		<edge from-layer="686" from-port="1" to-layer="690" to-port="1"/>
		<edge from-layer="687" from-port="1" to-layer="690" to-port="2"/>
		<edge from-layer="688" from-port="1" to-layer="690" to-port="3"/>
		<edge from-layer="689" from-port="1" to-layer="690" to-port="4"/>
		<edge from-layer="675" from-port="6" to-layer="695" to-port="0"/>
		<edge from-layer="691" from-port="1" to-layer="695" to-port="1"/>
		<edge from-layer="692" from-port="1" to-layer="695" to-port="2"/>
		<edge from-layer="693" from-port="1" to-layer="695" to-port="3"/>
		<edge from-layer="694" from-port="1" to-layer="695" to-port="4"/>
		<edge from-layer="675" from-port="7" to-layer="700" to-port="0"/>
		<edge from-layer="696" from-port="1" to-layer="700" to-port="1"/>
		<edge from-layer="697" from-port="1" to-layer="700" to-port="2"/>
		<edge from-layer="698" from-port="1" to-layer="700" to-port="3"/>
		<edge from-layer="699" from-port="1" to-layer="700" to-port="4"/>
		<edge from-layer="675" from-port="8" to-layer="705" to-port="0"/>
		<edge from-layer="701" from-port="1" to-layer="705" to-port="1"/>
		<edge from-layer="702" from-port="1" to-layer="705" to-port="2"/>
		<edge from-layer="703" from-port="1" to-layer="705" to-port="3"/>
		<edge from-layer="704" from-port="1" to-layer="705" to-port="4"/>
		<edge from-layer="675" from-port="9" to-layer="710" to-port="0"/>
		<edge from-layer="706" from-port="1" to-layer="710" to-port="1"/>
		<edge from-layer="707" from-port="1" to-layer="710" to-port="2"/>
		<edge from-layer="708" from-port="1" to-layer="710" to-port="3"/>
		<edge from-layer="709" from-port="1" to-layer="710" to-port="4"/>
		<edge from-layer="675" from-port="10" to-layer="715" to-port="0"/>
		<edge from-layer="711" from-port="1" to-layer="715" to-port="1"/>
		<edge from-layer="712" from-port="1" to-layer="715" to-port="2"/>
		<edge from-layer="713" from-port="1" to-layer="715" to-port="3"/>
		<edge from-layer="714" from-port="1" to-layer="715" to-port="4"/>
		<edge from-layer="680" from-port="5" to-layer="716" to-port="0"/>
		<edge from-layer="685" from-port="5" to-layer="716" to-port="1"/>
		<edge from-layer="690" from-port="5" to-layer="716" to-port="2"/>
		<edge from-layer="695" from-port="5" to-layer="716" to-port="3"/>
		<edge from-layer="700" from-port="5" to-layer="716" to-port="4"/>
		<edge from-layer="705" from-port="5" to-layer="716" to-port="5"/>
		<edge from-layer="710" from-port="5" to-layer="716" to-port="6"/>
		<edge from-layer="715" from-port="5" to-layer="716" to-port="7"/>
		<edge from-layer="716" from-port="8" to-layer="717" to-port="0"/>
		<edge from-layer="574" from-port="5" to-layer="717" to-port="1"/>
		<edge from-layer="717" from-port="2" to-layer="722" to-port="0"/>
		<edge from-layer="718" from-port="1" to-layer="722" to-port="1"/>
		<edge from-layer="719" from-port="1" to-layer="722" to-port="2"/>
		<edge from-layer="720" from-port="1" to-layer="722" to-port="3"/>
		<edge from-layer="721" from-port="1" to-layer="722" to-port="4"/>
		<edge from-layer="722" from-port="5" to-layer="724" to-port="0"/>
		<edge from-layer="723" from-port="1" to-layer="724" to-port="1"/>
		<edge from-layer="725" from-port="1" to-layer="726" to-port="0"/>
		<edge from-layer="726" from-port="1" to-layer="731" to-port="0"/>
		<edge from-layer="727" from-port="1" to-layer="731" to-port="1"/>
		<edge from-layer="728" from-port="1" to-layer="731" to-port="2"/>
		<edge from-layer="729" from-port="1" to-layer="731" to-port="3"/>
		<edge from-layer="730" from-port="1" to-layer="731" to-port="4"/>
		<edge from-layer="724" from-port="2" to-layer="732" to-port="0"/>
		<edge from-layer="731" from-port="5" to-layer="732" to-port="1"/>
		<edge from-layer="732" from-port="2" to-layer="734" to-port="0"/>
		<edge from-layer="733" from-port="1" to-layer="734" to-port="1"/>
		<edge from-layer="734" from-port="2" to-layer="735" to-port="0"/>
		<edge from-layer="735" from-port="1" to-layer="740" to-port="0"/>
		<edge from-layer="736" from-port="1" to-layer="740" to-port="1"/>
		<edge from-layer="737" from-port="1" to-layer="740" to-port="2"/>
		<edge from-layer="738" from-port="1" to-layer="740" to-port="3"/>
		<edge from-layer="739" from-port="1" to-layer="740" to-port="4"/>
		<edge from-layer="741" from-port="1" to-layer="742" to-port="0"/>
		<edge from-layer="742" from-port="1" to-layer="747" to-port="0"/>
		<edge from-layer="743" from-port="1" to-layer="747" to-port="1"/>
		<edge from-layer="744" from-port="1" to-layer="747" to-port="2"/>
		<edge from-layer="745" from-port="1" to-layer="747" to-port="3"/>
		<edge from-layer="746" from-port="1" to-layer="747" to-port="4"/>
		<edge from-layer="740" from-port="5" to-layer="748" to-port="0"/>
		<edge from-layer="747" from-port="5" to-layer="748" to-port="1"/>
		<edge from-layer="748" from-port="2" to-layer="750" to-port="0"/>
		<edge from-layer="749" from-port="1" to-layer="750" to-port="1"/>
		<edge from-layer="750" from-port="2" to-layer="755" to-port="0"/>
		<edge from-layer="751" from-port="1" to-layer="755" to-port="1"/>
		<edge from-layer="752" from-port="1" to-layer="755" to-port="2"/>
		<edge from-layer="753" from-port="1" to-layer="755" to-port="3"/>
		<edge from-layer="754" from-port="1" to-layer="755" to-port="4"/>
		<edge from-layer="755" from-port="5" to-layer="757" to-port="0"/>
		<edge from-layer="756" from-port="1" to-layer="757" to-port="1"/>
		<edge from-layer="757" from-port="2" to-layer="758" to-port="0"/>
		<edge from-layer="722" from-port="5" to-layer="758" to-port="1"/>
		<edge from-layer="758" from-port="2" to-layer="763" to-port="0"/>
		<edge from-layer="759" from-port="1" to-layer="763" to-port="1"/>
		<edge from-layer="760" from-port="1" to-layer="763" to-port="2"/>
		<edge from-layer="761" from-port="1" to-layer="763" to-port="3"/>
		<edge from-layer="762" from-port="1" to-layer="763" to-port="4"/>
		<edge from-layer="764" from-port="1" to-layer="765" to-port="0"/>
		<edge from-layer="765" from-port="1" to-layer="770" to-port="0"/>
		<edge from-layer="766" from-port="1" to-layer="770" to-port="1"/>
		<edge from-layer="767" from-port="1" to-layer="770" to-port="2"/>
		<edge from-layer="768" from-port="1" to-layer="770" to-port="3"/>
		<edge from-layer="769" from-port="1" to-layer="770" to-port="4"/>
		<edge from-layer="763" from-port="5" to-layer="771" to-port="0"/>
		<edge from-layer="770" from-port="5" to-layer="771" to-port="1"/>
		<edge from-layer="771" from-port="2" to-layer="773" to-port="0"/>
		<edge from-layer="772" from-port="1" to-layer="773" to-port="1"/>
		<edge from-layer="773" from-port="2" to-layer="778" to-port="0"/>
		<edge from-layer="774" from-port="1" to-layer="778" to-port="1"/>
		<edge from-layer="775" from-port="1" to-layer="778" to-port="2"/>
		<edge from-layer="776" from-port="1" to-layer="778" to-port="3"/>
		<edge from-layer="777" from-port="1" to-layer="778" to-port="4"/>
		<edge from-layer="778" from-port="5" to-layer="780" to-port="0"/>
		<edge from-layer="779" from-port="1" to-layer="780" to-port="1"/>
		<edge from-layer="780" from-port="2" to-layer="781" to-port="0"/>
	</edges>
	<meta_data>
		<MO_version value="unknown version"/>
		<cli_parameters>
			<blobs_as_inputs value="True"/>
			<caffe_parser_path value="DIR"/>
			<data_type value="FP16"/>
			<disable_nhwc_to_nchw value="False"/>
			<disable_omitting_optional value="False"/>
			<disable_resnet_optimization value="False"/>
			<disable_weights_compression value="False"/>
			<enable_concat_optimization value="False"/>
			<enable_flattening_nested_params value="False"/>
			<enable_ssd_gluoncv value="False"/>
			<extensions value="DIR"/>
			<framework value="onnx"/>
			<freeze_placeholder_with_value value="{}"/>
			<generate_deprecated_IR_V2 value="False"/>
			<generate_deprecated_IR_V7 value="False"/>
			<generate_experimental_IR_V10 value="True"/>
			<input value="0"/>
			<input_model value="DIR/driver_action_recognition_adas_0002_decoder.onnx"/>
			<input_model_is_text value="False"/>
			<input_shape value="[1,16,512]"/>
			<k value="DIR/CustomLayersMapping.xml"/>
			<keep_quantize_ops_in_IR value="True"/>
			<keep_shape_ops value="False"/>
			<legacy_mxnet_model value="False"/>
			<log_level value="ERROR"/>
			<mean_scale_values value="{}"/>
			<mean_values value="()"/>
			<model_name value="driver-action-recognition-adas-0002-decoder"/>
			<move_to_preprocess value="False"/>
			<output value="['804']"/>
			<output_dir value="DIR"/>
			<placeholder_data_types value="{}"/>
			<placeholder_shapes value="{'0': array([  1,  16, 512])}"/>
			<progress value="False"/>
			<remove_memory value="False"/>
			<remove_output_softmax value="False"/>
			<reverse_input_channels value="False"/>
			<save_params_from_nd value="False"/>
			<scale_values value="()"/>
			<silent value="False"/>
			<stream_output value="False"/>
			<unset unset_cli_parameters="batch, counts, disable_fusing, disable_gfusing, finegrain_fusing, input_checkpoint, input_meta_graph, input_proto, input_symbol, mean_file, mean_file_offsets, nd_prefix_name, pretrained_model_name, saved_model_dir, saved_model_tags, scale, tensorboard_logdir, tensorflow_custom_layer_libraries, tensorflow_custom_operations_config_update, tensorflow_object_detection_api_pipeline_config, tensorflow_use_custom_operations_config, transformations_config"/>
		</cli_parameters>
	</meta_data>
	<quantization_parameters>
		<config>{
		'compression': {
			'algorithms': [
				{
					'name': 'DefaultQuantization',
					'params': {
						'preset': 'performance',
						'stat_subset_size': 300
					}
				}
			],
			'target_device': 'CPU'
		},
		'engine': {
			'evaluations': [
				{
					'name': 'driver-action-recognition-adas-0002-encoder',
					'module': 'custom_evaluators.sequential_action_recognition_evaluator.SequentialActionRecognitionEvaluator',
					'module_config': {
						'network_info': {
							'encoder': {
								'model': 'intel/driver-action-recognition-adas-0002/driver-action-recognition-adas-0002-encoder/FP32/driver-action-recognition-adas-0002-encoder.xml',
								'weights': 'intel/driver-action-recognition-adas-0002/driver-action-recognition-adas-0002-encoder/FP32/driver-action-recognition-adas-0002-encoder.bin'
							},
							'decoder': {
								'model': 'intel/driver-action-recognition-adas-0002/driver-action-recognition-adas-0002-decoder/FP32/driver-action-recognition-adas-0002-decoder.xml',
								'weights': 'intel/driver-action-recognition-adas-0002/driver-action-recognition-adas-0002-decoder/FP32/driver-action-recognition-adas-0002-decoder.bin',
								'num_processing_frames': 16,
								'adapter': 'classification'
							}
						},
						'launchers': [
							{
								'framework': 'dlsdk',
								'tags': [
									'FP32'
								],
								'device': 'CPU'
							}
						],
						'datasets': [
							{
								'name': 'driver_action_recognition_dataset',
								'data_source': 'PATH',
								'annotation_conversion': {
									'converter': 'driver_action_recognition',
									'annotation_file': 'PATH',
									'data_dir': 'PATH'
								},
								'annotation': 'driver_action_recognition.pickle',
								'dataset_meta': 'driver_action_recognition.json',
								'preprocessing': [
									{
										'type': 'resize',
										'size': 224,
										'aspect_ratio_scale': 'fit_to_window'
									},
									{
										'type': 'crop',
										'size': 224
									}
								],
								'metrics': [
									{
										'type': 'clip_accuracy'
									}
								]
							}
						]
					}
				},
				{
					'name': 'driver-action-recognition-adas-0002-encoder',
					'module': 'custom_evaluators.sequential_action_recognition_evaluator.SequentialActionRecognitionEvaluator',
					'module_config': {
						'network_info': {
							'encoder': {
								'model': 'intel/driver-action-recognition-adas-0002/driver-action-recognition-adas-0002-encoder/FP16/driver-action-recognition-adas-0002-encoder.xml',
								'weights': 'intel/driver-action-recognition-adas-0002/driver-action-recognition-adas-0002-encoder/FP16/driver-action-recognition-adas-0002-encoder.bin'
							},
							'decoder': {
								'model': 'intel/driver-action-recognition-adas-0002/driver-action-recognition-adas-0002-decoder/FP16/driver-action-recognition-adas-0002-decoder.xml',
								'weights': 'intel/driver-action-recognition-adas-0002/driver-action-recognition-adas-0002-decoder/FP16/driver-action-recognition-adas-0002-decoder.bin',
								'num_processing_frames': 16,
								'adapter': 'classification'
							}
						},
						'launchers': [
							{
								'framework': 'dlsdk',
								'tags': [
									'FP16'
								],
								'device': 'CPU'
							}
						],
						'datasets': [
							{
								'name': 'driver_action_recognition_dataset',
								'data_source': 'PATH',
								'annotation_conversion': {
									'converter': 'driver_action_recognition',
									'annotation_file': 'PATH',
									'data_dir': 'PATH'
								},
								'annotation': 'driver_action_recognition.pickle',
								'dataset_meta': 'driver_action_recognition.json',
								'preprocessing': [
									{
										'type': 'resize',
										'size': 224,
										'aspect_ratio_scale': 'fit_to_window'
									},
									{
										'type': 'crop',
										'size': 224
									}
								],
								'metrics': [
									{
										'type': 'clip_accuracy',
										'presenter': 'print_vector'
									}
								]
							}
						]
					}
				}
			],
			'global_definitions': '../dataset_definitions.yml',
			'stat_requests_number': null,
			'eval_requests_number': null,
			'type': 'accuracy_checker'
		}
	}</config>
		<version value="1.0"/>
		<cli_params value="{'evaluate': False, 'output_dir': 'PATH', 'direct_dump': True, 'log_level': 'INFO', 'pbar': False, 'keep_uncompressed_weights': False}"/>
	</quantization_parameters>
</net>